…
/cluster/home/morathba/.local/lib64/python3.6/site-packages/sklearn/metrics/classification.py:1135: UndefinedMetricWarning: F-score is ill-defined and being set to 0.0 due to no predicted samples.
  'precision', 'predicted', average, warn_for)
/cluster/home/morathba/.local/lib64/python3.6/site-packages/sklearn/metrics/classification.py:1135: UndefinedMetricWarning: Precision is ill-defined and being set to 0.0 due to no predicted samples.
  'precision', 'predicted', average, warn_for)
_________________________________________________________________
Layer (type)                 Output Shape              Param #   
=================================================================
masking_1 (Masking)          (None, 334, 10)           0         
_________________________________________________________________
lstm_1 (LSTM)                (None, 334, 512)          1071104   
_________________________________________________________________
activation_1 (Activation)    (None, 334, 512)          0         
_________________________________________________________________
dense_1 (Dense)              (None, 334, 128)          65664     
_________________________________________________________________
activation_2 (Activation)    (None, 334, 128)          0         
_________________________________________________________________
dense_2 (Dense)              (None, 334, 128)          16512     
_________________________________________________________________
activation_3 (Activation)    (None, 334, 128)          0         
_________________________________________________________________
dense_3 (Dense)              (None, 334, 96)           12384     
_________________________________________________________________
activation_4 (Activation)    (None, 334, 96)           0         
_________________________________________________________________
time_distributed_1 (TimeDist (None, 334, 2)            194       
=================================================================
Total params: 1,165,858
Trainable params: 1,165,858
Non-trainable params: 0
_________________________________________________________________
None
Performance training set: 
[0.9802867383512545, 0.993103448275862, 0.9822695035460992, 0.9948979591836734, 0.97265625, 0.9749034749034748, 0.9770318021201414, 0.9965635738831615, 0.9964028776978417, 0.9831649831649832, 0.9947916666666667, 0.9871794871794871, 0.993723849372385, 0.9922779922779923, 0.9964157706093191]
…
