…
15/15 [==============================] - 2s 117ms/step - loss: 0.8641 - val_loss: 0.7545
Epoch 498/500

15/15 [==============================] - 2s 117ms/step - loss: 0.8554 - val_loss: 0.8226
Epoch 499/500

15/15 [==============================] - 2s 118ms/step - loss: 0.8303 - val_loss: 0.8997
Epoch 500/500

15/15 [==============================] - 2s 117ms/step - loss: 0.8243 - val_loss: 0.9106
_________________________________________________________________
Layer (type)                 Output Shape              Param #   
=================================================================
masking_1 (Masking)          (None, 334, 10)           0         
_________________________________________________________________
lstm_1 (LSTM)                (None, 334, 512)          1071104   
_________________________________________________________________
activation_1 (Activation)    (None, 334, 512)          0         
_________________________________________________________________
dense_1 (Dense)              (None, 334, 128)          65664     
_________________________________________________________________
activation_2 (Activation)    (None, 334, 128)          0         
_________________________________________________________________
dense_2 (Dense)              (None, 334, 128)          16512     
_________________________________________________________________
activation_3 (Activation)    (None, 334, 128)          0         
_________________________________________________________________
dense_3 (Dense)              (None, 334, 96)           12384     
_________________________________________________________________
activation_4 (Activation)    (None, 334, 96)           0         
_________________________________________________________________
time_distributed_1 (TimeDist (None, 334, 2)            194       
=================================================================
Total params: 1,165,858
Trainable params: 1,165,858
Non-trainable params: 0
_________________________________________________________________
None
Performance training set: 
[0.8508634734441186, 0.7793887147335423, 0.6829650845608292, 0.8428571428571427, 0.7341245993589743, 0.7332561132561133, 0.6314695489503221, 0.7927755134659953, 0.9425102774922919, 0.753981253981254, 0.709993961352657, 0.7466522548489762, 0.6202598546575644, 0.7058687258687258, 0.8759530791788854]
…
