…
/cluster/home/morathba/.local/lib64/python3.6/site-packages/sklearn/metrics/classification.py:1135: UndefinedMetricWarning: F-score is ill-defined and being set to 0.0 due to no predicted samples.
  'precision', 'predicted', average, warn_for)
/cluster/home/morathba/.local/lib64/python3.6/site-packages/sklearn/metrics/classification.py:1135: UndefinedMetricWarning: Precision is ill-defined and being set to 0.0 due to no predicted samples.
  'precision', 'predicted', average, warn_for)
_________________________________________________________________
Layer (type)                 Output Shape              Param #   
=================================================================
masking_1 (Masking)          (None, 334, 10)           0         
_________________________________________________________________
lstm_1 (LSTM)                (None, 334, 512)          1071104   
_________________________________________________________________
activation_1 (Activation)    (None, 334, 512)          0         
_________________________________________________________________
dense_1 (Dense)              (None, 334, 96)           49248     
_________________________________________________________________
activation_2 (Activation)    (None, 334, 96)           0         
_________________________________________________________________
dense_2 (Dense)              (None, 334, 96)           9312      
_________________________________________________________________
activation_3 (Activation)    (None, 334, 96)           0         
_________________________________________________________________
dense_3 (Dense)              (None, 334, 96)           9312      
_________________________________________________________________
activation_4 (Activation)    (None, 334, 96)           0         
_________________________________________________________________
time_distributed_1 (TimeDist (None, 334, 2)            194       
=================================================================
Total params: 1,139,170
Trainable params: 1,139,170
Non-trainable params: 0
_________________________________________________________________
None
Performance training set: 
[0.9372759856630825, 0.9155172413793103, 0.878682487725041, 0.9143707482993196, 0.865234375, 0.9276962676962678, 0.7985865724381626, 0.9106529209621993, 0.9928057553956834, 0.9309764309764309, 0.7838164251207731, 0.9157509157509157, 0.9205020920502093, 0.9189189189189189, 0.967741935483871]
…
