…
15/15 [==============================] - 1s 44ms/step - loss: 0.7814 - val_loss: 1.0759
Epoch 598/600

15/15 [==============================] - 1s 44ms/step - loss: 0.9683 - val_loss: 0.9691
Epoch 599/600

15/15 [==============================] - 1s 44ms/step - loss: 0.8871 - val_loss: 0.6680
Epoch 600/600

15/15 [==============================] - 1s 44ms/step - loss: 1.0496 - val_loss: 1.1647
_________________________________________________________________
Layer (type)                 Output Shape              Param #   
=================================================================
masking_1 (Masking)          (None, 334, 10)           0         
_________________________________________________________________
lstm_1 (LSTM)                (None, 334, 256)          273408    
_________________________________________________________________
activation_1 (Activation)    (None, 334, 256)          0         
_________________________________________________________________
dense_1 (Dense)              (None, 334, 96)           24672     
_________________________________________________________________
activation_2 (Activation)    (None, 334, 96)           0         
_________________________________________________________________
dense_2 (Dense)              (None, 334, 96)           9312      
_________________________________________________________________
activation_3 (Activation)    (None, 334, 96)           0         
_________________________________________________________________
dense_3 (Dense)              (None, 334, 96)           9312      
_________________________________________________________________
activation_4 (Activation)    (None, 334, 96)           0         
_________________________________________________________________
time_distributed_1 (TimeDist (None, 334, 2)            194       
=================================================================
Total params: 316,898
Trainable params: 316,898
Non-trainable params: 0
_________________________________________________________________
None
Performance training set: 
[0.6272401433691757, 0.5862068965517242, 0.524822695035461, 0.5986394557823129, 0.560546875, 0.555984555984556, 0.5343656897387931, 0.6134020618556701, 0.8669064748201438, 0.537037037037037, 0.5607638888888888, 0.5476190476190477, 0.5397489539748954, 0.5694980694980696, 0.6935483870967742]
…
