…
15/15 [==============================] - 2s 116ms/step - loss: 0.8173 - val_loss: 0.8473
Epoch 698/700

15/15 [==============================] - 2s 116ms/step - loss: 0.8101 - val_loss: 0.8721
Epoch 699/700

15/15 [==============================] - 2s 115ms/step - loss: 0.8203 - val_loss: 0.8732
Epoch 700/700

15/15 [==============================] - 2s 116ms/step - loss: 0.8304 - val_loss: 0.9318
_________________________________________________________________
Layer (type)                 Output Shape              Param #   
=================================================================
masking_1 (Masking)          (None, 334, 10)           0         
_________________________________________________________________
lstm_1 (LSTM)                (None, 334, 512)          1071104   
_________________________________________________________________
activation_1 (Activation)    (None, 334, 512)          0         
_________________________________________________________________
dense_1 (Dense)              (None, 334, 128)          65664     
_________________________________________________________________
activation_2 (Activation)    (None, 334, 128)          0         
_________________________________________________________________
dense_2 (Dense)              (None, 334, 128)          16512     
_________________________________________________________________
activation_3 (Activation)    (None, 334, 128)          0         
_________________________________________________________________
dense_3 (Dense)              (None, 334, 96)           12384     
_________________________________________________________________
activation_4 (Activation)    (None, 334, 96)           0         
_________________________________________________________________
time_distributed_1 (TimeDist (None, 334, 2)            194       
=================================================================
Total params: 1,165,858
Trainable params: 1,165,858
Non-trainable params: 0
_________________________________________________________________
None
Performance training set: 
[0.7956989247311828, 0.7800156739811912, 0.7262002182214948, 0.8236394557823129, 0.7156951121794872, 0.696911196911197, 0.6774752303748355, 0.7491408934707904, 0.9496402877697842, 0.7036582036582038, 0.7152777777777778, 0.7463820332672791, 0.6213389121338913, 0.7007722007722008, 0.8261648745519713]
…
