…
15/15 [==============================] - 2s 117ms/step - loss: 0.4744 - val_loss: 0.8070
Epoch 598/600

15/15 [==============================] - 2s 116ms/step - loss: 0.4651 - val_loss: 0.8021
Epoch 599/600

15/15 [==============================] - 2s 116ms/step - loss: 0.4486 - val_loss: 0.8336
Epoch 600/600

15/15 [==============================] - 2s 117ms/step - loss: 0.4348 - val_loss: 0.8226
_________________________________________________________________
Layer (type)                 Output Shape              Param #   
=================================================================
masking_1 (Masking)          (None, 334, 10)           0         
_________________________________________________________________
lstm_1 (LSTM)                (None, 334, 512)          1071104   
_________________________________________________________________
activation_1 (Activation)    (None, 334, 512)          0         
_________________________________________________________________
dense_1 (Dense)              (None, 334, 96)           49248     
_________________________________________________________________
activation_2 (Activation)    (None, 334, 96)           0         
_________________________________________________________________
dense_2 (Dense)              (None, 334, 96)           9312      
_________________________________________________________________
activation_3 (Activation)    (None, 334, 96)           0         
_________________________________________________________________
dense_3 (Dense)              (None, 334, 96)           9312      
_________________________________________________________________
activation_4 (Activation)    (None, 334, 96)           0         
_________________________________________________________________
time_distributed_1 (TimeDist (None, 334, 2)            194       
=================================================================
Total params: 1,139,170
Trainable params: 1,139,170
Non-trainable params: 0
_________________________________________________________________
None
Performance training set: 
[0.9390681003584229, 0.8952194357366771, 0.8910938352427713, 0.9500850340136054, 0.8738982371794872, 0.9025997425997427, 0.9124575625303125, 0.9337888595860305, 0.9802158273381295, 0.9241969241969243, 0.820727657004831, 0.9011889749594668, 0.9163179916317992, 0.9266409266409266, 0.9550667970022809]
…
