…
/cluster/home/morathba/.local/lib64/python3.6/site-packages/sklearn/cross_validation.py:41: DeprecationWarning: This module was deprecated in version 0.18 in favor of the model_selection module into which all the refactored classes and functions are moved. Also note that the interface of the new CV iterators are different from that of this module. This module will be removed in 0.20.
  "This module will be removed in 0.20.", DeprecationWarning)
Epoch 00585: early stopping
_________________________________________________________________
Layer (type)                 Output Shape              Param #   
=================================================================
masking_1 (Masking)          (None, 334, 10)           0         
_________________________________________________________________
lstm_1 (LSTM)                (None, 334, 512)          1071104   
_________________________________________________________________
activation_1 (Activation)    (None, 334, 512)          0         
_________________________________________________________________
dense_1 (Dense)              (None, 334, 256)          131328    
_________________________________________________________________
activation_2 (Activation)    (None, 334, 256)          0         
_________________________________________________________________
dense_2 (Dense)              (None, 334, 32)           8224      
_________________________________________________________________
activation_3 (Activation)    (None, 334, 32)           0         
_________________________________________________________________
dense_3 (Dense)              (None, 334, 32)           1056      
_________________________________________________________________
activation_4 (Activation)    (None, 334, 32)           0         
_________________________________________________________________
time_distributed_1 (TimeDist (None, 334, 2)            66        
=================================================================
Total params: 1,211,778
Trainable params: 1,211,778
Non-trainable params: 0
_________________________________________________________________
None
Performance training set: 
[1.0, 1.0, 1.0, 1.0, 1.0, 1.0, 1.0, 1.0, 1.0, 1.0, 1.0, 1.0, 1.0, 1.0, 1.0]


******** Scores for LSTM (Windows:  10, 5, 10) ******** 

	roc_auc: 1.000 (+-0.00), recall: 1.000 (+-0.00), specificity: 1.000, precision: 1.000 (+-0.00) 
…
