…
13/13 [==============================] - 1s 55ms/step - loss: 1.1306 - val_loss: 1.3705
Epoch 9998/10000

13/13 [==============================] - 1s 54ms/step - loss: 1.1346 - val_loss: 1.3795
Epoch 9999/10000

13/13 [==============================] - 1s 54ms/step - loss: 1.1182 - val_loss: 1.4038
Epoch 10000/10000

13/13 [==============================] - 1s 55ms/step - loss: 1.1441 - val_loss: 1.3776
Using TensorFlow backend.
_________________________________________________________________
Layer (type)                 Output Shape              Param #   
=================================================================
masking_1 (Masking)          (None, 334, 10)           0         
_________________________________________________________________
lstm_1 (LSTM)                (None, 334, 196)          162288    
_________________________________________________________________
dense_1 (Dense)              (None, 334, 128)          25216     
_________________________________________________________________
dense_2 (Dense)              (None, 334, 64)           8256      
_________________________________________________________________
lstm_2 (LSTM)                (None, 334, 64)           33024     
_________________________________________________________________
dense_3 (Dense)              (None, 334, 32)           2080      
_________________________________________________________________
time_distributed_1 (TimeDist (None, 334, 2)            66        
=================================================================
Total params: 230,930
Trainable params: 230,930
Non-trainable params: 0
_________________________________________________________________
None


******** Scores for LSTM (Windows:  10, 5, 10) ******** 

	roc_auc: 0.602 (+-0.07), recall: 0.803 (+-0.18), specificity: 0.401, precision: 0.224 (+-0.06) 

	Confusion matrix: 	 [1953 2780] 
…
