…
14/14 [==============================] - 0s 12ms/step - loss: 1.3866
Epoch 247/250

14/14 [==============================] - 0s 12ms/step - loss: 1.3886
Epoch 248/250

14/14 [==============================] - 0s 13ms/step - loss: 1.3838
Epoch 249/250

14/14 [==============================] - 0s 12ms/step - loss: 1.3835
Epoch 250/250

14/14 [==============================] - 0s 12ms/step - loss: 1.3805
_________________________________________________________________
Layer (type)                 Output Shape              Param #   
=================================================================
masking_1 (Masking)          (None, 334, 10)           0         
_________________________________________________________________
lstm_1 (LSTM)                (None, 334, 64)           19200     
_________________________________________________________________
dropout_1 (Dropout)          (None, 334, 64)           0         
_________________________________________________________________
dense_1 (Dense)              (None, 334, 64)           4160      
_________________________________________________________________
dropout_2 (Dropout)          (None, 334, 64)           0         
_________________________________________________________________
dense_2 (Dense)              (None, 334, 64)           4160      
_________________________________________________________________
dropout_3 (Dropout)          (None, 334, 64)           0         
_________________________________________________________________
time_distributed_1 (TimeDist (None, 334, 2)            130       
=================================================================
Total params: 27,650
Trainable params: 27,650
Non-trainable params: 0
_________________________________________________________________
None
Performance training set: 
[0.5747110747110747, 0.5809104948633586, 0.6668495297805643, 0.5723572639909554, 0.7274659863945578, 0.507552137462759, 0.536080917874396, 0.6427027027027026, 0.6337760402720507, 0.6877484522645814, 0.6217798594847774, 0.5823818108974359, 0.5962202671880091, 0.507157013873596]
…
