…
WARNING:tensorflow:Variable *= will be deprecated. Use variable.assign_mul if you want assignment to the variable value or 'x = x * y' if you want a new python Tensor object.
2018-07-20 14:25:43.783720: I tensorflow/core/platform/cpu_feature_guard.cc:140] Your CPU supports instructions that this TensorFlow binary was not compiled to use: AVX2 FMA
Loading dataframes...
Feature matrix already cached!
Feature matrix and labels created!

################# Get trained LSTM #################

Compiling lstm network...
_________________________________________________________________
Layer (type)                 Output Shape              Param #   
=================================================================
masking_1 (Masking)          (None, 334, 10)           0         
_________________________________________________________________
lstm_1 (LSTM)                (None, 334, 96)           41088     
_________________________________________________________________
dropout_1 (Dropout)          (None, 334, 96)           0         
_________________________________________________________________
dense_1 (Dense)              (None, 334, 96)           9312      
_________________________________________________________________
dropout_2 (Dropout)          (None, 334, 96)           0         
_________________________________________________________________
dense_2 (Dense)              (None, 334, 64)           6208      
_________________________________________________________________
dropout_3 (Dropout)          (None, 334, 64)           0         
_________________________________________________________________
time_distributed_1 (TimeDist (None, 334, 2)            130       
=================================================================
Total params: 56,738
Trainable params: 56,738
Non-trainable params: 0
_________________________________________________________________
None


******** Scores for LSTM (Windows:  10, 5, 10) ******** 

	roc_auc: 0.617 (+-0.06), recall: 0.593 (+-0.14), specificity: 0.642, precision: 0.228 (+-0.05) 

	Confusion matrix: 	 [858 473] 
				 [ 90 144]



Compiling lstm network...
_________________________________________________________________
Layer (type)                 Output Shape              Param #   
=================================================================
masking_2 (Masking)          (None, 334, 10)           0         
_________________________________________________________________
lstm_2 (LSTM)                (None, 334, 96)           41088     
_________________________________________________________________
dropout_4 (Dropout)          (None, 334, 96)           0         
_________________________________________________________________
dense_4 (Dense)              (None, 334, 96)           9312      
_________________________________________________________________
dropout_5 (Dropout)          (None, 334, 96)           0         
_________________________________________________________________
dense_5 (Dense)              (None, 334, 64)           6208      
_________________________________________________________________
dropout_6 (Dropout)          (None, 334, 64)           0         
_________________________________________________________________
time_distributed_2 (TimeDist (None, 334, 2)            130       
=================================================================
Total params: 56,738
Trainable params: 56,738
Non-trainable params: 0
_________________________________________________________________
None


******** Scores for LSTM (Windows:  10, 5, 10) ******** 

	roc_auc: 0.596 (+-0.04), recall: 0.661 (+-0.17), specificity: 0.532, precision: 0.257 (+-0.04) 

	Confusion matrix: 	 [677 579] 
				 [ 94 209]



Compiling lstm network...
_________________________________________________________________
Layer (type)                 Output Shape              Param #   
=================================================================
masking_3 (Masking)          (None, 334, 10)           0         
_________________________________________________________________
lstm_3 (LSTM)                (None, 334, 96)           41088     
_________________________________________________________________
dropout_7 (Dropout)          (None, 334, 96)           0         
_________________________________________________________________
dense_7 (Dense)              (None, 334, 96)           9312      
_________________________________________________________________
dropout_8 (Dropout)          (None, 334, 96)           0         
_________________________________________________________________
dense_8 (Dense)              (None, 334, 64)           6208      
_________________________________________________________________
dropout_9 (Dropout)          (None, 334, 64)           0         
_________________________________________________________________
time_distributed_3 (TimeDist (None, 334, 2)            130       
=================================================================
Total params: 56,738
Trainable params: 56,738
Non-trainable params: 0
_________________________________________________________________
None


******** Scores for LSTM (Windows:  10, 5, 10) ******** 

	roc_auc: 0.595 (+-0.05), recall: 0.600 (+-0.24), specificity: 0.589, precision: 0.265 (+-0.13) 

	Confusion matrix: 	 [678 520] 
				 [131 159]



Compiling lstm network...
_________________________________________________________________
Layer (type)                 Output Shape              Param #   
=================================================================
masking_4 (Masking)          (None, 334, 10)           0         
_________________________________________________________________
lstm_4 (LSTM)                (None, 334, 96)           41088     
_________________________________________________________________
dropout_10 (Dropout)         (None, 334, 96)           0         
_________________________________________________________________
dense_10 (Dense)             (None, 334, 96)           9312      
_________________________________________________________________
dropout_11 (Dropout)         (None, 334, 96)           0         
_________________________________________________________________
dense_11 (Dense)             (None, 334, 64)           6208      
_________________________________________________________________
dropout_12 (Dropout)         (None, 334, 64)           0         
_________________________________________________________________
time_distributed_4 (TimeDist (None, 334, 2)            130       
=================================================================
Total params: 56,738
Trainable params: 56,738
Non-trainable params: 0
_________________________________________________________________
None


******** Scores for LSTM (Windows:  10, 5, 10) ******** 

	roc_auc: 0.617 (+-0.04), recall: 0.635 (+-0.13), specificity: 0.599, precision: 0.215 (+-0.04) 

	Confusion matrix: 	 [792 527] 
				 [ 79 151]



Compiling lstm network...
_________________________________________________________________
Layer (type)                 Output Shape              Param #   
=================================================================
masking_5 (Masking)          (None, 334, 10)           0         
_________________________________________________________________
lstm_5 (LSTM)                (None, 334, 96)           41088     
_________________________________________________________________
dropout_13 (Dropout)         (None, 334, 96)           0         
_________________________________________________________________
dense_13 (Dense)             (None, 334, 96)           9312      
_________________________________________________________________
dropout_14 (Dropout)         (None, 334, 96)           0         
_________________________________________________________________
dense_14 (Dense)             (None, 334, 64)           6208      
_________________________________________________________________
dropout_15 (Dropout)         (None, 334, 64)           0         
_________________________________________________________________
time_distributed_5 (TimeDist (None, 334, 2)            130       
=================================================================
Total params: 56,738
Trainable params: 56,738
Non-trainable params: 0
_________________________________________________________________
None


******** Scores for LSTM (Windows:  10, 5, 10) ******** 

	roc_auc: 0.575 (+-0.03), recall: 0.537 (+-0.13), specificity: 0.612, precision: 0.253 (+-0.13) 

	Confusion matrix: 	 [700 473] 
				 [131 138]



Compiling lstm network...
_________________________________________________________________
Layer (type)                 Output Shape              Param #   
=================================================================
masking_6 (Masking)          (None, 334, 10)           0         
_________________________________________________________________
lstm_6 (LSTM)                (None, 334, 96)           41088     
_________________________________________________________________
dropout_16 (Dropout)         (None, 334, 96)           0         
_________________________________________________________________
dense_16 (Dense)             (None, 334, 96)           9312      
_________________________________________________________________
dropout_17 (Dropout)         (None, 334, 96)           0         
_________________________________________________________________
dense_17 (Dense)             (None, 334, 64)           6208      
_________________________________________________________________
dropout_18 (Dropout)         (None, 334, 64)           0         
_________________________________________________________________
time_distributed_6 (TimeDist (None, 334, 2)            130       
=================================================================
Total params: 56,738
Trainable params: 56,738
Non-trainable params: 0
_________________________________________________________________
None


******** Scores for LSTM (Windows:  10, 5, 10) ******** 

	roc_auc: 0.591 (+-0.06), recall: 0.520 (+-0.12), specificity: 0.662, precision: 0.223 (+-0.07) 

	Confusion matrix: 	 [877 438] 
				 [109 133]



Compiling lstm network...
_________________________________________________________________
Layer (type)                 Output Shape              Param #   
=================================================================
masking_7 (Masking)          (None, 334, 10)           0         
_________________________________________________________________
lstm_7 (LSTM)                (None, 334, 96)           41088     
_________________________________________________________________
dropout_19 (Dropout)         (None, 334, 96)           0         
_________________________________________________________________
dense_19 (Dense)             (None, 334, 96)           9312      
_________________________________________________________________
dropout_20 (Dropout)         (None, 334, 96)           0         
_________________________________________________________________
dense_20 (Dense)             (None, 334, 64)           6208      
_________________________________________________________________
dropout_21 (Dropout)         (None, 334, 64)           0         
_________________________________________________________________
time_distributed_7 (TimeDist (None, 334, 2)            130       
=================================================================
Total params: 56,738
Trainable params: 56,738
Non-trainable params: 0
_________________________________________________________________
None


******** Scores for LSTM (Windows:  10, 5, 10) ******** 

	roc_auc: 0.616 (+-0.06), recall: 0.763 (+-0.12), specificity: 0.469, precision: 0.257 (+-0.05) 

	Confusion matrix: 	 [614 687] 
				 [ 61 223]



Compiling lstm network...
_________________________________________________________________
Layer (type)                 Output Shape              Param #   
=================================================================
masking_8 (Masking)          (None, 334, 10)           0         
_________________________________________________________________
lstm_8 (LSTM)                (None, 334, 96)           41088     
_________________________________________________________________
dropout_22 (Dropout)         (None, 334, 96)           0         
_________________________________________________________________
dense_22 (Dense)             (None, 334, 96)           9312      
_________________________________________________________________
dropout_23 (Dropout)         (None, 334, 96)           0         
_________________________________________________________________
dense_23 (Dense)             (None, 334, 64)           6208      
_________________________________________________________________
dropout_24 (Dropout)         (None, 334, 64)           0         
_________________________________________________________________
time_distributed_8 (TimeDist (None, 334, 2)            130       
=================================================================
Total params: 56,738
Trainable params: 56,738
Non-trainable params: 0
_________________________________________________________________
None


******** Scores for LSTM (Windows:  10, 5, 10) ******** 

	roc_auc: 0.577 (+-0.06), recall: 0.526 (+-0.17), specificity: 0.628, precision: 0.259 (+-0.13) 

	Confusion matrix: 	 [747 452] 
				 [134 152]



Compiling lstm network...
_________________________________________________________________
Layer (type)                 Output Shape              Param #   
=================================================================
masking_9 (Masking)          (None, 334, 10)           0         
_________________________________________________________________
lstm_9 (LSTM)                (None, 334, 96)           41088     
_________________________________________________________________
dropout_25 (Dropout)         (None, 334, 96)           0         
_________________________________________________________________
dense_25 (Dense)             (None, 334, 96)           9312      
_________________________________________________________________
dropout_26 (Dropout)         (None, 334, 96)           0         
_________________________________________________________________
dense_26 (Dense)             (None, 334, 64)           6208      
_________________________________________________________________
dropout_27 (Dropout)         (None, 334, 64)           0         
_________________________________________________________________
time_distributed_9 (TimeDist (None, 334, 2)            130       
=================================================================
Total params: 56,738
Trainable params: 56,738
Non-trainable params: 0
_________________________________________________________________
None


******** Scores for LSTM (Windows:  10, 5, 10) ******** 

	roc_auc: 0.611 (+-0.04), recall: 0.642 (+-0.13), specificity: 0.580, precision: 0.296 (+-0.10) 

	Confusion matrix: 	 [689 518] 
				 [124 200]



Compiling lstm network...
_________________________________________________________________
Layer (type)                 Output Shape              Param #   
=================================================================
masking_10 (Masking)         (None, 334, 10)           0         
_________________________________________________________________
lstm_10 (LSTM)               (None, 334, 96)           41088     
_________________________________________________________________
dropout_28 (Dropout)         (None, 334, 96)           0         
_________________________________________________________________
dense_28 (Dense)             (None, 334, 96)           9312      
_________________________________________________________________
dropout_29 (Dropout)         (None, 334, 96)           0         
_________________________________________________________________
dense_29 (Dense)             (None, 334, 64)           6208      
_________________________________________________________________
dropout_30 (Dropout)         (None, 334, 64)           0         
_________________________________________________________________
time_distributed_10 (TimeDis (None, 334, 2)            130       
=================================================================
Total params: 56,738
Trainable params: 56,738
Non-trainable params: 0
_________________________________________________________________
None


******** Scores for LSTM (Windows:  10, 5, 10) ******** 

	roc_auc: 0.599 (+-0.05), recall: 0.700 (+-0.21), specificity: 0.498, precision: 0.221 (+-0.05) 

	Confusion matrix: 	 [657 651] 
				 [ 63 190]



Compiling lstm network...
_________________________________________________________________
Layer (type)                 Output Shape              Param #   
=================================================================
masking_11 (Masking)         (None, 334, 10)           0         
_________________________________________________________________
lstm_11 (LSTM)               (None, 334, 96)           41088     
_________________________________________________________________
dropout_31 (Dropout)         (None, 334, 96)           0         
_________________________________________________________________
dense_31 (Dense)             (None, 334, 96)           9312      
_________________________________________________________________
dropout_32 (Dropout)         (None, 334, 96)           0         
_________________________________________________________________
dense_32 (Dense)             (None, 334, 64)           6208      
_________________________________________________________________
dropout_33 (Dropout)         (None, 334, 64)           0         
_________________________________________________________________
time_distributed_11 (TimeDis (None, 334, 2)            130       
=================================================================
Total params: 56,738
Trainable params: 56,738
Non-trainable params: 0
_________________________________________________________________
None


******** Scores for LSTM (Windows:  10, 5, 10) ******** 

	roc_auc: 0.593 (+-0.04), recall: 0.589 (+-0.14), specificity: 0.597, precision: 0.241 (+-0.06) 

	Confusion matrix: 	 [756 499] 
				 [101 170]



Compiling lstm network...
_________________________________________________________________
Layer (type)                 Output Shape              Param #   
=================================================================
masking_12 (Masking)         (None, 334, 10)           0         
_________________________________________________________________
lstm_12 (LSTM)               (None, 334, 96)           41088     
_________________________________________________________________
dropout_34 (Dropout)         (None, 334, 96)           0         
_________________________________________________________________
dense_34 (Dense)             (None, 334, 96)           9312      
_________________________________________________________________
dropout_35 (Dropout)         (None, 334, 96)           0         
_________________________________________________________________
dense_35 (Dense)             (None, 334, 64)           6208      
_________________________________________________________________
dropout_36 (Dropout)         (None, 334, 64)           0         
_________________________________________________________________
time_distributed_12 (TimeDis (None, 334, 2)            130       
=================================================================
Total params: 56,738
Trainable params: 56,738
Non-trainable params: 0
_________________________________________________________________
None


******** Scores for LSTM (Windows:  10, 5, 10) ******** 

	roc_auc: 0.591 (+-0.03), recall: 0.528 (+-0.20), specificity: 0.654, precision: 0.284 (+-0.16) 

	Confusion matrix: 	 [755 444] 
				 [141 135]



Compiling lstm network...
_________________________________________________________________
Layer (type)                 Output Shape              Param #   
=================================================================
masking_13 (Masking)         (None, 334, 10)           0         
_________________________________________________________________
lstm_13 (LSTM)               (None, 334, 96)           41088     
_________________________________________________________________
dropout_37 (Dropout)         (None, 334, 96)           0         
_________________________________________________________________
dense_37 (Dense)             (None, 334, 96)           9312      
_________________________________________________________________
dropout_38 (Dropout)         (None, 334, 96)           0         
_________________________________________________________________
dense_38 (Dense)             (None, 334, 64)           6208      
_________________________________________________________________
dropout_39 (Dropout)         (None, 334, 64)           0         
_________________________________________________________________
time_distributed_13 (TimeDis (None, 334, 2)            130       
=================================================================
Total params: 56,738
Trainable params: 56,738
Non-trainable params: 0
_________________________________________________________________
None


******** Scores for LSTM (Windows:  10, 5, 10) ******** 

	roc_auc: 0.613 (+-0.06), recall: 0.649 (+-0.11), specificity: 0.577, precision: 0.217 (+-0.05) 

	Confusion matrix: 	 [777 578] 
				 [ 79 150]



Compiling lstm network...
_________________________________________________________________
Layer (type)                 Output Shape              Param #   
=================================================================
masking_14 (Masking)         (None, 334, 10)           0         
_________________________________________________________________
lstm_14 (LSTM)               (None, 334, 96)           41088     
_________________________________________________________________
dropout_40 (Dropout)         (None, 334, 96)           0         
_________________________________________________________________
dense_40 (Dense)             (None, 334, 96)           9312      
_________________________________________________________________
dropout_41 (Dropout)         (None, 334, 96)           0         
_________________________________________________________________
dense_41 (Dense)             (None, 334, 64)           6208      
_________________________________________________________________
dropout_42 (Dropout)         (None, 334, 64)           0         
_________________________________________________________________
time_distributed_14 (TimeDis (None, 334, 2)            130       
=================================================================
Total params: 56,738
Trainable params: 56,738
Non-trainable params: 0
_________________________________________________________________
None


******** Scores for LSTM (Windows:  10, 5, 10) ******** 

	roc_auc: 0.589 (+-0.03), recall: 0.511 (+-0.09), specificity: 0.666, precision: 0.223 (+-0.06) 

	Confusion matrix: 	 [870 429] 
				 [115 132]



Compiling lstm network...
_________________________________________________________________
Layer (type)                 Output Shape              Param #   
=================================================================
masking_15 (Masking)         (None, 334, 10)           0         
_________________________________________________________________
lstm_15 (LSTM)               (None, 334, 96)           41088     
_________________________________________________________________
dropout_43 (Dropout)         (None, 334, 96)           0         
_________________________________________________________________
dense_43 (Dense)             (None, 334, 96)           9312      
_________________________________________________________________
dropout_44 (Dropout)         (None, 334, 96)           0         
_________________________________________________________________
dense_44 (Dense)             (None, 334, 64)           6208      
_________________________________________________________________
dropout_45 (Dropout)         (None, 334, 64)           0         
_________________________________________________________________
time_distributed_15 (TimeDis (None, 334, 2)            130       
=================================================================
Total params: 56,738
Trainable params: 56,738
Non-trainable params: 0
_________________________________________________________________
None


******** Scores for LSTM (Windows:  10, 5, 10) ******** 

	roc_auc: 0.587 (+-0.05), recall: 0.686 (+-0.29), specificity: 0.488, precision: 0.300 (+-0.13) 

	Confusion matrix: 	 [517 655] 
				 [122 208]



Compiling lstm network...
_________________________________________________________________
Layer (type)                 Output Shape              Param #   
=================================================================
masking_16 (Masking)         (None, 334, 10)           0         
_________________________________________________________________
lstm_16 (LSTM)               (None, 334, 96)           41088     
_________________________________________________________________
dropout_46 (Dropout)         (None, 334, 96)           0         
_________________________________________________________________
dense_46 (Dense)             (None, 334, 96)           9312      
_________________________________________________________________
dropout_47 (Dropout)         (None, 334, 96)           0         
_________________________________________________________________
dense_47 (Dense)             (None, 334, 64)           6208      
_________________________________________________________________
dropout_48 (Dropout)         (None, 334, 64)           0         
_________________________________________________________________
time_distributed_16 (TimeDis (None, 334, 2)            130       
=================================================================
Total params: 56,738
Trainable params: 56,738
Non-trainable params: 0
_________________________________________________________________
None


******** Scores for LSTM (Windows:  10, 5, 10) ******** 

	roc_auc: 0.600 (+-0.04), recall: 0.735 (+-0.10), specificity: 0.465, precision: 0.228 (+-0.07) 

	Confusion matrix: 	 [610 709] 
				 [ 76 207]



Compiling lstm network...
_________________________________________________________________
Layer (type)                 Output Shape              Param #   
=================================================================
masking_17 (Masking)         (None, 334, 10)           0         
_________________________________________________________________
lstm_17 (LSTM)               (None, 334, 96)           41088     
_________________________________________________________________
dropout_49 (Dropout)         (None, 334, 96)           0         
_________________________________________________________________
dense_49 (Dense)             (None, 334, 96)           9312      
_________________________________________________________________
dropout_50 (Dropout)         (None, 334, 96)           0         
_________________________________________________________________
dense_50 (Dense)             (None, 334, 64)           6208      
_________________________________________________________________
dropout_51 (Dropout)         (None, 334, 64)           0         
_________________________________________________________________
time_distributed_17 (TimeDis (None, 334, 2)            130       
=================================================================
Total params: 56,738
Trainable params: 56,738
Non-trainable params: 0
_________________________________________________________________
None


******** Scores for LSTM (Windows:  10, 5, 10) ******** 

	roc_auc: 0.642 (+-0.06), recall: 0.624 (+-0.13), specificity: 0.661, precision: 0.253 (+-0.04) 

	Confusion matrix: 	 [884 453] 
				 [ 92 153]



Compiling lstm network...
_________________________________________________________________
Layer (type)                 Output Shape              Param #   
=================================================================
masking_18 (Masking)         (None, 334, 10)           0         
_________________________________________________________________
lstm_18 (LSTM)               (None, 334, 96)           41088     
_________________________________________________________________
dropout_52 (Dropout)         (None, 334, 96)           0         
_________________________________________________________________
dense_52 (Dense)             (None, 334, 96)           9312      
_________________________________________________________________
dropout_53 (Dropout)         (None, 334, 96)           0         
_________________________________________________________________
dense_53 (Dense)             (None, 334, 64)           6208      
_________________________________________________________________
dropout_54 (Dropout)         (None, 334, 64)           0         
_________________________________________________________________
time_distributed_18 (TimeDis (None, 334, 2)            130       
=================================================================
Total params: 56,738
Trainable params: 56,738
Non-trainable params: 0
_________________________________________________________________
None


******** Scores for LSTM (Windows:  10, 5, 10) ******** 

	roc_auc: 0.590 (+-0.05), recall: 0.580 (+-0.24), specificity: 0.600, precision: 0.282 (+-0.10) 

	Confusion matrix: 	 [682 483] 
				 [133 181]



Compiling lstm network...
_________________________________________________________________
Layer (type)                 Output Shape              Param #   
=================================================================
masking_19 (Masking)         (None, 334, 10)           0         
_________________________________________________________________
lstm_19 (LSTM)               (None, 334, 96)           41088     
_________________________________________________________________
dropout_55 (Dropout)         (None, 334, 96)           0         
_________________________________________________________________
dense_55 (Dense)             (None, 334, 96)           9312      
_________________________________________________________________
dropout_56 (Dropout)         (None, 334, 96)           0         
_________________________________________________________________
dense_56 (Dense)             (None, 334, 64)           6208      
_________________________________________________________________
dropout_57 (Dropout)         (None, 334, 64)           0         
_________________________________________________________________
time_distributed_19 (TimeDis (None, 334, 2)            130       
=================================================================
Total params: 56,738
Trainable params: 56,738
Non-trainable params: 0
_________________________________________________________________
None


******** Scores for LSTM (Windows:  10, 5, 10) ******** 

	roc_auc: 0.637 (+-0.06), recall: 0.737 (+-0.19), specificity: 0.537, precision: 0.306 (+-0.09) 

	Confusion matrix: 	 [632 571] 
				 [ 96 229]



Compiling lstm network...
_________________________________________________________________
Layer (type)                 Output Shape              Param #   
=================================================================
masking_20 (Masking)         (None, 334, 10)           0         
_________________________________________________________________
lstm_20 (LSTM)               (None, 334, 96)           41088     
_________________________________________________________________
dropout_58 (Dropout)         (None, 334, 96)           0         
_________________________________________________________________
dense_58 (Dense)             (None, 334, 96)           9312      
_________________________________________________________________
dropout_59 (Dropout)         (None, 334, 96)           0         
_________________________________________________________________
dense_59 (Dense)             (None, 334, 64)           6208      
_________________________________________________________________
dropout_60 (Dropout)         (None, 334, 64)           0         
_________________________________________________________________
time_distributed_20 (TimeDis (None, 334, 2)            130       
=================================================================
Total params: 56,738
Trainable params: 56,738
Non-trainable params: 0
_________________________________________________________________
None


******** Scores for LSTM (Windows:  10, 5, 10) ******** 

	roc_auc: 0.591 (+-0.07), recall: 0.547 (+-0.15), specificity: 0.634, precision: 0.243 (+-0.07) 

	Confusion matrix: 	 [823 474] 
…
