…
WARNING:tensorflow:Variable *= will be deprecated. Use variable.assign_mul if you want assignment to the variable value or 'x = x * y' if you want a new python Tensor object.
2018-07-20 14:24:44.885391: I tensorflow/core/platform/cpu_feature_guard.cc:140] Your CPU supports instructions that this TensorFlow binary was not compiled to use: AVX2 FMA
Loading dataframes...
Feature matrix already cached!
Feature matrix and labels created!

################# Get trained LSTM #################

Compiling lstm network...
_________________________________________________________________
Layer (type)                 Output Shape              Param #   
=================================================================
masking_1 (Masking)          (None, 334, 10)           0         
_________________________________________________________________
lstm_1 (LSTM)                (None, 334, 96)           41088     
_________________________________________________________________
dropout_1 (Dropout)          (None, 334, 96)           0         
_________________________________________________________________
dense_1 (Dense)              (None, 334, 96)           9312      
_________________________________________________________________
dropout_2 (Dropout)          (None, 334, 96)           0         
_________________________________________________________________
dense_2 (Dense)              (None, 334, 64)           6208      
_________________________________________________________________
dropout_3 (Dropout)          (None, 334, 64)           0         
_________________________________________________________________
time_distributed_1 (TimeDist (None, 334, 2)            130       
=================================================================
Total params: 56,738
Trainable params: 56,738
Non-trainable params: 0
_________________________________________________________________
None


******** Scores for LSTM (Windows:  10, 5, 10) ******** 

	roc_auc: 0.576 (+-0.04), recall: 0.651 (+-0.10), specificity: 0.500, precision: 0.276 (+-0.10) 

	Confusion matrix: 	 [584 588] 
				 [114 214]



Compiling lstm network...
_________________________________________________________________
Layer (type)                 Output Shape              Param #   
=================================================================
masking_2 (Masking)          (None, 334, 10)           0         
_________________________________________________________________
lstm_2 (LSTM)                (None, 334, 96)           41088     
_________________________________________________________________
dropout_4 (Dropout)          (None, 334, 96)           0         
_________________________________________________________________
dense_4 (Dense)              (None, 334, 96)           9312      
_________________________________________________________________
dropout_5 (Dropout)          (None, 334, 96)           0         
_________________________________________________________________
dense_5 (Dense)              (None, 334, 64)           6208      
_________________________________________________________________
dropout_6 (Dropout)          (None, 334, 64)           0         
_________________________________________________________________
time_distributed_2 (TimeDist (None, 334, 2)            130       
=================================================================
Total params: 56,738
Trainable params: 56,738
Non-trainable params: 0
_________________________________________________________________
None


******** Scores for LSTM (Windows:  10, 5, 10) ******** 

	roc_auc: 0.614 (+-0.07), recall: 0.746 (+-0.17), specificity: 0.482, precision: 0.279 (+-0.06) 

	Confusion matrix: 	 [620 623] 
				 [ 64 224]



Compiling lstm network...
_________________________________________________________________
Layer (type)                 Output Shape              Param #   
=================================================================
masking_3 (Masking)          (None, 334, 10)           0         
_________________________________________________________________
lstm_3 (LSTM)                (None, 334, 96)           41088     
_________________________________________________________________
dropout_7 (Dropout)          (None, 334, 96)           0         
_________________________________________________________________
dense_7 (Dense)              (None, 334, 96)           9312      
_________________________________________________________________
dropout_8 (Dropout)          (None, 334, 96)           0         
_________________________________________________________________
dense_8 (Dense)              (None, 334, 64)           6208      
_________________________________________________________________
dropout_9 (Dropout)          (None, 334, 64)           0         
_________________________________________________________________
time_distributed_3 (TimeDist (None, 334, 2)            130       
=================================================================
Total params: 56,738
Trainable params: 56,738
Non-trainable params: 0
_________________________________________________________________
None


******** Scores for LSTM (Windows:  10, 5, 10) ******** 

	roc_auc: 0.601 (+-0.04), recall: 0.604 (+-0.13), specificity: 0.598, precision: 0.239 (+-0.06) 

	Confusion matrix: 	 [784 508] 
				 [ 94 171]



Compiling lstm network...
_________________________________________________________________
Layer (type)                 Output Shape              Param #   
=================================================================
masking_4 (Masking)          (None, 334, 10)           0         
_________________________________________________________________
lstm_4 (LSTM)                (None, 334, 96)           41088     
_________________________________________________________________
dropout_10 (Dropout)         (None, 334, 96)           0         
_________________________________________________________________
dense_10 (Dense)             (None, 334, 96)           9312      
_________________________________________________________________
dropout_11 (Dropout)         (None, 334, 96)           0         
_________________________________________________________________
dense_11 (Dense)             (None, 334, 64)           6208      
_________________________________________________________________
dropout_12 (Dropout)         (None, 334, 64)           0         
_________________________________________________________________
time_distributed_4 (TimeDist (None, 334, 2)            130       
=================================================================
Total params: 56,738
Trainable params: 56,738
Non-trainable params: 0
_________________________________________________________________
None


******** Scores for LSTM (Windows:  10, 5, 10) ******** 

	roc_auc: 0.553 (+-0.05), recall: 0.587 (+-0.25), specificity: 0.520, precision: 0.196 (+-0.05) 

	Confusion matrix: 	 [676 587] 
				 [ 85 159]



Compiling lstm network...
_________________________________________________________________
Layer (type)                 Output Shape              Param #   
=================================================================
masking_5 (Masking)          (None, 334, 10)           0         
_________________________________________________________________
lstm_5 (LSTM)                (None, 334, 96)           41088     
_________________________________________________________________
dropout_13 (Dropout)         (None, 334, 96)           0         
_________________________________________________________________
dense_13 (Dense)             (None, 334, 96)           9312      
_________________________________________________________________
dropout_14 (Dropout)         (None, 334, 96)           0         
_________________________________________________________________
dense_14 (Dense)             (None, 334, 64)           6208      
_________________________________________________________________
dropout_15 (Dropout)         (None, 334, 64)           0         
_________________________________________________________________
time_distributed_5 (TimeDist (None, 334, 2)            130       
=================================================================
Total params: 56,738
Trainable params: 56,738
Non-trainable params: 0
_________________________________________________________________
None


******** Scores for LSTM (Windows:  10, 5, 10) ******** 

	roc_auc: 0.579 (+-0.04), recall: 0.702 (+-0.18), specificity: 0.455, precision: 0.267 (+-0.12) 

	Confusion matrix: 	 [523 705] 
				 [105 210]



Compiling lstm network...
_________________________________________________________________
Layer (type)                 Output Shape              Param #   
=================================================================
masking_6 (Masking)          (None, 334, 10)           0         
_________________________________________________________________
lstm_6 (LSTM)                (None, 334, 96)           41088     
_________________________________________________________________
dropout_16 (Dropout)         (None, 334, 96)           0         
_________________________________________________________________
dense_16 (Dense)             (None, 334, 96)           9312      
_________________________________________________________________
dropout_17 (Dropout)         (None, 334, 96)           0         
_________________________________________________________________
dense_17 (Dense)             (None, 334, 64)           6208      
_________________________________________________________________
dropout_18 (Dropout)         (None, 334, 64)           0         
_________________________________________________________________
time_distributed_6 (TimeDist (None, 334, 2)            130       
=================================================================
Total params: 56,738
Trainable params: 56,738
Non-trainable params: 0
_________________________________________________________________
None


******** Scores for LSTM (Windows:  10, 5, 10) ******** 

	roc_auc: 0.607 (+-0.08), recall: 0.714 (+-0.15), specificity: 0.499, precision: 0.244 (+-0.07) 

	Confusion matrix: 	 [670 645] 
				 [ 66 202]



Compiling lstm network...
_________________________________________________________________
Layer (type)                 Output Shape              Param #   
=================================================================
masking_7 (Masking)          (None, 334, 10)           0         
_________________________________________________________________
lstm_7 (LSTM)                (None, 334, 96)           41088     
_________________________________________________________________
dropout_19 (Dropout)         (None, 334, 96)           0         
_________________________________________________________________
dense_19 (Dense)             (None, 334, 96)           9312      
_________________________________________________________________
dropout_20 (Dropout)         (None, 334, 96)           0         
_________________________________________________________________
dense_20 (Dense)             (None, 334, 64)           6208      
_________________________________________________________________
dropout_21 (Dropout)         (None, 334, 64)           0         
_________________________________________________________________
time_distributed_7 (TimeDist (None, 334, 2)            130       
=================================================================
Total params: 56,738
Trainable params: 56,738
Non-trainable params: 0
_________________________________________________________________
None


******** Scores for LSTM (Windows:  10, 5, 10) ******** 

	roc_auc: 0.566 (+-0.05), recall: 0.674 (+-0.17), specificity: 0.457, precision: 0.301 (+-0.11) 

	Confusion matrix: 	 [494 645] 
				 [122 246]



Compiling lstm network...
_________________________________________________________________
Layer (type)                 Output Shape              Param #   
=================================================================
masking_8 (Masking)          (None, 334, 10)           0         
_________________________________________________________________
lstm_8 (LSTM)                (None, 334, 96)           41088     
_________________________________________________________________
dropout_22 (Dropout)         (None, 334, 96)           0         
_________________________________________________________________
dense_22 (Dense)             (None, 334, 96)           9312      
_________________________________________________________________
dropout_23 (Dropout)         (None, 334, 96)           0         
_________________________________________________________________
dense_23 (Dense)             (None, 334, 64)           6208      
_________________________________________________________________
dropout_24 (Dropout)         (None, 334, 64)           0         
_________________________________________________________________
time_distributed_8 (TimeDist (None, 334, 2)            130       
=================================================================
Total params: 56,738
Trainable params: 56,738
Non-trainable params: 0
_________________________________________________________________
None


******** Scores for LSTM (Windows:  10, 5, 10) ******** 

	roc_auc: 0.606 (+-0.04), recall: 0.675 (+-0.07), specificity: 0.537, precision: 0.267 (+-0.05) 

	Confusion matrix: 	 [689 591] 
				 [ 98 207]



Compiling lstm network...
_________________________________________________________________
Layer (type)                 Output Shape              Param #   
=================================================================
masking_9 (Masking)          (None, 334, 10)           0         
_________________________________________________________________
lstm_9 (LSTM)                (None, 334, 96)           41088     
_________________________________________________________________
dropout_25 (Dropout)         (None, 334, 96)           0         
_________________________________________________________________
dense_25 (Dense)             (None, 334, 96)           9312      
_________________________________________________________________
dropout_26 (Dropout)         (None, 334, 96)           0         
_________________________________________________________________
dense_26 (Dense)             (None, 334, 64)           6208      
_________________________________________________________________
dropout_27 (Dropout)         (None, 334, 64)           0         
_________________________________________________________________
time_distributed_9 (TimeDist (None, 334, 2)            130       
=================================================================
Total params: 56,738
Trainable params: 56,738
Non-trainable params: 0
_________________________________________________________________
None


******** Scores for LSTM (Windows:  10, 5, 10) ******** 

	roc_auc: 0.631 (+-0.04), recall: 0.737 (+-0.08), specificity: 0.525, precision: 0.251 (+-0.04) 

	Confusion matrix: 	 [708 637] 
				 [ 73 211]



Compiling lstm network...
_________________________________________________________________
Layer (type)                 Output Shape              Param #   
=================================================================
masking_10 (Masking)         (None, 334, 10)           0         
_________________________________________________________________
lstm_10 (LSTM)               (None, 334, 96)           41088     
_________________________________________________________________
dropout_28 (Dropout)         (None, 334, 96)           0         
_________________________________________________________________
dense_28 (Dense)             (None, 334, 96)           9312      
_________________________________________________________________
dropout_29 (Dropout)         (None, 334, 96)           0         
_________________________________________________________________
dense_29 (Dense)             (None, 334, 64)           6208      
_________________________________________________________________
dropout_30 (Dropout)         (None, 334, 64)           0         
_________________________________________________________________
time_distributed_10 (TimeDis (None, 334, 2)            130       
=================================================================
Total params: 56,738
Trainable params: 56,738
Non-trainable params: 0
_________________________________________________________________
None


******** Scores for LSTM (Windows:  10, 5, 10) ******** 

	roc_auc: 0.598 (+-0.05), recall: 0.551 (+-0.17), specificity: 0.646, precision: 0.294 (+-0.13) 

	Confusion matrix: 	 [746 416] 
				 [127 170]



Compiling lstm network...
_________________________________________________________________
Layer (type)                 Output Shape              Param #   
=================================================================
masking_11 (Masking)         (None, 334, 10)           0         
_________________________________________________________________
lstm_11 (LSTM)               (None, 334, 96)           41088     
_________________________________________________________________
dropout_31 (Dropout)         (None, 334, 96)           0         
_________________________________________________________________
dense_31 (Dense)             (None, 334, 96)           9312      
_________________________________________________________________
dropout_32 (Dropout)         (None, 334, 96)           0         
_________________________________________________________________
dense_32 (Dense)             (None, 334, 64)           6208      
_________________________________________________________________
dropout_33 (Dropout)         (None, 334, 64)           0         
_________________________________________________________________
time_distributed_11 (TimeDis (None, 334, 2)            130       
=================================================================
Total params: 56,738
Trainable params: 56,738
Non-trainable params: 0
_________________________________________________________________
None


******** Scores for LSTM (Windows:  10, 5, 10) ******** 

	roc_auc: 0.594 (+-0.07), recall: 0.628 (+-0.14), specificity: 0.560, precision: 0.246 (+-0.07) 

	Confusion matrix: 	 [719 536] 
				 [ 93 177]



Compiling lstm network...
_________________________________________________________________
Layer (type)                 Output Shape              Param #   
=================================================================
masking_12 (Masking)         (None, 334, 10)           0         
_________________________________________________________________
lstm_12 (LSTM)               (None, 334, 96)           41088     
_________________________________________________________________
dropout_34 (Dropout)         (None, 334, 96)           0         
_________________________________________________________________
dense_34 (Dense)             (None, 334, 96)           9312      
_________________________________________________________________
dropout_35 (Dropout)         (None, 334, 96)           0         
_________________________________________________________________
dense_35 (Dense)             (None, 334, 64)           6208      
_________________________________________________________________
dropout_36 (Dropout)         (None, 334, 64)           0         
_________________________________________________________________
time_distributed_12 (TimeDis (None, 334, 2)            130       
=================================================================
Total params: 56,738
Trainable params: 56,738
Non-trainable params: 0
_________________________________________________________________
None


******** Scores for LSTM (Windows:  10, 5, 10) ******** 

	roc_auc: 0.567 (+-0.02), recall: 0.624 (+-0.22), specificity: 0.510, precision: 0.193 (+-0.04) 

	Confusion matrix: 	 [683 640] 
				 [ 73 168]



Compiling lstm network...
_________________________________________________________________
Layer (type)                 Output Shape              Param #   
=================================================================
masking_13 (Masking)         (None, 334, 10)           0         
_________________________________________________________________
lstm_13 (LSTM)               (None, 334, 96)           41088     
_________________________________________________________________
dropout_37 (Dropout)         (None, 334, 96)           0         
_________________________________________________________________
dense_37 (Dense)             (None, 334, 96)           9312      
_________________________________________________________________
dropout_38 (Dropout)         (None, 334, 96)           0         
_________________________________________________________________
dense_38 (Dense)             (None, 334, 64)           6208      
_________________________________________________________________
dropout_39 (Dropout)         (None, 334, 64)           0         
_________________________________________________________________
time_distributed_13 (TimeDis (None, 334, 2)            130       
=================================================================
Total params: 56,738
Trainable params: 56,738
Non-trainable params: 0
_________________________________________________________________
None


******** Scores for LSTM (Windows:  10, 5, 10) ******** 

	roc_auc: 0.589 (+-0.04), recall: 0.709 (+-0.22), specificity: 0.469, precision: 0.222 (+-0.05) 

	Confusion matrix: 	 [638 698] 
				 [ 61 211]



Compiling lstm network...
_________________________________________________________________
Layer (type)                 Output Shape              Param #   
=================================================================
masking_14 (Masking)         (None, 334, 10)           0         
_________________________________________________________________
lstm_14 (LSTM)               (None, 334, 96)           41088     
_________________________________________________________________
dropout_40 (Dropout)         (None, 334, 96)           0         
_________________________________________________________________
dense_40 (Dense)             (None, 334, 96)           9312      
_________________________________________________________________
dropout_41 (Dropout)         (None, 334, 96)           0         
_________________________________________________________________
dense_41 (Dense)             (None, 334, 64)           6208      
_________________________________________________________________
dropout_42 (Dropout)         (None, 334, 64)           0         
_________________________________________________________________
time_distributed_14 (TimeDis (None, 334, 2)            130       
=================================================================
Total params: 56,738
Trainable params: 56,738
Non-trainable params: 0
_________________________________________________________________
None


******** Scores for LSTM (Windows:  10, 5, 10) ******** 

	roc_auc: 0.579 (+-0.05), recall: 0.829 (+-0.08), specificity: 0.328, precision: 0.249 (+-0.05) 

	Confusion matrix: 	 [413 821] 
				 [ 53 270]



Compiling lstm network...
_________________________________________________________________
Layer (type)                 Output Shape              Param #   
=================================================================
masking_15 (Masking)         (None, 334, 10)           0         
_________________________________________________________________
lstm_15 (LSTM)               (None, 334, 96)           41088     
_________________________________________________________________
dropout_43 (Dropout)         (None, 334, 96)           0         
_________________________________________________________________
dense_43 (Dense)             (None, 334, 96)           9312      
_________________________________________________________________
dropout_44 (Dropout)         (None, 334, 96)           0         
_________________________________________________________________
dense_44 (Dense)             (None, 334, 64)           6208      
_________________________________________________________________
dropout_45 (Dropout)         (None, 334, 64)           0         
_________________________________________________________________
time_distributed_15 (TimeDis (None, 334, 2)            130       
=================================================================
Total params: 56,738
Trainable params: 56,738
Non-trainable params: 0
_________________________________________________________________
None


******** Scores for LSTM (Windows:  10, 5, 10) ******** 

	roc_auc: 0.571 (+-0.06), recall: 0.739 (+-0.11), specificity: 0.403, precision: 0.229 (+-0.07) 

	Confusion matrix: 	 [529 739] 
				 [ 69 206]



Compiling lstm network...
_________________________________________________________________
Layer (type)                 Output Shape              Param #   
=================================================================
masking_16 (Masking)         (None, 334, 10)           0         
_________________________________________________________________
lstm_16 (LSTM)               (None, 334, 96)           41088     
_________________________________________________________________
dropout_46 (Dropout)         (None, 334, 96)           0         
_________________________________________________________________
dense_46 (Dense)             (None, 334, 96)           9312      
_________________________________________________________________
dropout_47 (Dropout)         (None, 334, 96)           0         
_________________________________________________________________
dense_47 (Dense)             (None, 334, 64)           6208      
_________________________________________________________________
dropout_48 (Dropout)         (None, 334, 64)           0         
_________________________________________________________________
time_distributed_16 (TimeDis (None, 334, 2)            130       
=================================================================
Total params: 56,738
Trainable params: 56,738
Non-trainable params: 0
_________________________________________________________________
None


******** Scores for LSTM (Windows:  10, 5, 10) ******** 

	roc_auc: 0.578 (+-0.03), recall: 0.440 (+-0.12), specificity: 0.716, precision: 0.280 (+-0.13) 

	Confusion matrix: 	 [810 343] 
				 [167 113]



Compiling lstm network...
_________________________________________________________________
Layer (type)                 Output Shape              Param #   
=================================================================
masking_17 (Masking)         (None, 334, 10)           0         
_________________________________________________________________
lstm_17 (LSTM)               (None, 334, 96)           41088     
_________________________________________________________________
dropout_49 (Dropout)         (None, 334, 96)           0         
_________________________________________________________________
dense_49 (Dense)             (None, 334, 96)           9312      
_________________________________________________________________
dropout_50 (Dropout)         (None, 334, 96)           0         
_________________________________________________________________
dense_50 (Dense)             (None, 334, 64)           6208      
_________________________________________________________________
dropout_51 (Dropout)         (None, 334, 64)           0         
_________________________________________________________________
time_distributed_17 (TimeDis (None, 334, 2)            130       
=================================================================
Total params: 56,738
Trainable params: 56,738
Non-trainable params: 0
_________________________________________________________________
None


******** Scores for LSTM (Windows:  10, 5, 10) ******** 

	roc_auc: 0.578 (+-0.04), recall: 0.517 (+-0.24), specificity: 0.638, precision: 0.297 (+-0.16) 

	Confusion matrix: 	 [693 442] 
				 [162 140]



Compiling lstm network...
_________________________________________________________________
Layer (type)                 Output Shape              Param #   
=================================================================
masking_18 (Masking)         (None, 334, 10)           0         
_________________________________________________________________
lstm_18 (LSTM)               (None, 334, 96)           41088     
_________________________________________________________________
dropout_52 (Dropout)         (None, 334, 96)           0         
_________________________________________________________________
dense_52 (Dense)             (None, 334, 96)           9312      
_________________________________________________________________
dropout_53 (Dropout)         (None, 334, 96)           0         
_________________________________________________________________
dense_53 (Dense)             (None, 334, 64)           6208      
_________________________________________________________________
dropout_54 (Dropout)         (None, 334, 64)           0         
_________________________________________________________________
time_distributed_18 (TimeDis (None, 334, 2)            130       
=================================================================
Total params: 56,738
Trainable params: 56,738
Non-trainable params: 0
_________________________________________________________________
None


******** Scores for LSTM (Windows:  10, 5, 10) ******** 

	roc_auc: 0.651 (+-0.02), recall: 0.648 (+-0.08), specificity: 0.654, precision: 0.294 (+-0.02) 

	Confusion matrix: 	 [858 449] 
				 [ 98 188]



Compiling lstm network...
_________________________________________________________________
Layer (type)                 Output Shape              Param #   
=================================================================
masking_19 (Masking)         (None, 334, 10)           0         
_________________________________________________________________
lstm_19 (LSTM)               (None, 334, 96)           41088     
_________________________________________________________________
dropout_55 (Dropout)         (None, 334, 96)           0         
_________________________________________________________________
dense_55 (Dense)             (None, 334, 96)           9312      
_________________________________________________________________
dropout_56 (Dropout)         (None, 334, 96)           0         
_________________________________________________________________
dense_56 (Dense)             (None, 334, 64)           6208      
_________________________________________________________________
dropout_57 (Dropout)         (None, 334, 64)           0         
_________________________________________________________________
time_distributed_19 (TimeDis (None, 334, 2)            130       
=================================================================
Total params: 56,738
Trainable params: 56,738
Non-trainable params: 0
_________________________________________________________________
None


******** Scores for LSTM (Windows:  10, 5, 10) ******** 

	roc_auc: 0.565 (+-0.07), recall: 0.665 (+-0.20), specificity: 0.464, precision: 0.208 (+-0.06) 

	Confusion matrix: 	 [611 678] 
				 [ 82 176]



Compiling lstm network...
_________________________________________________________________
Layer (type)                 Output Shape              Param #   
=================================================================
masking_20 (Masking)         (None, 334, 10)           0         
_________________________________________________________________
lstm_20 (LSTM)               (None, 334, 96)           41088     
_________________________________________________________________
dropout_58 (Dropout)         (None, 334, 96)           0         
_________________________________________________________________
dense_58 (Dense)             (None, 334, 96)           9312      
_________________________________________________________________
dropout_59 (Dropout)         (None, 334, 96)           0         
_________________________________________________________________
dense_59 (Dense)             (None, 334, 64)           6208      
_________________________________________________________________
dropout_60 (Dropout)         (None, 334, 64)           0         
_________________________________________________________________
time_distributed_20 (TimeDis (None, 334, 2)            130       
=================================================================
Total params: 56,738
Trainable params: 56,738
Non-trainable params: 0
_________________________________________________________________
None


******** Scores for LSTM (Windows:  10, 5, 10) ******** 

	roc_auc: 0.584 (+-0.04), recall: 0.592 (+-0.21), specificity: 0.576, precision: 0.225 (+-0.06) 

	Confusion matrix: 	 [739 533] 
…
