…
2018-07-20 18:49:34.977879: I tensorflow/core/platform/cpu_feature_guard.cc:140] Your CPU supports instructions that this TensorFlow binary was not compiled to use: AVX2 FMA
Loading dataframes...
Feature matrix already cached!
Feature matrix and labels created!

################# Get trained LSTM #################

 regularizer=0.003 + DROPOUT=0.2
optimizer:::::: adam lr=0.000003, decay=0.000004, amsgrad=True 
Weighted :::::: 1 to 6 
Compiling lstm network...
_________________________________________________________________
Layer (type)                 Output Shape              Param #   
=================================================================
masking_1 (Masking)          (None, 334, 10)           0         
_________________________________________________________________
lstm_1 (LSTM)                (None, 334, 96)           41088     
_________________________________________________________________
dropout_1 (Dropout)          (None, 334, 96)           0         
_________________________________________________________________
dense_1 (Dense)              (None, 334, 96)           9312      
_________________________________________________________________
dropout_2 (Dropout)          (None, 334, 96)           0         
_________________________________________________________________
dense_2 (Dense)              (None, 334, 96)           9312      
_________________________________________________________________
dropout_3 (Dropout)          (None, 334, 96)           0         
_________________________________________________________________
time_distributed_1 (TimeDist (None, 334, 2)            194       
=================================================================
Total params: 59,906
Trainable params: 59,906
Non-trainable params: 0
_________________________________________________________________
None


******** Scores for LSTM (Windows:  10, 5, 10) ******** 

	roc_auc: 0.649 (+-0.05), recall: 0.601 (+-0.19), specificity: 0.697, precision: 0.316 (+-0.06) 

	Confusion matrix: 	 [931 385] 
				 [ 94 177]



 regularizer=0.003 + DROPOUT=0.2
optimizer:::::: adam lr=0.000003, decay=0.000004, amsgrad=True 
Weighted :::::: 1 to 6 
Compiling lstm network...
_________________________________________________________________
Layer (type)                 Output Shape              Param #   
=================================================================
masking_2 (Masking)          (None, 334, 10)           0         
_________________________________________________________________
lstm_2 (LSTM)                (None, 334, 96)           41088     
_________________________________________________________________
dropout_4 (Dropout)          (None, 334, 96)           0         
_________________________________________________________________
dense_4 (Dense)              (None, 334, 96)           9312      
_________________________________________________________________
dropout_5 (Dropout)          (None, 334, 96)           0         
_________________________________________________________________
dense_5 (Dense)              (None, 334, 96)           9312      
_________________________________________________________________
dropout_6 (Dropout)          (None, 334, 96)           0         
_________________________________________________________________
time_distributed_2 (TimeDist (None, 334, 2)            194       
=================================================================
Total params: 59,906
Trainable params: 59,906
Non-trainable params: 0
_________________________________________________________________
None


******** Scores for LSTM (Windows:  10, 5, 10) ******** 

	roc_auc: 0.573 (+-0.02), recall: 0.484 (+-0.07), specificity: 0.662, precision: 0.245 (+-0.06) 

	Confusion matrix: 	 [844 428] 
				 [145 145]



 regularizer=0.003 + DROPOUT=0.2
optimizer:::::: adam lr=0.000003, decay=0.000004, amsgrad=True 
Weighted :::::: 1 to 6 
Compiling lstm network...
_________________________________________________________________
Layer (type)                 Output Shape              Param #   
=================================================================
masking_3 (Masking)          (None, 334, 10)           0         
_________________________________________________________________
lstm_3 (LSTM)                (None, 334, 96)           41088     
_________________________________________________________________
dropout_7 (Dropout)          (None, 334, 96)           0         
_________________________________________________________________
dense_7 (Dense)              (None, 334, 96)           9312      
_________________________________________________________________
dropout_8 (Dropout)          (None, 334, 96)           0         
_________________________________________________________________
dense_8 (Dense)              (None, 334, 96)           9312      
_________________________________________________________________
dropout_9 (Dropout)          (None, 334, 96)           0         
_________________________________________________________________
time_distributed_3 (TimeDist (None, 334, 2)            194       
=================================================================
Total params: 59,906
Trainable params: 59,906
Non-trainable params: 0
_________________________________________________________________
None


******** Scores for LSTM (Windows:  10, 5, 10) ******** 

	roc_auc: 0.605 (+-0.06), recall: 0.500 (+-0.11), specificity: 0.710, precision: 0.298 (+-0.07) 

	Confusion matrix: 	 [895 355] 
				 [146 148]



 regularizer=0.003 + DROPOUT=0.2
optimizer:::::: adam lr=0.000003, decay=0.000004, amsgrad=True 
Weighted :::::: 1 to 6 
Compiling lstm network...
_________________________________________________________________
Layer (type)                 Output Shape              Param #   
=================================================================
masking_4 (Masking)          (None, 334, 10)           0         
_________________________________________________________________
lstm_4 (LSTM)                (None, 334, 96)           41088     
_________________________________________________________________
dropout_10 (Dropout)         (None, 334, 96)           0         
_________________________________________________________________
dense_10 (Dense)             (None, 334, 96)           9312      
_________________________________________________________________
dropout_11 (Dropout)         (None, 334, 96)           0         
_________________________________________________________________
dense_11 (Dense)             (None, 334, 96)           9312      
_________________________________________________________________
dropout_12 (Dropout)         (None, 334, 96)           0         
_________________________________________________________________
time_distributed_4 (TimeDist (None, 334, 2)            194       
=================================================================
Total params: 59,906
Trainable params: 59,906
Non-trainable params: 0
_________________________________________________________________
None


******** Scores for LSTM (Windows:  10, 5, 10) ******** 

	roc_auc: 0.611 (+-0.05), recall: 0.436 (+-0.11), specificity: 0.786, precision: 0.308 (+-0.07) 

	Confusion matrix: 	 [1024  269] 
				 [148 126]



 regularizer=0.003 + DROPOUT=0.2
optimizer:::::: adam lr=0.000003, decay=0.000004, amsgrad=True 
Weighted :::::: 1 to 6 
Compiling lstm network...
_________________________________________________________________
Layer (type)                 Output Shape              Param #   
=================================================================
masking_5 (Masking)          (None, 334, 10)           0         
_________________________________________________________________
lstm_5 (LSTM)                (None, 334, 96)           41088     
_________________________________________________________________
dropout_13 (Dropout)         (None, 334, 96)           0         
_________________________________________________________________
dense_13 (Dense)             (None, 334, 96)           9312      
_________________________________________________________________
dropout_14 (Dropout)         (None, 334, 96)           0         
_________________________________________________________________
dense_14 (Dense)             (None, 334, 96)           9312      
_________________________________________________________________
dropout_15 (Dropout)         (None, 334, 96)           0         
_________________________________________________________________
time_distributed_5 (TimeDist (None, 334, 2)            194       
=================================================================
Total params: 59,906
Trainable params: 59,906
Non-trainable params: 0
_________________________________________________________________
None


******** Scores for LSTM (Windows:  10, 5, 10) ******** 

	roc_auc: 0.617 (+-0.04), recall: 0.475 (+-0.12), specificity: 0.759, precision: 0.298 (+-0.04) 

	Confusion matrix: 	 [989 306] 
				 [136 133]



 regularizer=0.003 + DROPOUT=0.2
optimizer:::::: adam lr=0.000003, decay=0.000004, amsgrad=True 
Weighted :::::: 1 to 6 
Compiling lstm network...
_________________________________________________________________
Layer (type)                 Output Shape              Param #   
=================================================================
masking_6 (Masking)          (None, 334, 10)           0         
_________________________________________________________________
lstm_6 (LSTM)                (None, 334, 96)           41088     
_________________________________________________________________
dropout_16 (Dropout)         (None, 334, 96)           0         
_________________________________________________________________
dense_16 (Dense)             (None, 334, 96)           9312      
_________________________________________________________________
dropout_17 (Dropout)         (None, 334, 96)           0         
_________________________________________________________________
dense_17 (Dense)             (None, 334, 96)           9312      
_________________________________________________________________
dropout_18 (Dropout)         (None, 334, 96)           0         
_________________________________________________________________
time_distributed_6 (TimeDist (None, 334, 2)            194       
=================================================================
Total params: 59,906
Trainable params: 59,906
Non-trainable params: 0
_________________________________________________________________
None


******** Scores for LSTM (Windows:  10, 5, 10) ******** 

	roc_auc: 0.570 (+-0.03), recall: 0.432 (+-0.11), specificity: 0.707, precision: 0.245 (+-0.05) 

	Confusion matrix: 	 [909 368] 
				 [149 129]



 regularizer=0.003 + DROPOUT=0.2
optimizer:::::: adam lr=0.000003, decay=0.000004, amsgrad=True 
Weighted :::::: 1 to 6 
Compiling lstm network...
_________________________________________________________________
Layer (type)                 Output Shape              Param #   
=================================================================
masking_7 (Masking)          (None, 334, 10)           0         
_________________________________________________________________
lstm_7 (LSTM)                (None, 334, 96)           41088     
_________________________________________________________________
dropout_19 (Dropout)         (None, 334, 96)           0         
_________________________________________________________________
dense_19 (Dense)             (None, 334, 96)           9312      
_________________________________________________________________
dropout_20 (Dropout)         (None, 334, 96)           0         
_________________________________________________________________
dense_20 (Dense)             (None, 334, 96)           9312      
_________________________________________________________________
dropout_21 (Dropout)         (None, 334, 96)           0         
_________________________________________________________________
time_distributed_7 (TimeDist (None, 334, 2)            194       
=================================================================
Total params: 59,906
Trainable params: 59,906
Non-trainable params: 0
_________________________________________________________________
None


******** Scores for LSTM (Windows:  10, 5, 10) ******** 

	roc_auc: 0.616 (+-0.10), recall: 0.416 (+-0.22), specificity: 0.816, precision: 0.374 (+-0.11) 

	Confusion matrix: 	 [927 217] 
				 [202 132]



 regularizer=0.003 + DROPOUT=0.2
optimizer:::::: adam lr=0.000003, decay=0.000004, amsgrad=True 
Weighted :::::: 1 to 6 
Compiling lstm network...
_________________________________________________________________
Layer (type)                 Output Shape              Param #   
=================================================================
masking_8 (Masking)          (None, 334, 10)           0         
_________________________________________________________________
lstm_8 (LSTM)                (None, 334, 96)           41088     
_________________________________________________________________
dropout_22 (Dropout)         (None, 334, 96)           0         
_________________________________________________________________
dense_22 (Dense)             (None, 334, 96)           9312      
_________________________________________________________________
dropout_23 (Dropout)         (None, 334, 96)           0         
_________________________________________________________________
dense_23 (Dense)             (None, 334, 96)           9312      
_________________________________________________________________
dropout_24 (Dropout)         (None, 334, 96)           0         
_________________________________________________________________
time_distributed_8 (TimeDist (None, 334, 2)            194       
=================================================================
Total params: 59,906
Trainable params: 59,906
Non-trainable params: 0
_________________________________________________________________
None


******** Scores for LSTM (Windows:  10, 5, 10) ******** 

	roc_auc: 0.648 (+-0.07), recall: 0.551 (+-0.17), specificity: 0.746, precision: 0.316 (+-0.06) 

	Confusion matrix: 	 [968 319] 
				 [114 152]



 regularizer=0.003 + DROPOUT=0.2
optimizer:::::: adam lr=0.000003, decay=0.000004, amsgrad=True 
Weighted :::::: 1 to 6 
Compiling lstm network...
_________________________________________________________________
Layer (type)                 Output Shape              Param #   
=================================================================
masking_9 (Masking)          (None, 334, 10)           0         
_________________________________________________________________
lstm_9 (LSTM)                (None, 334, 96)           41088     
_________________________________________________________________
dropout_25 (Dropout)         (None, 334, 96)           0         
_________________________________________________________________
dense_25 (Dense)             (None, 334, 96)           9312      
_________________________________________________________________
dropout_26 (Dropout)         (None, 334, 96)           0         
_________________________________________________________________
dense_26 (Dense)             (None, 334, 96)           9312      
_________________________________________________________________
dropout_27 (Dropout)         (None, 334, 96)           0         
_________________________________________________________________
time_distributed_9 (TimeDist (None, 334, 2)            194       
=================================================================
Total params: 59,906
Trainable params: 59,906
Non-trainable params: 0
_________________________________________________________________
None


******** Scores for LSTM (Windows:  10, 5, 10) ******** 

	roc_auc: 0.611 (+-0.06), recall: 0.435 (+-0.14), specificity: 0.788, precision: 0.350 (+-0.10) 

	Confusion matrix: 	 [929 244] 
				 [174 134]



 regularizer=0.003 + DROPOUT=0.2
optimizer:::::: adam lr=0.000003, decay=0.000004, amsgrad=True 
Weighted :::::: 1 to 6 
Compiling lstm network...
_________________________________________________________________
Layer (type)                 Output Shape              Param #   
=================================================================
masking_10 (Masking)         (None, 334, 10)           0         
_________________________________________________________________
lstm_10 (LSTM)               (None, 334, 96)           41088     
_________________________________________________________________
dropout_28 (Dropout)         (None, 334, 96)           0         
_________________________________________________________________
dense_28 (Dense)             (None, 334, 96)           9312      
_________________________________________________________________
dropout_29 (Dropout)         (None, 334, 96)           0         
_________________________________________________________________
dense_29 (Dense)             (None, 334, 96)           9312      
_________________________________________________________________
dropout_30 (Dropout)         (None, 334, 96)           0         
_________________________________________________________________
time_distributed_10 (TimeDis (None, 334, 2)            194       
=================================================================
Total params: 59,906
Trainable params: 59,906
Non-trainable params: 0
_________________________________________________________________
None


******** Scores for LSTM (Windows:  10, 5, 10) ******** 

	roc_auc: 0.567 (+-0.03), recall: 0.375 (+-0.15), specificity: 0.758, precision: 0.328 (+-0.14) 

	Confusion matrix: 	 [842 291] 
				 [208 117]



 regularizer=0.003 + DROPOUT=0.2
optimizer:::::: adam lr=0.000003, decay=0.000004, amsgrad=True 
Weighted :::::: 1 to 6 
Compiling lstm network...
_________________________________________________________________
Layer (type)                 Output Shape              Param #   
=================================================================
masking_11 (Masking)         (None, 334, 10)           0         
_________________________________________________________________
lstm_11 (LSTM)               (None, 334, 96)           41088     
_________________________________________________________________
dropout_31 (Dropout)         (None, 334, 96)           0         
_________________________________________________________________
dense_31 (Dense)             (None, 334, 96)           9312      
_________________________________________________________________
dropout_32 (Dropout)         (None, 334, 96)           0         
_________________________________________________________________
dense_32 (Dense)             (None, 334, 96)           9312      
_________________________________________________________________
dropout_33 (Dropout)         (None, 334, 96)           0         
_________________________________________________________________
time_distributed_11 (TimeDis (None, 334, 2)            194       
=================================================================
Total params: 59,906
Trainable params: 59,906
Non-trainable params: 0
_________________________________________________________________
None


******** Scores for LSTM (Windows:  10, 5, 10) ******** 

	roc_auc: 0.590 (+-0.06), recall: 0.418 (+-0.13), specificity: 0.761, precision: 0.268 (+-0.07) 

	Confusion matrix: 	 [974 304] 
				 [151 118]



 regularizer=0.003 + DROPOUT=0.2
optimizer:::::: adam lr=0.000003, decay=0.000004, amsgrad=True 
Weighted :::::: 1 to 6 
Compiling lstm network...
_________________________________________________________________
Layer (type)                 Output Shape              Param #   
=================================================================
masking_12 (Masking)         (None, 334, 10)           0         
_________________________________________________________________
lstm_12 (LSTM)               (None, 334, 96)           41088     
_________________________________________________________________
dropout_34 (Dropout)         (None, 334, 96)           0         
_________________________________________________________________
dense_34 (Dense)             (None, 334, 96)           9312      
_________________________________________________________________
dropout_35 (Dropout)         (None, 334, 96)           0         
_________________________________________________________________
dense_35 (Dense)             (None, 334, 96)           9312      
_________________________________________________________________
dropout_36 (Dropout)         (None, 334, 96)           0         
_________________________________________________________________
time_distributed_12 (TimeDis (None, 334, 2)            194       
=================================================================
Total params: 59,906
Trainable params: 59,906
Non-trainable params: 0
_________________________________________________________________
None


******** Scores for LSTM (Windows:  10, 5, 10) ******** 

	roc_auc: 0.610 (+-0.07), recall: 0.397 (+-0.14), specificity: 0.823, precision: 0.269 (+-0.08) 

	Confusion matrix: 	 [1100  228] 
				 [122  92]



 regularizer=0.003 + DROPOUT=0.2
optimizer:::::: adam lr=0.000003, decay=0.000004, amsgrad=True 
Weighted :::::: 1 to 6 
Compiling lstm network...
_________________________________________________________________
Layer (type)                 Output Shape              Param #   
=================================================================
masking_13 (Masking)         (None, 334, 10)           0         
_________________________________________________________________
lstm_13 (LSTM)               (None, 334, 96)           41088     
_________________________________________________________________
dropout_37 (Dropout)         (None, 334, 96)           0         
_________________________________________________________________
dense_37 (Dense)             (None, 334, 96)           9312      
_________________________________________________________________
dropout_38 (Dropout)         (None, 334, 96)           0         
_________________________________________________________________
dense_38 (Dense)             (None, 334, 96)           9312      
_________________________________________________________________
dropout_39 (Dropout)         (None, 334, 96)           0         
_________________________________________________________________
time_distributed_13 (TimeDis (None, 334, 2)            194       
=================================================================
Total params: 59,906
Trainable params: 59,906
Non-trainable params: 0
_________________________________________________________________
None


******** Scores for LSTM (Windows:  10, 5, 10) ******** 

	roc_auc: 0.535 (+-0.02), recall: 0.256 (+-0.11), specificity: 0.814, precision: 0.274 (+-0.13) 

	Confusion matrix: 	 [902 221] 
				 [218  67]



 regularizer=0.003 + DROPOUT=0.2
optimizer:::::: adam lr=0.000003, decay=0.000004, amsgrad=True 
Weighted :::::: 1 to 6 
Compiling lstm network...
_________________________________________________________________
Layer (type)                 Output Shape              Param #   
=================================================================
masking_14 (Masking)         (None, 334, 10)           0         
_________________________________________________________________
lstm_14 (LSTM)               (None, 334, 96)           41088     
_________________________________________________________________
dropout_40 (Dropout)         (None, 334, 96)           0         
_________________________________________________________________
dense_40 (Dense)             (None, 334, 96)           9312      
_________________________________________________________________
dropout_41 (Dropout)         (None, 334, 96)           0         
_________________________________________________________________
dense_41 (Dense)             (None, 334, 96)           9312      
_________________________________________________________________
dropout_42 (Dropout)         (None, 334, 96)           0         
_________________________________________________________________
time_distributed_14 (TimeDis (None, 334, 2)            194       
=================================================================
Total params: 59,906
Trainable params: 59,906
Non-trainable params: 0
_________________________________________________________________
None


******** Scores for LSTM (Windows:  10, 5, 10) ******** 

	roc_auc: 0.583 (+-0.01), recall: 0.461 (+-0.11), specificity: 0.705, precision: 0.325 (+-0.13) 

	Confusion matrix: 	 [793 360] 
				 [183 148]



 regularizer=0.003 + DROPOUT=0.2
optimizer:::::: adam lr=0.000003, decay=0.000004, amsgrad=True 
Weighted :::::: 1 to 6 
Compiling lstm network...
_________________________________________________________________
Layer (type)                 Output Shape              Param #   
=================================================================
masking_15 (Masking)         (None, 334, 10)           0         
_________________________________________________________________
lstm_15 (LSTM)               (None, 334, 96)           41088     
_________________________________________________________________
dropout_43 (Dropout)         (None, 334, 96)           0         
_________________________________________________________________
dense_43 (Dense)             (None, 334, 96)           9312      
_________________________________________________________________
dropout_44 (Dropout)         (None, 334, 96)           0         
_________________________________________________________________
dense_44 (Dense)             (None, 334, 96)           9312      
_________________________________________________________________
dropout_45 (Dropout)         (None, 334, 96)           0         
_________________________________________________________________
time_distributed_15 (TimeDis (None, 334, 2)            194       
=================================================================
Total params: 59,906
Trainable params: 59,906
Non-trainable params: 0
_________________________________________________________________
None


******** Scores for LSTM (Windows:  10, 5, 10) ******** 

	roc_auc: 0.573 (+-0.06), recall: 0.393 (+-0.21), specificity: 0.752, precision: 0.274 (+-0.09) 

	Confusion matrix: 	 [881 325] 
				 [192 105]



 regularizer=0.003 + DROPOUT=0.2
optimizer:::::: adam lr=0.000003, decay=0.000004, amsgrad=True 
Weighted :::::: 1 to 6 
Compiling lstm network...
_________________________________________________________________
Layer (type)                 Output Shape              Param #   
=================================================================
masking_16 (Masking)         (None, 334, 10)           0         
_________________________________________________________________
lstm_16 (LSTM)               (None, 334, 96)           41088     
_________________________________________________________________
dropout_46 (Dropout)         (None, 334, 96)           0         
_________________________________________________________________
dense_46 (Dense)             (None, 334, 96)           9312      
_________________________________________________________________
dropout_47 (Dropout)         (None, 334, 96)           0         
_________________________________________________________________
dense_47 (Dense)             (None, 334, 96)           9312      
_________________________________________________________________
dropout_48 (Dropout)         (None, 334, 96)           0         
_________________________________________________________________
time_distributed_16 (TimeDis (None, 334, 2)            194       
=================================================================
Total params: 59,906
Trainable params: 59,906
Non-trainable params: 0
_________________________________________________________________
None


******** Scores for LSTM (Windows:  10, 5, 10) ******** 

	roc_auc: 0.594 (+-0.04), recall: 0.421 (+-0.14), specificity: 0.767, precision: 0.333 (+-0.10) 

	Confusion matrix: 	 [899 295] 
				 [194 125]



 regularizer=0.003 + DROPOUT=0.2
optimizer:::::: adam lr=0.000003, decay=0.000004, amsgrad=True 
Weighted :::::: 1 to 6 
Compiling lstm network...
_________________________________________________________________
Layer (type)                 Output Shape              Param #   
=================================================================
masking_17 (Masking)         (None, 334, 10)           0         
_________________________________________________________________
lstm_17 (LSTM)               (None, 334, 96)           41088     
_________________________________________________________________
dropout_49 (Dropout)         (None, 334, 96)           0         
_________________________________________________________________
dense_49 (Dense)             (None, 334, 96)           9312      
_________________________________________________________________
dropout_50 (Dropout)         (None, 334, 96)           0         
_________________________________________________________________
dense_50 (Dense)             (None, 334, 96)           9312      
_________________________________________________________________
dropout_51 (Dropout)         (None, 334, 96)           0         
_________________________________________________________________
time_distributed_17 (TimeDis (None, 334, 2)            194       
=================================================================
Total params: 59,906
Trainable params: 59,906
Non-trainable params: 0
_________________________________________________________________
None


******** Scores for LSTM (Windows:  10, 5, 10) ******** 

	roc_auc: 0.635 (+-0.07), recall: 0.407 (+-0.15), specificity: 0.863, precision: 0.300 (+-0.07) 

	Confusion matrix: 	 [1177  187] 
				 [114  86]



 regularizer=0.003 + DROPOUT=0.2
optimizer:::::: adam lr=0.000003, decay=0.000004, amsgrad=True 
Weighted :::::: 1 to 6 
Compiling lstm network...
_________________________________________________________________
Layer (type)                 Output Shape              Param #   
=================================================================
masking_18 (Masking)         (None, 334, 10)           0         
_________________________________________________________________
lstm_18 (LSTM)               (None, 334, 96)           41088     
_________________________________________________________________
dropout_52 (Dropout)         (None, 334, 96)           0         
_________________________________________________________________
dense_52 (Dense)             (None, 334, 96)           9312      
_________________________________________________________________
dropout_53 (Dropout)         (None, 334, 96)           0         
_________________________________________________________________
dense_53 (Dense)             (None, 334, 96)           9312      
_________________________________________________________________
dropout_54 (Dropout)         (None, 334, 96)           0         
_________________________________________________________________
time_distributed_18 (TimeDis (None, 334, 2)            194       
=================================================================
Total params: 59,906
Trainable params: 59,906
Non-trainable params: 0
_________________________________________________________________
None


******** Scores for LSTM (Windows:  10, 5, 10) ******** 

	roc_auc: 0.606 (+-0.07), recall: 0.480 (+-0.16), specificity: 0.732, precision: 0.263 (+-0.08) 

	Confusion matrix: 	 [961 330] 
				 [113 116]



 regularizer=0.003 + DROPOUT=0.2
optimizer:::::: adam lr=0.000003, decay=0.000004, amsgrad=True 
Weighted :::::: 1 to 6 
Compiling lstm network...
_________________________________________________________________
Layer (type)                 Output Shape              Param #   
=================================================================
masking_19 (Masking)         (None, 334, 10)           0         
_________________________________________________________________
lstm_19 (LSTM)               (None, 334, 96)           41088     
_________________________________________________________________
dropout_55 (Dropout)         (None, 334, 96)           0         
_________________________________________________________________
dense_55 (Dense)             (None, 334, 96)           9312      
_________________________________________________________________
dropout_56 (Dropout)         (None, 334, 96)           0         
_________________________________________________________________
dense_56 (Dense)             (None, 334, 96)           9312      
_________________________________________________________________
dropout_57 (Dropout)         (None, 334, 96)           0         
_________________________________________________________________
time_distributed_19 (TimeDis (None, 334, 2)            194       
=================================================================
Total params: 59,906
Trainable params: 59,906
Non-trainable params: 0
_________________________________________________________________
None


******** Scores for LSTM (Windows:  10, 5, 10) ******** 

	roc_auc: 0.652 (+-0.06), recall: 0.461 (+-0.15), specificity: 0.844, precision: 0.304 (+-0.07) 

	Confusion matrix: 	 [1165  216] 
				 [109 100]



 regularizer=0.003 + DROPOUT=0.2
optimizer:::::: adam lr=0.000003, decay=0.000004, amsgrad=True 
Weighted :::::: 1 to 6 
Compiling lstm network...
_________________________________________________________________
Layer (type)                 Output Shape              Param #   
=================================================================
masking_20 (Masking)         (None, 334, 10)           0         
_________________________________________________________________
lstm_20 (LSTM)               (None, 334, 96)           41088     
_________________________________________________________________
dropout_58 (Dropout)         (None, 334, 96)           0         
_________________________________________________________________
dense_58 (Dense)             (None, 334, 96)           9312      
_________________________________________________________________
dropout_59 (Dropout)         (None, 334, 96)           0         
_________________________________________________________________
dense_59 (Dense)             (None, 334, 96)           9312      
_________________________________________________________________
dropout_60 (Dropout)         (None, 334, 96)           0         
_________________________________________________________________
time_distributed_20 (TimeDis (None, 334, 2)            194       
=================================================================
Total params: 59,906
Trainable params: 59,906
Non-trainable params: 0
_________________________________________________________________
None


******** Scores for LSTM (Windows:  10, 5, 10) ******** 

	roc_auc: 0.609 (+-0.07), recall: 0.457 (+-0.14), specificity: 0.761, precision: 0.363 (+-0.10) 

	Confusion matrix: 	 [885 294] 
				 [185 136]



 regularizer=0.003 + DROPOUT=0.2
optimizer:::::: adam lr=0.000003, decay=0.000004, amsgrad=True 
Weighted :::::: 1 to 6 
Compiling lstm network...
_________________________________________________________________
Layer (type)                 Output Shape              Param #   
=================================================================
masking_21 (Masking)         (None, 334, 10)           0         
_________________________________________________________________
lstm_21 (LSTM)               (None, 334, 96)           41088     
_________________________________________________________________
dropout_61 (Dropout)         (None, 334, 96)           0         
_________________________________________________________________
dense_61 (Dense)             (None, 334, 96)           9312      
_________________________________________________________________
dropout_62 (Dropout)         (None, 334, 96)           0         
_________________________________________________________________
dense_62 (Dense)             (None, 334, 96)           9312      
_________________________________________________________________
dropout_63 (Dropout)         (None, 334, 96)           0         
_________________________________________________________________
time_distributed_21 (TimeDis (None, 334, 2)            194       
=================================================================
Total params: 59,906
Trainable params: 59,906
Non-trainable params: 0
_________________________________________________________________
None


******** Scores for LSTM (Windows:  10, 5, 10) ******** 

	roc_auc: 0.627 (+-0.07), recall: 0.480 (+-0.16), specificity: 0.773, precision: 0.367 (+-0.09) 

	Confusion matrix: 	 [913 275] 
				 [174 149]



 regularizer=0.003 + DROPOUT=0.2
optimizer:::::: adam lr=0.000003, decay=0.000004, amsgrad=True 
Weighted :::::: 1 to 6 
Compiling lstm network...
_________________________________________________________________
Layer (type)                 Output Shape              Param #   
=================================================================
masking_22 (Masking)         (None, 334, 10)           0         
_________________________________________________________________
lstm_22 (LSTM)               (None, 334, 96)           41088     
_________________________________________________________________
dropout_64 (Dropout)         (None, 334, 96)           0         
_________________________________________________________________
dense_64 (Dense)             (None, 334, 96)           9312      
_________________________________________________________________
dropout_65 (Dropout)         (None, 334, 96)           0         
_________________________________________________________________
dense_65 (Dense)             (None, 334, 96)           9312      
_________________________________________________________________
dropout_66 (Dropout)         (None, 334, 96)           0         
_________________________________________________________________
time_distributed_22 (TimeDis (None, 334, 2)            194       
=================================================================
Total params: 59,906
Trainable params: 59,906
Non-trainable params: 0
_________________________________________________________________
None


******** Scores for LSTM (Windows:  10, 5, 10) ******** 

	roc_auc: 0.594 (+-0.06), recall: 0.479 (+-0.19), specificity: 0.709, precision: 0.277 (+-0.08) 

	Confusion matrix: 	 [880 355] 
				 [140 157]



 regularizer=0.003 + DROPOUT=0.2
optimizer:::::: adam lr=0.000003, decay=0.000004, amsgrad=True 
Weighted :::::: 1 to 6 
Compiling lstm network...
_________________________________________________________________
Layer (type)                 Output Shape              Param #   
=================================================================
masking_23 (Masking)         (None, 334, 10)           0         
_________________________________________________________________
lstm_23 (LSTM)               (None, 334, 96)           41088     
_________________________________________________________________
dropout_67 (Dropout)         (None, 334, 96)           0         
_________________________________________________________________
dense_67 (Dense)             (None, 334, 96)           9312      
_________________________________________________________________
dropout_68 (Dropout)         (None, 334, 96)           0         
_________________________________________________________________
dense_68 (Dense)             (None, 334, 96)           9312      
_________________________________________________________________
dropout_69 (Dropout)         (None, 334, 96)           0         
_________________________________________________________________
time_distributed_23 (TimeDis (None, 334, 2)            194       
=================================================================
Total params: 59,906
Trainable params: 59,906
Non-trainable params: 0
_________________________________________________________________
None


******** Scores for LSTM (Windows:  10, 5, 10) ******** 

	roc_auc: 0.602 (+-0.04), recall: 0.490 (+-0.09), specificity: 0.714, precision: 0.277 (+-0.05) 

	Confusion matrix: 	 [927 370] 
				 [143 142]



 regularizer=0.003 + DROPOUT=0.2
optimizer:::::: adam lr=0.000003, decay=0.000004, amsgrad=True 
Weighted :::::: 1 to 6 
Compiling lstm network...
_________________________________________________________________
Layer (type)                 Output Shape              Param #   
=================================================================
masking_24 (Masking)         (None, 334, 10)           0         
_________________________________________________________________
lstm_24 (LSTM)               (None, 334, 96)           41088     
_________________________________________________________________
dropout_70 (Dropout)         (None, 334, 96)           0         
_________________________________________________________________
dense_70 (Dense)             (None, 334, 96)           9312      
_________________________________________________________________
dropout_71 (Dropout)         (None, 334, 96)           0         
_________________________________________________________________
dense_71 (Dense)             (None, 334, 96)           9312      
_________________________________________________________________
dropout_72 (Dropout)         (None, 334, 96)           0         
_________________________________________________________________
time_distributed_24 (TimeDis (None, 334, 2)            194       
=================================================================
Total params: 59,906
Trainable params: 59,906
Non-trainable params: 0
_________________________________________________________________
None


******** Scores for LSTM (Windows:  10, 5, 10) ******** 

	roc_auc: 0.611 (+-0.02), recall: 0.572 (+-0.16), specificity: 0.649, precision: 0.306 (+-0.03) 

	Confusion matrix: 	 [807 433] 
				 [134 194]



 regularizer=0.003 + DROPOUT=0.2
optimizer:::::: adam lr=0.000003, decay=0.000004, amsgrad=True 
Weighted :::::: 1 to 6 
Compiling lstm network...
_________________________________________________________________
Layer (type)                 Output Shape              Param #   
=================================================================
masking_25 (Masking)         (None, 334, 10)           0         
_________________________________________________________________
lstm_25 (LSTM)               (None, 334, 96)           41088     
_________________________________________________________________
dropout_73 (Dropout)         (None, 334, 96)           0         
_________________________________________________________________
dense_73 (Dense)             (None, 334, 96)           9312      
_________________________________________________________________
dropout_74 (Dropout)         (None, 334, 96)           0         
_________________________________________________________________
dense_74 (Dense)             (None, 334, 96)           9312      
_________________________________________________________________
dropout_75 (Dropout)         (None, 334, 96)           0         
_________________________________________________________________
time_distributed_25 (TimeDis (None, 334, 2)            194       
=================================================================
Total params: 59,906
Trainable params: 59,906
Non-trainable params: 0
_________________________________________________________________
None


******** Scores for LSTM (Windows:  10, 5, 10) ******** 

	roc_auc: 0.594 (+-0.03), recall: 0.415 (+-0.09), specificity: 0.773, precision: 0.299 (+-0.05) 

	Confusion matrix: 	 [966 280] 
…
