…
2018-07-20 15:10:14.807885: I tensorflow/core/platform/cpu_feature_guard.cc:140] Your CPU supports instructions that this TensorFlow binary was not compiled to use: AVX2 FMA
Loading dataframes...
Feature matrix already cached!
Feature matrix and labels created!

################# Get trained LSTM #################

DROPOUT:::::: 0.2
optimizer:::::: adam lr=0.0003, decay=0.000004, amsgrad=True 
Compiling lstm network...
_________________________________________________________________
Layer (type)                 Output Shape              Param #   
=================================================================
masking_1 (Masking)          (None, 334, 10)           0         
_________________________________________________________________
lstm_1 (LSTM)                (None, 334, 96)           41088     
_________________________________________________________________
dropout_1 (Dropout)          (None, 334, 96)           0         
_________________________________________________________________
dense_1 (Dense)              (None, 334, 96)           9312      
_________________________________________________________________
dropout_2 (Dropout)          (None, 334, 96)           0         
_________________________________________________________________
dense_2 (Dense)              (None, 334, 64)           6208      
_________________________________________________________________
dropout_3 (Dropout)          (None, 334, 64)           0         
_________________________________________________________________
time_distributed_1 (TimeDist (None, 334, 2)            130       
=================================================================
Total params: 56,738
Trainable params: 56,738
Non-trainable params: 0
_________________________________________________________________
None


******** Scores for LSTM (Windows:  10, 5, 10) ******** 

	roc_auc: 0.621 (+-0.07), recall: 0.665 (+-0.10), specificity: 0.576, precision: 0.240 (+-0.05) 

	Confusion matrix: 	 [767 563] 
				 [ 84 170]



DROPOUT:::::: 0.2
optimizer:::::: adam lr=0.0003, decay=0.000004, amsgrad=True 
Compiling lstm network...
_________________________________________________________________
Layer (type)                 Output Shape              Param #   
=================================================================
masking_2 (Masking)          (None, 334, 10)           0         
_________________________________________________________________
lstm_2 (LSTM)                (None, 334, 96)           41088     
_________________________________________________________________
dropout_4 (Dropout)          (None, 334, 96)           0         
_________________________________________________________________
dense_4 (Dense)              (None, 334, 96)           9312      
_________________________________________________________________
dropout_5 (Dropout)          (None, 334, 96)           0         
_________________________________________________________________
dense_5 (Dense)              (None, 334, 64)           6208      
_________________________________________________________________
dropout_6 (Dropout)          (None, 334, 64)           0         
_________________________________________________________________
time_distributed_2 (TimeDist (None, 334, 2)            130       
=================================================================
Total params: 56,738
Trainable params: 56,738
Non-trainable params: 0
_________________________________________________________________
None


******** Scores for LSTM (Windows:  10, 5, 10) ******** 

	roc_auc: 0.619 (+-0.07), recall: 0.737 (+-0.25), specificity: 0.500, precision: 0.277 (+-0.14) 

	Confusion matrix: 	 [570 659] 
				 [100 187]



DROPOUT:::::: 0.2
optimizer:::::: adam lr=0.0003, decay=0.000004, amsgrad=True 
Compiling lstm network...
_________________________________________________________________
Layer (type)                 Output Shape              Param #   
=================================================================
masking_3 (Masking)          (None, 334, 10)           0         
_________________________________________________________________
lstm_3 (LSTM)                (None, 334, 96)           41088     
_________________________________________________________________
dropout_7 (Dropout)          (None, 334, 96)           0         
_________________________________________________________________
dense_7 (Dense)              (None, 334, 96)           9312      
_________________________________________________________________
dropout_8 (Dropout)          (None, 334, 96)           0         
_________________________________________________________________
dense_8 (Dense)              (None, 334, 64)           6208      
_________________________________________________________________
dropout_9 (Dropout)          (None, 334, 64)           0         
_________________________________________________________________
time_distributed_3 (TimeDist (None, 334, 2)            130       
=================================================================
Total params: 56,738
Trainable params: 56,738
Non-trainable params: 0
_________________________________________________________________
None


******** Scores for LSTM (Windows:  10, 5, 10) ******** 

	roc_auc: 0.575 (+-0.07), recall: 0.604 (+-0.15), specificity: 0.545, precision: 0.211 (+-0.05) 

	Confusion matrix: 	 [713 576] 
				 [ 93 163]



DROPOUT:::::: 0.2
optimizer:::::: adam lr=0.0003, decay=0.000004, amsgrad=True 
Compiling lstm network...
_________________________________________________________________
Layer (type)                 Output Shape              Param #   
=================================================================
masking_4 (Masking)          (None, 334, 10)           0         
_________________________________________________________________
lstm_4 (LSTM)                (None, 334, 96)           41088     
_________________________________________________________________
dropout_10 (Dropout)         (None, 334, 96)           0         
_________________________________________________________________
dense_10 (Dense)             (None, 334, 96)           9312      
_________________________________________________________________
dropout_11 (Dropout)         (None, 334, 96)           0         
_________________________________________________________________
dense_11 (Dense)             (None, 334, 64)           6208      
_________________________________________________________________
dropout_12 (Dropout)         (None, 334, 64)           0         
_________________________________________________________________
time_distributed_4 (TimeDist (None, 334, 2)            130       
=================================================================
Total params: 56,738
Trainable params: 56,738
Non-trainable params: 0
_________________________________________________________________
None


******** Scores for LSTM (Windows:  10, 5, 10) ******** 

	roc_auc: 0.572 (+-0.04), recall: 0.472 (+-0.14), specificity: 0.672, precision: 0.299 (+-0.09) 

	Confusion matrix: 	 [734 366] 
				 [174 153]



DROPOUT:::::: 0.2
optimizer:::::: adam lr=0.0003, decay=0.000004, amsgrad=True 
Compiling lstm network...
_________________________________________________________________
Layer (type)                 Output Shape              Param #   
=================================================================
masking_5 (Masking)          (None, 334, 10)           0         
_________________________________________________________________
lstm_5 (LSTM)                (None, 334, 96)           41088     
_________________________________________________________________
dropout_13 (Dropout)         (None, 334, 96)           0         
_________________________________________________________________
dense_13 (Dense)             (None, 334, 96)           9312      
_________________________________________________________________
dropout_14 (Dropout)         (None, 334, 96)           0         
_________________________________________________________________
dense_14 (Dense)             (None, 334, 64)           6208      
_________________________________________________________________
dropout_15 (Dropout)         (None, 334, 64)           0         
_________________________________________________________________
time_distributed_5 (TimeDist (None, 334, 2)            130       
=================================================================
Total params: 56,738
Trainable params: 56,738
Non-trainable params: 0
_________________________________________________________________
None


******** Scores for LSTM (Windows:  10, 5, 10) ******** 

	roc_auc: 0.602 (+-0.05), recall: 0.651 (+-0.15), specificity: 0.554, precision: 0.233 (+-0.05) 

	Confusion matrix: 	 [730 581] 
				 [ 85 182]



DROPOUT:::::: 0.2
optimizer:::::: adam lr=0.0003, decay=0.000004, amsgrad=True 
Compiling lstm network...
_________________________________________________________________
Layer (type)                 Output Shape              Param #   
=================================================================
masking_6 (Masking)          (None, 334, 10)           0         
_________________________________________________________________
lstm_6 (LSTM)                (None, 334, 96)           41088     
_________________________________________________________________
dropout_16 (Dropout)         (None, 334, 96)           0         
_________________________________________________________________
dense_16 (Dense)             (None, 334, 96)           9312      
_________________________________________________________________
dropout_17 (Dropout)         (None, 334, 96)           0         
_________________________________________________________________
dense_17 (Dense)             (None, 334, 64)           6208      
_________________________________________________________________
dropout_18 (Dropout)         (None, 334, 64)           0         
_________________________________________________________________
time_distributed_6 (TimeDist (None, 334, 2)            130       
=================================================================
Total params: 56,738
Trainable params: 56,738
Non-trainable params: 0
_________________________________________________________________
None


******** Scores for LSTM (Windows:  10, 5, 10) ******** 

	roc_auc: 0.596 (+-0.06), recall: 0.632 (+-0.15), specificity: 0.560, precision: 0.311 (+-0.10) 

	Confusion matrix: 	 [640 492] 
				 [122 227]



DROPOUT:::::: 0.2
optimizer:::::: adam lr=0.0003, decay=0.000004, amsgrad=True 
Compiling lstm network...
_________________________________________________________________
Layer (type)                 Output Shape              Param #   
=================================================================
masking_7 (Masking)          (None, 334, 10)           0         
_________________________________________________________________
lstm_7 (LSTM)                (None, 334, 96)           41088     
_________________________________________________________________
dropout_19 (Dropout)         (None, 334, 96)           0         
_________________________________________________________________
dense_19 (Dense)             (None, 334, 96)           9312      
_________________________________________________________________
dropout_20 (Dropout)         (None, 334, 96)           0         
_________________________________________________________________
dense_20 (Dense)             (None, 334, 64)           6208      
_________________________________________________________________
dropout_21 (Dropout)         (None, 334, 64)           0         
_________________________________________________________________
time_distributed_7 (TimeDist (None, 334, 2)            130       
=================================================================
Total params: 56,738
Trainable params: 56,738
Non-trainable params: 0
_________________________________________________________________
None


******** Scores for LSTM (Windows:  10, 5, 10) ******** 

	roc_auc: 0.617 (+-0.07), recall: 0.655 (+-0.15), specificity: 0.579, precision: 0.216 (+-0.05) 

	Confusion matrix: 	 [780 550] 
				 [ 72 164]



DROPOUT:::::: 0.2
optimizer:::::: adam lr=0.0003, decay=0.000004, amsgrad=True 
Compiling lstm network...
_________________________________________________________________
Layer (type)                 Output Shape              Param #   
=================================================================
masking_8 (Masking)          (None, 334, 10)           0         
_________________________________________________________________
lstm_8 (LSTM)                (None, 334, 96)           41088     
_________________________________________________________________
dropout_22 (Dropout)         (None, 334, 96)           0         
_________________________________________________________________
dense_22 (Dense)             (None, 334, 96)           9312      
_________________________________________________________________
dropout_23 (Dropout)         (None, 334, 96)           0         
_________________________________________________________________
dense_23 (Dense)             (None, 334, 64)           6208      
_________________________________________________________________
dropout_24 (Dropout)         (None, 334, 64)           0         
_________________________________________________________________
time_distributed_8 (TimeDist (None, 334, 2)            130       
=================================================================
Total params: 56,738
Trainable params: 56,738
Non-trainable params: 0
_________________________________________________________________
None


******** Scores for LSTM (Windows:  10, 5, 10) ******** 

	roc_auc: 0.601 (+-0.06), recall: 0.597 (+-0.07), specificity: 0.606, precision: 0.234 (+-0.03) 

	Confusion matrix: 	 [797 502] 
				 [101 155]



DROPOUT:::::: 0.2
optimizer:::::: adam lr=0.0003, decay=0.000004, amsgrad=True 
Compiling lstm network...
_________________________________________________________________
Layer (type)                 Output Shape              Param #   
=================================================================
masking_9 (Masking)          (None, 334, 10)           0         
_________________________________________________________________
lstm_9 (LSTM)                (None, 334, 96)           41088     
_________________________________________________________________
dropout_25 (Dropout)         (None, 334, 96)           0         
_________________________________________________________________
dense_25 (Dense)             (None, 334, 96)           9312      
_________________________________________________________________
dropout_26 (Dropout)         (None, 334, 96)           0         
_________________________________________________________________
dense_26 (Dense)             (None, 334, 64)           6208      
_________________________________________________________________
dropout_27 (Dropout)         (None, 334, 64)           0         
_________________________________________________________________
time_distributed_9 (TimeDist (None, 334, 2)            130       
=================================================================
Total params: 56,738
Trainable params: 56,738
Non-trainable params: 0
_________________________________________________________________
None


******** Scores for LSTM (Windows:  10, 5, 10) ******** 

	roc_auc: 0.621 (+-0.06), recall: 0.557 (+-0.20), specificity: 0.684, precision: 0.303 (+-0.12) 

	Confusion matrix: 	 [785 396] 
				 [143 138]



DROPOUT:::::: 0.2
optimizer:::::: adam lr=0.0003, decay=0.000004, amsgrad=True 
Compiling lstm network...
_________________________________________________________________
Layer (type)                 Output Shape              Param #   
=================================================================
masking_10 (Masking)         (None, 334, 10)           0         
_________________________________________________________________
lstm_10 (LSTM)               (None, 334, 96)           41088     
_________________________________________________________________
dropout_28 (Dropout)         (None, 334, 96)           0         
_________________________________________________________________
dense_28 (Dense)             (None, 334, 96)           9312      
_________________________________________________________________
dropout_29 (Dropout)         (None, 334, 96)           0         
_________________________________________________________________
dense_29 (Dense)             (None, 334, 64)           6208      
_________________________________________________________________
dropout_30 (Dropout)         (None, 334, 64)           0         
_________________________________________________________________
time_distributed_10 (TimeDis (None, 334, 2)            130       
=================================================================
Total params: 56,738
Trainable params: 56,738
Non-trainable params: 0
_________________________________________________________________
None


******** Scores for LSTM (Windows:  10, 5, 10) ******** 

	roc_auc: 0.641 (+-0.04), recall: 0.787 (+-0.10), specificity: 0.494, precision: 0.266 (+-0.05) 

	Confusion matrix: 	 [635 634] 
				 [ 60 236]



DROPOUT:::::: 0.2
optimizer:::::: adam lr=0.0003, decay=0.000004, amsgrad=True 
Compiling lstm network...
_________________________________________________________________
Layer (type)                 Output Shape              Param #   
=================================================================
masking_11 (Masking)         (None, 334, 10)           0         
_________________________________________________________________
lstm_11 (LSTM)               (None, 334, 96)           41088     
_________________________________________________________________
dropout_31 (Dropout)         (None, 334, 96)           0         
_________________________________________________________________
dense_31 (Dense)             (None, 334, 96)           9312      
_________________________________________________________________
dropout_32 (Dropout)         (None, 334, 96)           0         
_________________________________________________________________
dense_32 (Dense)             (None, 334, 64)           6208      
_________________________________________________________________
dropout_33 (Dropout)         (None, 334, 64)           0         
_________________________________________________________________
time_distributed_11 (TimeDis (None, 334, 2)            130       
=================================================================
Total params: 56,738
Trainable params: 56,738
Non-trainable params: 0
_________________________________________________________________
None


******** Scores for LSTM (Windows:  10, 5, 10) ******** 

	roc_auc: 0.621 (+-0.04), recall: 0.727 (+-0.12), specificity: 0.515, precision: 0.260 (+-0.02) 

	Confusion matrix: 	 [672 604] 
				 [ 72 213]



DROPOUT:::::: 0.2
optimizer:::::: adam lr=0.0003, decay=0.000004, amsgrad=True 
Compiling lstm network...
_________________________________________________________________
Layer (type)                 Output Shape              Param #   
=================================================================
masking_12 (Masking)         (None, 334, 10)           0         
_________________________________________________________________
lstm_12 (LSTM)               (None, 334, 96)           41088     
_________________________________________________________________
dropout_34 (Dropout)         (None, 334, 96)           0         
_________________________________________________________________
dense_34 (Dense)             (None, 334, 96)           9312      
_________________________________________________________________
dropout_35 (Dropout)         (None, 334, 96)           0         
_________________________________________________________________
dense_35 (Dense)             (None, 334, 64)           6208      
_________________________________________________________________
dropout_36 (Dropout)         (None, 334, 64)           0         
_________________________________________________________________
time_distributed_12 (TimeDis (None, 334, 2)            130       
=================================================================
Total params: 56,738
Trainable params: 56,738
Non-trainable params: 0
_________________________________________________________________
None


******** Scores for LSTM (Windows:  10, 5, 10) ******** 

	roc_auc: 0.578 (+-0.05), recall: 0.517 (+-0.25), specificity: 0.640, precision: 0.271 (+-0.12) 

	Confusion matrix: 	 [722 452] 
				 [152 143]



DROPOUT:::::: 0.2
optimizer:::::: adam lr=0.0003, decay=0.000004, amsgrad=True 
Compiling lstm network...
_________________________________________________________________
Layer (type)                 Output Shape              Param #   
=================================================================
masking_13 (Masking)         (None, 334, 10)           0         
_________________________________________________________________
lstm_13 (LSTM)               (None, 334, 96)           41088     
_________________________________________________________________
dropout_37 (Dropout)         (None, 334, 96)           0         
_________________________________________________________________
dense_37 (Dense)             (None, 334, 96)           9312      
_________________________________________________________________
dropout_38 (Dropout)         (None, 334, 96)           0         
_________________________________________________________________
dense_38 (Dense)             (None, 334, 64)           6208      
_________________________________________________________________
dropout_39 (Dropout)         (None, 334, 64)           0         
_________________________________________________________________
time_distributed_13 (TimeDis (None, 334, 2)            130       
=================================================================
Total params: 56,738
Trainable params: 56,738
Non-trainable params: 0
_________________________________________________________________
None


******** Scores for LSTM (Windows:  10, 5, 10) ******** 

	roc_auc: 0.595 (+-0.05), recall: 0.603 (+-0.15), specificity: 0.587, precision: 0.221 (+-0.06) 

	Confusion matrix: 	 [760 547] 
				 [ 93 153]



DROPOUT:::::: 0.2
optimizer:::::: adam lr=0.0003, decay=0.000004, amsgrad=True 
Compiling lstm network...
_________________________________________________________________
Layer (type)                 Output Shape              Param #   
=================================================================
masking_14 (Masking)         (None, 334, 10)           0         
_________________________________________________________________
lstm_14 (LSTM)               (None, 334, 96)           41088     
_________________________________________________________________
dropout_40 (Dropout)         (None, 334, 96)           0         
_________________________________________________________________
dense_40 (Dense)             (None, 334, 96)           9312      
_________________________________________________________________
dropout_41 (Dropout)         (None, 334, 96)           0         
_________________________________________________________________
dense_41 (Dense)             (None, 334, 64)           6208      
_________________________________________________________________
dropout_42 (Dropout)         (None, 334, 64)           0         
_________________________________________________________________
time_distributed_14 (TimeDis (None, 334, 2)            130       
=================================================================
Total params: 56,738
Trainable params: 56,738
Non-trainable params: 0
_________________________________________________________________
None


******** Scores for LSTM (Windows:  10, 5, 10) ******** 

	roc_auc: 0.609 (+-0.07), recall: 0.669 (+-0.13), specificity: 0.550, precision: 0.294 (+-0.09) 

	Confusion matrix: 	 [645 527] 
				 [109 209]



DROPOUT:::::: 0.2
optimizer:::::: adam lr=0.0003, decay=0.000004, amsgrad=True 
Compiling lstm network...
_________________________________________________________________
Layer (type)                 Output Shape              Param #   
=================================================================
masking_15 (Masking)         (None, 334, 10)           0         
_________________________________________________________________
lstm_15 (LSTM)               (None, 334, 96)           41088     
_________________________________________________________________
dropout_43 (Dropout)         (None, 334, 96)           0         
_________________________________________________________________
dense_43 (Dense)             (None, 334, 96)           9312      
_________________________________________________________________
dropout_44 (Dropout)         (None, 334, 96)           0         
_________________________________________________________________
dense_44 (Dense)             (None, 334, 64)           6208      
_________________________________________________________________
dropout_45 (Dropout)         (None, 334, 64)           0         
_________________________________________________________________
time_distributed_15 (TimeDis (None, 334, 2)            130       
=================================================================
Total params: 56,738
Trainable params: 56,738
Non-trainable params: 0
_________________________________________________________________
None


******** Scores for LSTM (Windows:  10, 5, 10) ******** 

	roc_auc: 0.616 (+-0.07), recall: 0.722 (+-0.17), specificity: 0.511, precision: 0.228 (+-0.05) 

	Confusion matrix: 	 [689 643] 
				 [ 62 197]



DROPOUT:::::: 0.2
optimizer:::::: adam lr=0.0003, decay=0.000004, amsgrad=True 
Compiling lstm network...
_________________________________________________________________
Layer (type)                 Output Shape              Param #   
=================================================================
masking_16 (Masking)         (None, 334, 10)           0         
_________________________________________________________________
lstm_16 (LSTM)               (None, 334, 96)           41088     
_________________________________________________________________
dropout_46 (Dropout)         (None, 334, 96)           0         
_________________________________________________________________
dense_46 (Dense)             (None, 334, 96)           9312      
_________________________________________________________________
dropout_47 (Dropout)         (None, 334, 96)           0         
_________________________________________________________________
dense_47 (Dense)             (None, 334, 64)           6208      
_________________________________________________________________
dropout_48 (Dropout)         (None, 334, 64)           0         
_________________________________________________________________
time_distributed_16 (TimeDis (None, 334, 2)            130       
=================================================================
Total params: 56,738
Trainable params: 56,738
Non-trainable params: 0
_________________________________________________________________
None


******** Scores for LSTM (Windows:  10, 5, 10) ******** 

	roc_auc: 0.597 (+-0.04), recall: 0.578 (+-0.18), specificity: 0.616, precision: 0.215 (+-0.05) 

	Confusion matrix: 	 [813 494] 
				 [ 87 150]



DROPOUT:::::: 0.2
optimizer:::::: adam lr=0.0003, decay=0.000004, amsgrad=True 
Compiling lstm network...
_________________________________________________________________
Layer (type)                 Output Shape              Param #   
=================================================================
masking_17 (Masking)         (None, 334, 10)           0         
_________________________________________________________________
lstm_17 (LSTM)               (None, 334, 96)           41088     
_________________________________________________________________
dropout_49 (Dropout)         (None, 334, 96)           0         
_________________________________________________________________
dense_49 (Dense)             (None, 334, 96)           9312      
_________________________________________________________________
dropout_50 (Dropout)         (None, 334, 96)           0         
_________________________________________________________________
dense_50 (Dense)             (None, 334, 64)           6208      
_________________________________________________________________
dropout_51 (Dropout)         (None, 334, 64)           0         
_________________________________________________________________
time_distributed_17 (TimeDis (None, 334, 2)            130       
=================================================================
Total params: 56,738
Trainable params: 56,738
Non-trainable params: 0
_________________________________________________________________
None


******** Scores for LSTM (Windows:  10, 5, 10) ******** 

	roc_auc: 0.590 (+-0.07), recall: 0.681 (+-0.21), specificity: 0.499, precision: 0.231 (+-0.05) 

	Confusion matrix: 	 [649 631] 
				 [ 76 204]



DROPOUT:::::: 0.2
optimizer:::::: adam lr=0.0003, decay=0.000004, amsgrad=True 
Compiling lstm network...
_________________________________________________________________
Layer (type)                 Output Shape              Param #   
=================================================================
masking_18 (Masking)         (None, 334, 10)           0         
_________________________________________________________________
lstm_18 (LSTM)               (None, 334, 96)           41088     
_________________________________________________________________
dropout_52 (Dropout)         (None, 334, 96)           0         
_________________________________________________________________
dense_52 (Dense)             (None, 334, 96)           9312      
_________________________________________________________________
dropout_53 (Dropout)         (None, 334, 96)           0         
_________________________________________________________________
dense_53 (Dense)             (None, 334, 64)           6208      
_________________________________________________________________
dropout_54 (Dropout)         (None, 334, 64)           0         
_________________________________________________________________
time_distributed_18 (TimeDis (None, 334, 2)            130       
=================================================================
Total params: 56,738
Trainable params: 56,738
Non-trainable params: 0
_________________________________________________________________
None


******** Scores for LSTM (Windows:  10, 5, 10) ******** 

	roc_auc: 0.619 (+-0.05), recall: 0.592 (+-0.10), specificity: 0.646, precision: 0.213 (+-0.05) 

	Confusion matrix: 	 [865 467] 
				 [ 84 130]



DROPOUT:::::: 0.2
optimizer:::::: adam lr=0.0003, decay=0.000004, amsgrad=True 
Compiling lstm network...
_________________________________________________________________
Layer (type)                 Output Shape              Param #   
=================================================================
masking_19 (Masking)         (None, 334, 10)           0         
_________________________________________________________________
lstm_19 (LSTM)               (None, 334, 96)           41088     
_________________________________________________________________
dropout_55 (Dropout)         (None, 334, 96)           0         
_________________________________________________________________
dense_55 (Dense)             (None, 334, 96)           9312      
_________________________________________________________________
dropout_56 (Dropout)         (None, 334, 96)           0         
_________________________________________________________________
dense_56 (Dense)             (None, 334, 64)           6208      
_________________________________________________________________
dropout_57 (Dropout)         (None, 334, 64)           0         
_________________________________________________________________
time_distributed_19 (TimeDis (None, 334, 2)            130       
=================================================================
Total params: 56,738
Trainable params: 56,738
Non-trainable params: 0
_________________________________________________________________
None


******** Scores for LSTM (Windows:  10, 5, 10) ******** 

	roc_auc: 0.603 (+-0.03), recall: 0.664 (+-0.13), specificity: 0.542, precision: 0.223 (+-0.05) 

	Confusion matrix: 	 [719 588] 
				 [ 77 181]



DROPOUT:::::: 0.2
optimizer:::::: adam lr=0.0003, decay=0.000004, amsgrad=True 
Compiling lstm network...
_________________________________________________________________
Layer (type)                 Output Shape              Param #   
=================================================================
masking_20 (Masking)         (None, 334, 10)           0         
_________________________________________________________________
lstm_20 (LSTM)               (None, 334, 96)           41088     
_________________________________________________________________
dropout_58 (Dropout)         (None, 334, 96)           0         
_________________________________________________________________
dense_58 (Dense)             (None, 334, 96)           9312      
_________________________________________________________________
dropout_59 (Dropout)         (None, 334, 96)           0         
_________________________________________________________________
dense_59 (Dense)             (None, 334, 64)           6208      
_________________________________________________________________
dropout_60 (Dropout)         (None, 334, 64)           0         
_________________________________________________________________
time_distributed_20 (TimeDis (None, 334, 2)            130       
=================================================================
Total params: 56,738
Trainable params: 56,738
Non-trainable params: 0
_________________________________________________________________
None


******** Scores for LSTM (Windows:  10, 5, 10) ******** 

	roc_auc: 0.590 (+-0.05), recall: 0.722 (+-0.15), specificity: 0.459, precision: 0.239 (+-0.04) 

	Confusion matrix: 	 [592 680] 
…
