…
WARNING:tensorflow:Variable *= will be deprecated. Use variable.assign_mul if you want assignment to the variable value or 'x = x * y' if you want a new python Tensor object.
2018-07-20 14:24:46.127895: I tensorflow/core/platform/cpu_feature_guard.cc:140] Your CPU supports instructions that this TensorFlow binary was not compiled to use: AVX2 FMA
Loading dataframes...
Feature matrix already cached!
Feature matrix and labels created!

################# Get trained LSTM #################

Compiling lstm network...
_________________________________________________________________
Layer (type)                 Output Shape              Param #   
=================================================================
masking_1 (Masking)          (None, 334, 10)           0         
_________________________________________________________________
lstm_1 (LSTM)                (None, 334, 96)           41088     
_________________________________________________________________
dropout_1 (Dropout)          (None, 334, 96)           0         
_________________________________________________________________
dense_1 (Dense)              (None, 334, 96)           9312      
_________________________________________________________________
dropout_2 (Dropout)          (None, 334, 96)           0         
_________________________________________________________________
dense_2 (Dense)              (None, 334, 64)           6208      
_________________________________________________________________
dropout_3 (Dropout)          (None, 334, 64)           0         
_________________________________________________________________
time_distributed_1 (TimeDist (None, 334, 2)            130       
=================================================================
Total params: 56,738
Trainable params: 56,738
Non-trainable params: 0
_________________________________________________________________
None


******** Scores for LSTM (Windows:  10, 5, 10) ******** 

	roc_auc: 0.595 (+-0.07), recall: 0.715 (+-0.12), specificity: 0.475, precision: 0.227 (+-0.07) 

	Confusion matrix: 	 [616 681] 
				 [ 67 190]



Compiling lstm network...
_________________________________________________________________
Layer (type)                 Output Shape              Param #   
=================================================================
masking_2 (Masking)          (None, 334, 10)           0         
_________________________________________________________________
lstm_2 (LSTM)                (None, 334, 96)           41088     
_________________________________________________________________
dropout_4 (Dropout)          (None, 334, 96)           0         
_________________________________________________________________
dense_4 (Dense)              (None, 334, 96)           9312      
_________________________________________________________________
dropout_5 (Dropout)          (None, 334, 96)           0         
_________________________________________________________________
dense_5 (Dense)              (None, 334, 64)           6208      
_________________________________________________________________
dropout_6 (Dropout)          (None, 334, 64)           0         
_________________________________________________________________
time_distributed_2 (TimeDist (None, 334, 2)            130       
=================================================================
Total params: 56,738
Trainable params: 56,738
Non-trainable params: 0
_________________________________________________________________
None


******** Scores for LSTM (Windows:  10, 5, 10) ******** 

	roc_auc: 0.590 (+-0.04), recall: 0.652 (+-0.21), specificity: 0.527, precision: 0.220 (+-0.06) 

	Confusion matrix: 	 [679 598] 
				 [ 79 188]



Compiling lstm network...
_________________________________________________________________
Layer (type)                 Output Shape              Param #   
=================================================================
masking_3 (Masking)          (None, 334, 10)           0         
_________________________________________________________________
lstm_3 (LSTM)                (None, 334, 96)           41088     
_________________________________________________________________
dropout_7 (Dropout)          (None, 334, 96)           0         
_________________________________________________________________
dense_7 (Dense)              (None, 334, 96)           9312      
_________________________________________________________________
dropout_8 (Dropout)          (None, 334, 96)           0         
_________________________________________________________________
dense_8 (Dense)              (None, 334, 64)           6208      
_________________________________________________________________
dropout_9 (Dropout)          (None, 334, 64)           0         
_________________________________________________________________
time_distributed_3 (TimeDist (None, 334, 2)            130       
=================================================================
Total params: 56,738
Trainable params: 56,738
Non-trainable params: 0
_________________________________________________________________
None


******** Scores for LSTM (Windows:  10, 5, 10) ******** 

	roc_auc: 0.598 (+-0.06), recall: 0.658 (+-0.12), specificity: 0.538, precision: 0.178 (+-0.03) 

	Confusion matrix: 	 [739 632] 
				 [ 68 140]



Compiling lstm network...
_________________________________________________________________
Layer (type)                 Output Shape              Param #   
=================================================================
masking_4 (Masking)          (None, 334, 10)           0         
_________________________________________________________________
lstm_4 (LSTM)                (None, 334, 96)           41088     
_________________________________________________________________
dropout_10 (Dropout)         (None, 334, 96)           0         
_________________________________________________________________
dense_10 (Dense)             (None, 334, 96)           9312      
_________________________________________________________________
dropout_11 (Dropout)         (None, 334, 96)           0         
_________________________________________________________________
dense_11 (Dense)             (None, 334, 64)           6208      
_________________________________________________________________
dropout_12 (Dropout)         (None, 334, 64)           0         
_________________________________________________________________
time_distributed_4 (TimeDist (None, 334, 2)            130       
=================================================================
Total params: 56,738
Trainable params: 56,738
Non-trainable params: 0
_________________________________________________________________
None


******** Scores for LSTM (Windows:  10, 5, 10) ******** 

	roc_auc: 0.604 (+-0.05), recall: 0.735 (+-0.18), specificity: 0.473, precision: 0.250 (+-0.05) 

	Confusion matrix: 	 [615 656] 
				 [ 64 227]



Compiling lstm network...
_________________________________________________________________
Layer (type)                 Output Shape              Param #   
=================================================================
masking_5 (Masking)          (None, 334, 10)           0         
_________________________________________________________________
lstm_5 (LSTM)                (None, 334, 96)           41088     
_________________________________________________________________
dropout_13 (Dropout)         (None, 334, 96)           0         
_________________________________________________________________
dense_13 (Dense)             (None, 334, 96)           9312      
_________________________________________________________________
dropout_14 (Dropout)         (None, 334, 96)           0         
_________________________________________________________________
dense_14 (Dense)             (None, 334, 64)           6208      
_________________________________________________________________
dropout_15 (Dropout)         (None, 334, 64)           0         
_________________________________________________________________
time_distributed_5 (TimeDist (None, 334, 2)            130       
=================================================================
Total params: 56,738
Trainable params: 56,738
Non-trainable params: 0
_________________________________________________________________
None


******** Scores for LSTM (Windows:  10, 5, 10) ******** 

	roc_auc: 0.657 (+-0.06), recall: 0.734 (+-0.17), specificity: 0.580, precision: 0.239 (+-0.05) 

	Confusion matrix: 	 [785 556] 
				 [ 56 180]



Compiling lstm network...
_________________________________________________________________
Layer (type)                 Output Shape              Param #   
=================================================================
masking_6 (Masking)          (None, 334, 10)           0         
_________________________________________________________________
lstm_6 (LSTM)                (None, 334, 96)           41088     
_________________________________________________________________
dropout_16 (Dropout)         (None, 334, 96)           0         
_________________________________________________________________
dense_16 (Dense)             (None, 334, 96)           9312      
_________________________________________________________________
dropout_17 (Dropout)         (None, 334, 96)           0         
_________________________________________________________________
dense_17 (Dense)             (None, 334, 64)           6208      
_________________________________________________________________
dropout_18 (Dropout)         (None, 334, 64)           0         
_________________________________________________________________
time_distributed_6 (TimeDist (None, 334, 2)            130       
=================================================================
Total params: 56,738
Trainable params: 56,738
Non-trainable params: 0
_________________________________________________________________
None


******** Scores for LSTM (Windows:  10, 5, 10) ******** 

	roc_auc: 0.641 (+-0.06), recall: 0.634 (+-0.14), specificity: 0.647, precision: 0.334 (+-0.09) 

	Confusion matrix: 	 [757 421] 
				 [125 195]



Compiling lstm network...
_________________________________________________________________
Layer (type)                 Output Shape              Param #   
=================================================================
masking_7 (Masking)          (None, 334, 10)           0         
_________________________________________________________________
lstm_7 (LSTM)                (None, 334, 96)           41088     
_________________________________________________________________
dropout_19 (Dropout)         (None, 334, 96)           0         
_________________________________________________________________
dense_19 (Dense)             (None, 334, 96)           9312      
_________________________________________________________________
dropout_20 (Dropout)         (None, 334, 96)           0         
_________________________________________________________________
dense_20 (Dense)             (None, 334, 64)           6208      
_________________________________________________________________
dropout_21 (Dropout)         (None, 334, 64)           0         
_________________________________________________________________
time_distributed_7 (TimeDist (None, 334, 2)            130       
=================================================================
Total params: 56,738
Trainable params: 56,738
Non-trainable params: 0
_________________________________________________________________
None


******** Scores for LSTM (Windows:  10, 5, 10) ******** 

	roc_auc: 0.580 (+-0.05), recall: 0.656 (+-0.15), specificity: 0.505, precision: 0.254 (+-0.11) 

	Confusion matrix: 	 [604 617] 
				 [103 193]



Compiling lstm network...
_________________________________________________________________
Layer (type)                 Output Shape              Param #   
=================================================================
masking_8 (Masking)          (None, 334, 10)           0         
_________________________________________________________________
lstm_8 (LSTM)                (None, 334, 96)           41088     
_________________________________________________________________
dropout_22 (Dropout)         (None, 334, 96)           0         
_________________________________________________________________
dense_22 (Dense)             (None, 334, 96)           9312      
_________________________________________________________________
dropout_23 (Dropout)         (None, 334, 96)           0         
_________________________________________________________________
dense_23 (Dense)             (None, 334, 64)           6208      
_________________________________________________________________
dropout_24 (Dropout)         (None, 334, 64)           0         
_________________________________________________________________
time_distributed_8 (TimeDist (None, 334, 2)            130       
=================================================================
Total params: 56,738
Trainable params: 56,738
Non-trainable params: 0
_________________________________________________________________
None


******** Scores for LSTM (Windows:  10, 5, 10) ******** 

	roc_auc: 0.609 (+-0.05), recall: 0.688 (+-0.11), specificity: 0.530, precision: 0.271 (+-0.09) 

	Confusion matrix: 	 [643 575] 
				 [ 99 202]



Compiling lstm network...
_________________________________________________________________
Layer (type)                 Output Shape              Param #   
=================================================================
masking_9 (Masking)          (None, 334, 10)           0         
_________________________________________________________________
lstm_9 (LSTM)                (None, 334, 96)           41088     
_________________________________________________________________
dropout_25 (Dropout)         (None, 334, 96)           0         
_________________________________________________________________
dense_25 (Dense)             (None, 334, 96)           9312      
_________________________________________________________________
dropout_26 (Dropout)         (None, 334, 96)           0         
_________________________________________________________________
dense_26 (Dense)             (None, 334, 64)           6208      
_________________________________________________________________
dropout_27 (Dropout)         (None, 334, 64)           0         
_________________________________________________________________
time_distributed_9 (TimeDist (None, 334, 2)            130       
=================================================================
Total params: 56,738
Trainable params: 56,738
Non-trainable params: 0
_________________________________________________________________
None


******** Scores for LSTM (Windows:  10, 5, 10) ******** 

	roc_auc: 0.597 (+-0.06), recall: 0.700 (+-0.19), specificity: 0.493, precision: 0.249 (+-0.05) 

	Confusion matrix: 	 [649 649] 
				 [ 83 222]



Compiling lstm network...
_________________________________________________________________
Layer (type)                 Output Shape              Param #   
=================================================================
masking_10 (Masking)         (None, 334, 10)           0         
_________________________________________________________________
lstm_10 (LSTM)               (None, 334, 96)           41088     
_________________________________________________________________
dropout_28 (Dropout)         (None, 334, 96)           0         
_________________________________________________________________
dense_28 (Dense)             (None, 334, 96)           9312      
_________________________________________________________________
dropout_29 (Dropout)         (None, 334, 96)           0         
_________________________________________________________________
dense_29 (Dense)             (None, 334, 64)           6208      
_________________________________________________________________
dropout_30 (Dropout)         (None, 334, 64)           0         
_________________________________________________________________
time_distributed_10 (TimeDis (None, 334, 2)            130       
=================================================================
Total params: 56,738
Trainable params: 56,738
Non-trainable params: 0
_________________________________________________________________
None


******** Scores for LSTM (Windows:  10, 5, 10) ******** 

	roc_auc: 0.602 (+-0.05), recall: 0.630 (+-0.12), specificity: 0.574, precision: 0.236 (+-0.06) 

	Confusion matrix: 	 [740 529] 
				 [ 91 177]



Compiling lstm network...
_________________________________________________________________
Layer (type)                 Output Shape              Param #   
=================================================================
masking_11 (Masking)         (None, 334, 10)           0         
_________________________________________________________________
lstm_11 (LSTM)               (None, 334, 96)           41088     
_________________________________________________________________
dropout_31 (Dropout)         (None, 334, 96)           0         
_________________________________________________________________
dense_31 (Dense)             (None, 334, 96)           9312      
_________________________________________________________________
dropout_32 (Dropout)         (None, 334, 96)           0         
_________________________________________________________________
dense_32 (Dense)             (None, 334, 64)           6208      
_________________________________________________________________
dropout_33 (Dropout)         (None, 334, 64)           0         
_________________________________________________________________
time_distributed_11 (TimeDis (None, 334, 2)            130       
=================================================================
Total params: 56,738
Trainable params: 56,738
Non-trainable params: 0
_________________________________________________________________
None


******** Scores for LSTM (Windows:  10, 5, 10) ******** 

	roc_auc: 0.598 (+-0.05), recall: 0.510 (+-0.17), specificity: 0.686, precision: 0.231 (+-0.06) 

	Confusion matrix: 	 [883 394] 
				 [109 129]



Compiling lstm network...
_________________________________________________________________
Layer (type)                 Output Shape              Param #   
=================================================================
masking_12 (Masking)         (None, 334, 10)           0         
_________________________________________________________________
lstm_12 (LSTM)               (None, 334, 96)           41088     
_________________________________________________________________
dropout_34 (Dropout)         (None, 334, 96)           0         
_________________________________________________________________
dense_34 (Dense)             (None, 334, 96)           9312      
_________________________________________________________________
dropout_35 (Dropout)         (None, 334, 96)           0         
_________________________________________________________________
dense_35 (Dense)             (None, 334, 64)           6208      
_________________________________________________________________
dropout_36 (Dropout)         (None, 334, 64)           0         
_________________________________________________________________
time_distributed_12 (TimeDis (None, 334, 2)            130       
=================================================================
Total params: 56,738
Trainable params: 56,738
Non-trainable params: 0
_________________________________________________________________
None


******** Scores for LSTM (Windows:  10, 5, 10) ******** 

	roc_auc: 0.566 (+-0.03), recall: 0.627 (+-0.16), specificity: 0.505, precision: 0.258 (+-0.10) 

	Confusion matrix: 	 [598 568] 
				 [105 205]



Compiling lstm network...
_________________________________________________________________
Layer (type)                 Output Shape              Param #   
=================================================================
masking_13 (Masking)         (None, 334, 10)           0         
_________________________________________________________________
lstm_13 (LSTM)               (None, 334, 96)           41088     
_________________________________________________________________
dropout_37 (Dropout)         (None, 334, 96)           0         
_________________________________________________________________
dense_37 (Dense)             (None, 334, 96)           9312      
_________________________________________________________________
dropout_38 (Dropout)         (None, 334, 96)           0         
_________________________________________________________________
dense_38 (Dense)             (None, 334, 64)           6208      
_________________________________________________________________
dropout_39 (Dropout)         (None, 334, 64)           0         
_________________________________________________________________
time_distributed_13 (TimeDis (None, 334, 2)            130       
=================================================================
Total params: 56,738
Trainable params: 56,738
Non-trainable params: 0
_________________________________________________________________
None


******** Scores for LSTM (Windows:  10, 5, 10) ******** 

	roc_auc: 0.601 (+-0.05), recall: 0.636 (+-0.17), specificity: 0.566, precision: 0.241 (+-0.03) 

	Confusion matrix: 	 [720 542] 
				 [ 89 178]



Compiling lstm network...
_________________________________________________________________
Layer (type)                 Output Shape              Param #   
=================================================================
masking_14 (Masking)         (None, 334, 10)           0         
_________________________________________________________________
lstm_14 (LSTM)               (None, 334, 96)           41088     
_________________________________________________________________
dropout_40 (Dropout)         (None, 334, 96)           0         
_________________________________________________________________
dense_40 (Dense)             (None, 334, 96)           9312      
_________________________________________________________________
dropout_41 (Dropout)         (None, 334, 96)           0         
_________________________________________________________________
dense_41 (Dense)             (None, 334, 64)           6208      
_________________________________________________________________
dropout_42 (Dropout)         (None, 334, 64)           0         
_________________________________________________________________
time_distributed_14 (TimeDis (None, 334, 2)            130       
=================================================================
Total params: 56,738
Trainable params: 56,738
Non-trainable params: 0
_________________________________________________________________
None


******** Scores for LSTM (Windows:  10, 5, 10) ******** 

	roc_auc: 0.627 (+-0.03), recall: 0.679 (+-0.14), specificity: 0.575, precision: 0.245 (+-0.02) 

	Confusion matrix: 	 [757 544] 
				 [ 76 184]



Compiling lstm network...
_________________________________________________________________
Layer (type)                 Output Shape              Param #   
=================================================================
masking_15 (Masking)         (None, 334, 10)           0         
_________________________________________________________________
lstm_15 (LSTM)               (None, 334, 96)           41088     
_________________________________________________________________
dropout_43 (Dropout)         (None, 334, 96)           0         
_________________________________________________________________
dense_43 (Dense)             (None, 334, 96)           9312      
_________________________________________________________________
dropout_44 (Dropout)         (None, 334, 96)           0         
_________________________________________________________________
dense_44 (Dense)             (None, 334, 64)           6208      
_________________________________________________________________
dropout_45 (Dropout)         (None, 334, 64)           0         
_________________________________________________________________
time_distributed_15 (TimeDis (None, 334, 2)            130       
=================================================================
Total params: 56,738
Trainable params: 56,738
Non-trainable params: 0
_________________________________________________________________
None


******** Scores for LSTM (Windows:  10, 5, 10) ******** 

	roc_auc: 0.588 (+-0.03), recall: 0.852 (+-0.08), specificity: 0.324, precision: 0.248 (+-0.05) 

	Confusion matrix: 	 [413 861] 
				 [ 45 284]



Compiling lstm network...
_________________________________________________________________
Layer (type)                 Output Shape              Param #   
=================================================================
masking_16 (Masking)         (None, 334, 10)           0         
_________________________________________________________________
lstm_16 (LSTM)               (None, 334, 96)           41088     
_________________________________________________________________
dropout_46 (Dropout)         (None, 334, 96)           0         
_________________________________________________________________
dense_46 (Dense)             (None, 334, 96)           9312      
_________________________________________________________________
dropout_47 (Dropout)         (None, 334, 96)           0         
_________________________________________________________________
dense_47 (Dense)             (None, 334, 64)           6208      
_________________________________________________________________
dropout_48 (Dropout)         (None, 334, 64)           0         
_________________________________________________________________
time_distributed_16 (TimeDis (None, 334, 2)            130       
=================================================================
Total params: 56,738
Trainable params: 56,738
Non-trainable params: 0
_________________________________________________________________
None


******** Scores for LSTM (Windows:  10, 5, 10) ******** 

	roc_auc: 0.566 (+-0.04), recall: 0.572 (+-0.17), specificity: 0.561, precision: 0.208 (+-0.05) 

	Confusion matrix: 	 [728 565] 
				 [ 99 156]



Compiling lstm network...
_________________________________________________________________
Layer (type)                 Output Shape              Param #   
=================================================================
masking_17 (Masking)         (None, 334, 10)           0         
_________________________________________________________________
lstm_17 (LSTM)               (None, 334, 96)           41088     
_________________________________________________________________
dropout_49 (Dropout)         (None, 334, 96)           0         
_________________________________________________________________
dense_49 (Dense)             (None, 334, 96)           9312      
_________________________________________________________________
dropout_50 (Dropout)         (None, 334, 96)           0         
_________________________________________________________________
dense_50 (Dense)             (None, 334, 64)           6208      
_________________________________________________________________
dropout_51 (Dropout)         (None, 334, 64)           0         
_________________________________________________________________
time_distributed_17 (TimeDis (None, 334, 2)            130       
=================================================================
Total params: 56,738
Trainable params: 56,738
Non-trainable params: 0
_________________________________________________________________
None


******** Scores for LSTM (Windows:  10, 5, 10) ******** 

	roc_auc: 0.605 (+-0.07), recall: 0.599 (+-0.13), specificity: 0.612, precision: 0.261 (+-0.05) 

	Confusion matrix: 	 [775 473] 
				 [108 170]



Compiling lstm network...
_________________________________________________________________
Layer (type)                 Output Shape              Param #   
=================================================================
masking_18 (Masking)         (None, 334, 10)           0         
_________________________________________________________________
lstm_18 (LSTM)               (None, 334, 96)           41088     
_________________________________________________________________
dropout_52 (Dropout)         (None, 334, 96)           0         
_________________________________________________________________
dense_52 (Dense)             (None, 334, 96)           9312      
_________________________________________________________________
dropout_53 (Dropout)         (None, 334, 96)           0         
_________________________________________________________________
dense_53 (Dense)             (None, 334, 64)           6208      
_________________________________________________________________
dropout_54 (Dropout)         (None, 334, 64)           0         
_________________________________________________________________
time_distributed_18 (TimeDis (None, 334, 2)            130       
=================================================================
Total params: 56,738
Trainable params: 56,738
Non-trainable params: 0
_________________________________________________________________
None


******** Scores for LSTM (Windows:  10, 5, 10) ******** 

	roc_auc: 0.608 (+-0.06), recall: 0.683 (+-0.15), specificity: 0.533, precision: 0.295 (+-0.10) 

	Confusion matrix: 	 [612 565] 
				 [106 209]



Compiling lstm network...
_________________________________________________________________
Layer (type)                 Output Shape              Param #   
=================================================================
masking_19 (Masking)         (None, 334, 10)           0         
_________________________________________________________________
lstm_19 (LSTM)               (None, 334, 96)           41088     
_________________________________________________________________
dropout_55 (Dropout)         (None, 334, 96)           0         
_________________________________________________________________
dense_55 (Dense)             (None, 334, 96)           9312      
_________________________________________________________________
dropout_56 (Dropout)         (None, 334, 96)           0         
_________________________________________________________________
dense_56 (Dense)             (None, 334, 64)           6208      
_________________________________________________________________
dropout_57 (Dropout)         (None, 334, 64)           0         
_________________________________________________________________
time_distributed_19 (TimeDis (None, 334, 2)            130       
=================================================================
Total params: 56,738
Trainable params: 56,738
Non-trainable params: 0
_________________________________________________________________
None


******** Scores for LSTM (Windows:  10, 5, 10) ******** 

	roc_auc: 0.561 (+-0.05), recall: 0.531 (+-0.15), specificity: 0.591, precision: 0.198 (+-0.04) 

	Confusion matrix: 	 [770 519] 
				 [107 138]



Compiling lstm network...
_________________________________________________________________
Layer (type)                 Output Shape              Param #   
=================================================================
masking_20 (Masking)         (None, 334, 10)           0         
_________________________________________________________________
lstm_20 (LSTM)               (None, 334, 96)           41088     
_________________________________________________________________
dropout_58 (Dropout)         (None, 334, 96)           0         
_________________________________________________________________
dense_58 (Dense)             (None, 334, 96)           9312      
_________________________________________________________________
dropout_59 (Dropout)         (None, 334, 96)           0         
_________________________________________________________________
dense_59 (Dense)             (None, 334, 64)           6208      
_________________________________________________________________
dropout_60 (Dropout)         (None, 334, 64)           0         
_________________________________________________________________
time_distributed_20 (TimeDis (None, 334, 2)            130       
=================================================================
Total params: 56,738
Trainable params: 56,738
Non-trainable params: 0
_________________________________________________________________
None


******** Scores for LSTM (Windows:  10, 5, 10) ******** 

	roc_auc: 0.613 (+-0.05), recall: 0.621 (+-0.11), specificity: 0.605, precision: 0.240 (+-0.05) 

	Confusion matrix: 	 [797 505] 
…
