…
2018-07-20 21:11:20.827210: I tensorflow/core/platform/cpu_feature_guard.cc:140] Your CPU supports instructions that this TensorFlow binary was not compiled to use: AVX2 FMA
Loading dataframes...
Feature matrix already cached!
Feature matrix and labels created!

################# Get trained LSTM #################

DROPOUT=0.2
optimizer:::::: adam lr=0.0003, decay=0.000004, amsgrad=True 
Weighted :::::: 1 to 6 
Compiling lstm network...
_________________________________________________________________
Layer (type)                 Output Shape              Param #   
=================================================================
masking_1 (Masking)          (None, 334, 10)           0         
_________________________________________________________________
lstm_1 (LSTM)                (None, 334, 96)           41088     
_________________________________________________________________
dropout_1 (Dropout)          (None, 334, 96)           0         
_________________________________________________________________
dense_1 (Dense)              (None, 334, 96)           9312      
_________________________________________________________________
dropout_2 (Dropout)          (None, 334, 96)           0         
_________________________________________________________________
dense_2 (Dense)              (None, 334, 96)           9312      
_________________________________________________________________
dropout_3 (Dropout)          (None, 334, 96)           0         
_________________________________________________________________
time_distributed_1 (TimeDist (None, 334, 2)            194       
=================================================================
Total params: 59,906
Trainable params: 59,906
Non-trainable params: 0
_________________________________________________________________
None


******** Scores for LSTM (Windows:  10, 5, 10) ******** 

	roc_auc: 0.572 (+-0.03), recall: 0.421 (+-0.15), specificity: 0.723, precision: 0.254 (+-0.06) 

	Confusion matrix: 	 [925 344] 
				 [142 125]



DROPOUT=0.2
optimizer:::::: adam lr=0.0003, decay=0.000004, amsgrad=True 
Weighted :::::: 1 to 6 
Compiling lstm network...
_________________________________________________________________
Layer (type)                 Output Shape              Param #   
=================================================================
masking_2 (Masking)          (None, 334, 10)           0         
_________________________________________________________________
lstm_2 (LSTM)                (None, 334, 96)           41088     
_________________________________________________________________
dropout_4 (Dropout)          (None, 334, 96)           0         
_________________________________________________________________
dense_4 (Dense)              (None, 334, 96)           9312      
_________________________________________________________________
dropout_5 (Dropout)          (None, 334, 96)           0         
_________________________________________________________________
dense_5 (Dense)              (None, 334, 96)           9312      
_________________________________________________________________
dropout_6 (Dropout)          (None, 334, 96)           0         
_________________________________________________________________
time_distributed_2 (TimeDist (None, 334, 2)            194       
=================================================================
Total params: 59,906
Trainable params: 59,906
Non-trainable params: 0
_________________________________________________________________
None


******** Scores for LSTM (Windows:  10, 5, 10) ******** 

	roc_auc: 0.569 (+-0.03), recall: 0.371 (+-0.11), specificity: 0.767, precision: 0.225 (+-0.04) 

	Confusion matrix: 	 [997 302] 
				 [140  91]



DROPOUT=0.2
optimizer:::::: adam lr=0.0003, decay=0.000004, amsgrad=True 
Weighted :::::: 1 to 6 
Compiling lstm network...
_________________________________________________________________
Layer (type)                 Output Shape              Param #   
=================================================================
masking_3 (Masking)          (None, 334, 10)           0         
_________________________________________________________________
lstm_3 (LSTM)                (None, 334, 96)           41088     
_________________________________________________________________
dropout_7 (Dropout)          (None, 334, 96)           0         
_________________________________________________________________
dense_7 (Dense)              (None, 334, 96)           9312      
_________________________________________________________________
dropout_8 (Dropout)          (None, 334, 96)           0         
_________________________________________________________________
dense_8 (Dense)              (None, 334, 96)           9312      
_________________________________________________________________
dropout_9 (Dropout)          (None, 334, 96)           0         
_________________________________________________________________
time_distributed_3 (TimeDist (None, 334, 2)            194       
=================================================================
Total params: 59,906
Trainable params: 59,906
Non-trainable params: 0
_________________________________________________________________
None


******** Scores for LSTM (Windows:  10, 5, 10) ******** 

	roc_auc: 0.623 (+-0.05), recall: 0.511 (+-0.18), specificity: 0.735, precision: 0.292 (+-0.06) 

	Confusion matrix: 	 [955 336] 
				 [122 148]



DROPOUT=0.2
optimizer:::::: adam lr=0.0003, decay=0.000004, amsgrad=True 
Weighted :::::: 1 to 6 
Compiling lstm network...
_________________________________________________________________
Layer (type)                 Output Shape              Param #   
=================================================================
masking_4 (Masking)          (None, 334, 10)           0         
_________________________________________________________________
lstm_4 (LSTM)                (None, 334, 96)           41088     
_________________________________________________________________
dropout_10 (Dropout)         (None, 334, 96)           0         
_________________________________________________________________
dense_10 (Dense)             (None, 334, 96)           9312      
_________________________________________________________________
dropout_11 (Dropout)         (None, 334, 96)           0         
_________________________________________________________________
dense_11 (Dense)             (None, 334, 96)           9312      
_________________________________________________________________
dropout_12 (Dropout)         (None, 334, 96)           0         
_________________________________________________________________
time_distributed_4 (TimeDist (None, 334, 2)            194       
=================================================================
Total params: 59,906
Trainable params: 59,906
Non-trainable params: 0
_________________________________________________________________
None


******** Scores for LSTM (Windows:  10, 5, 10) ******** 

	roc_auc: 0.598 (+-0.04), recall: 0.378 (+-0.10), specificity: 0.818, precision: 0.257 (+-0.05) 

	Confusion matrix: 	 [1094  242] 
				 [135  86]



DROPOUT=0.2
optimizer:::::: adam lr=0.0003, decay=0.000004, amsgrad=True 
Weighted :::::: 1 to 6 
Compiling lstm network...
_________________________________________________________________
Layer (type)                 Output Shape              Param #   
=================================================================
masking_5 (Masking)          (None, 334, 10)           0         
_________________________________________________________________
lstm_5 (LSTM)                (None, 334, 96)           41088     
_________________________________________________________________
dropout_13 (Dropout)         (None, 334, 96)           0         
_________________________________________________________________
dense_13 (Dense)             (None, 334, 96)           9312      
_________________________________________________________________
dropout_14 (Dropout)         (None, 334, 96)           0         
_________________________________________________________________
dense_14 (Dense)             (None, 334, 96)           9312      
_________________________________________________________________
dropout_15 (Dropout)         (None, 334, 96)           0         
_________________________________________________________________
time_distributed_5 (TimeDist (None, 334, 2)            194       
=================================================================
Total params: 59,906
Trainable params: 59,906
Non-trainable params: 0
_________________________________________________________________
None


******** Scores for LSTM (Windows:  10, 5, 10) ******** 

	roc_auc: 0.586 (+-0.04), recall: 0.364 (+-0.13), specificity: 0.809, precision: 0.305 (+-0.12) 

	Confusion matrix: 	 [974 229] 
				 [175 105]



DROPOUT=0.2
optimizer:::::: adam lr=0.0003, decay=0.000004, amsgrad=True 
Weighted :::::: 1 to 6 
Compiling lstm network...
_________________________________________________________________
Layer (type)                 Output Shape              Param #   
=================================================================
masking_6 (Masking)          (None, 334, 10)           0         
_________________________________________________________________
lstm_6 (LSTM)                (None, 334, 96)           41088     
_________________________________________________________________
dropout_16 (Dropout)         (None, 334, 96)           0         
_________________________________________________________________
dense_16 (Dense)             (None, 334, 96)           9312      
_________________________________________________________________
dropout_17 (Dropout)         (None, 334, 96)           0         
_________________________________________________________________
dense_17 (Dense)             (None, 334, 96)           9312      
_________________________________________________________________
dropout_18 (Dropout)         (None, 334, 96)           0         
_________________________________________________________________
time_distributed_6 (TimeDist (None, 334, 2)            194       
=================================================================
Total params: 59,906
Trainable params: 59,906
Non-trainable params: 0
_________________________________________________________________
None


******** Scores for LSTM (Windows:  10, 5, 10) ******** 

	roc_auc: 0.590 (+-0.08), recall: 0.431 (+-0.16), specificity: 0.748, precision: 0.325 (+-0.12) 

	Confusion matrix: 	 [876 305] 
				 [184 128]



DROPOUT=0.2
optimizer:::::: adam lr=0.0003, decay=0.000004, amsgrad=True 
Weighted :::::: 1 to 6 
Compiling lstm network...
_________________________________________________________________
Layer (type)                 Output Shape              Param #   
=================================================================
masking_7 (Masking)          (None, 334, 10)           0         
_________________________________________________________________
lstm_7 (LSTM)                (None, 334, 96)           41088     
_________________________________________________________________
dropout_19 (Dropout)         (None, 334, 96)           0         
_________________________________________________________________
dense_19 (Dense)             (None, 334, 96)           9312      
_________________________________________________________________
dropout_20 (Dropout)         (None, 334, 96)           0         
_________________________________________________________________
dense_20 (Dense)             (None, 334, 96)           9312      
_________________________________________________________________
dropout_21 (Dropout)         (None, 334, 96)           0         
_________________________________________________________________
time_distributed_7 (TimeDist (None, 334, 2)            194       
=================================================================
Total params: 59,906
Trainable params: 59,906
Non-trainable params: 0
_________________________________________________________________
None


******** Scores for LSTM (Windows:  10, 5, 10) ******** 

	roc_auc: 0.623 (+-0.04), recall: 0.479 (+-0.11), specificity: 0.767, precision: 0.289 (+-0.04) 

	Confusion matrix: 	 [1010  298] 
				 [128 128]



DROPOUT=0.2
optimizer:::::: adam lr=0.0003, decay=0.000004, amsgrad=True 
Weighted :::::: 1 to 6 
Compiling lstm network...
_________________________________________________________________
Layer (type)                 Output Shape              Param #   
=================================================================
masking_8 (Masking)          (None, 334, 10)           0         
_________________________________________________________________
lstm_8 (LSTM)                (None, 334, 96)           41088     
_________________________________________________________________
dropout_22 (Dropout)         (None, 334, 96)           0         
_________________________________________________________________
dense_22 (Dense)             (None, 334, 96)           9312      
_________________________________________________________________
dropout_23 (Dropout)         (None, 334, 96)           0         
_________________________________________________________________
dense_23 (Dense)             (None, 334, 96)           9312      
_________________________________________________________________
dropout_24 (Dropout)         (None, 334, 96)           0         
_________________________________________________________________
time_distributed_8 (TimeDist (None, 334, 2)            194       
=================================================================
Total params: 59,906
Trainable params: 59,906
Non-trainable params: 0
_________________________________________________________________
None


******** Scores for LSTM (Windows:  10, 5, 10) ******** 

	roc_auc: 0.556 (+-0.04), recall: 0.314 (+-0.13), specificity: 0.798, precision: 0.291 (+-0.16) 

	Confusion matrix: 	 [894 241] 
				 [201  80]



DROPOUT=0.2
optimizer:::::: adam lr=0.0003, decay=0.000004, amsgrad=True 
Weighted :::::: 1 to 6 
Compiling lstm network...
_________________________________________________________________
Layer (type)                 Output Shape              Param #   
=================================================================
masking_9 (Masking)          (None, 334, 10)           0         
_________________________________________________________________
lstm_9 (LSTM)                (None, 334, 96)           41088     
_________________________________________________________________
dropout_25 (Dropout)         (None, 334, 96)           0         
_________________________________________________________________
dense_25 (Dense)             (None, 334, 96)           9312      
_________________________________________________________________
dropout_26 (Dropout)         (None, 334, 96)           0         
_________________________________________________________________
dense_26 (Dense)             (None, 334, 96)           9312      
_________________________________________________________________
dropout_27 (Dropout)         (None, 334, 96)           0         
_________________________________________________________________
time_distributed_9 (TimeDist (None, 334, 2)            194       
=================================================================
Total params: 59,906
Trainable params: 59,906
Non-trainable params: 0
_________________________________________________________________
None


******** Scores for LSTM (Windows:  10, 5, 10) ******** 

	roc_auc: 0.581 (+-0.04), recall: 0.441 (+-0.11), specificity: 0.720, precision: 0.275 (+-0.06) 

	Confusion matrix: 	 [901 348] 
				 [164 139]



DROPOUT=0.2
optimizer:::::: adam lr=0.0003, decay=0.000004, amsgrad=True 
Weighted :::::: 1 to 6 
Compiling lstm network...
_________________________________________________________________
Layer (type)                 Output Shape              Param #   
=================================================================
masking_10 (Masking)         (None, 334, 10)           0         
_________________________________________________________________
lstm_10 (LSTM)               (None, 334, 96)           41088     
_________________________________________________________________
dropout_28 (Dropout)         (None, 334, 96)           0         
_________________________________________________________________
dense_28 (Dense)             (None, 334, 96)           9312      
_________________________________________________________________
dropout_29 (Dropout)         (None, 334, 96)           0         
_________________________________________________________________
dense_29 (Dense)             (None, 334, 96)           9312      
_________________________________________________________________
dropout_30 (Dropout)         (None, 334, 96)           0         
_________________________________________________________________
time_distributed_10 (TimeDis (None, 334, 2)            194       
=================================================================
Total params: 59,906
Trainable params: 59,906
Non-trainable params: 0
_________________________________________________________________
None


******** Scores for LSTM (Windows:  10, 5, 10) ******** 

	roc_auc: 0.576 (+-0.03), recall: 0.404 (+-0.14), specificity: 0.747, precision: 0.319 (+-0.11) 

	Confusion matrix: 	 [835 294] 
				 [190 130]



DROPOUT=0.2
optimizer:::::: adam lr=0.0003, decay=0.000004, amsgrad=True 
Weighted :::::: 1 to 6 
Compiling lstm network...
_________________________________________________________________
Layer (type)                 Output Shape              Param #   
=================================================================
masking_11 (Masking)         (None, 334, 10)           0         
_________________________________________________________________
lstm_11 (LSTM)               (None, 334, 96)           41088     
_________________________________________________________________
dropout_31 (Dropout)         (None, 334, 96)           0         
_________________________________________________________________
dense_31 (Dense)             (None, 334, 96)           9312      
_________________________________________________________________
dropout_32 (Dropout)         (None, 334, 96)           0         
_________________________________________________________________
dense_32 (Dense)             (None, 334, 96)           9312      
_________________________________________________________________
dropout_33 (Dropout)         (None, 334, 96)           0         
_________________________________________________________________
time_distributed_11 (TimeDis (None, 334, 2)            194       
=================================================================
Total params: 59,906
Trainable params: 59,906
Non-trainable params: 0
_________________________________________________________________
None


******** Scores for LSTM (Windows:  10, 5, 10) ******** 

	roc_auc: 0.619 (+-0.06), recall: 0.516 (+-0.23), specificity: 0.722, precision: 0.301 (+-0.08) 

	Confusion matrix: 	 [933 347] 
				 [116 149]



DROPOUT=0.2
optimizer:::::: adam lr=0.0003, decay=0.000004, amsgrad=True 
Weighted :::::: 1 to 6 
Compiling lstm network...
_________________________________________________________________
Layer (type)                 Output Shape              Param #   
=================================================================
masking_12 (Masking)         (None, 334, 10)           0         
_________________________________________________________________
lstm_12 (LSTM)               (None, 334, 96)           41088     
_________________________________________________________________
dropout_34 (Dropout)         (None, 334, 96)           0         
_________________________________________________________________
dense_34 (Dense)             (None, 334, 96)           9312      
_________________________________________________________________
dropout_35 (Dropout)         (None, 334, 96)           0         
_________________________________________________________________
dense_35 (Dense)             (None, 334, 96)           9312      
_________________________________________________________________
dropout_36 (Dropout)         (None, 334, 96)           0         
_________________________________________________________________
time_distributed_12 (TimeDis (None, 334, 2)            194       
=================================================================
Total params: 59,906
Trainable params: 59,906
Non-trainable params: 0
_________________________________________________________________
None


******** Scores for LSTM (Windows:  10, 5, 10) ******** 

	roc_auc: 0.645 (+-0.06), recall: 0.616 (+-0.15), specificity: 0.674, precision: 0.330 (+-0.06) 

	Confusion matrix: 	 [892 410] 
				 [108 192]



DROPOUT=0.2
optimizer:::::: adam lr=0.0003, decay=0.000004, amsgrad=True 
Weighted :::::: 1 to 6 
Compiling lstm network...
_________________________________________________________________
Layer (type)                 Output Shape              Param #   
=================================================================
masking_13 (Masking)         (None, 334, 10)           0         
_________________________________________________________________
lstm_13 (LSTM)               (None, 334, 96)           41088     
_________________________________________________________________
dropout_37 (Dropout)         (None, 334, 96)           0         
_________________________________________________________________
dense_37 (Dense)             (None, 334, 96)           9312      
_________________________________________________________________
dropout_38 (Dropout)         (None, 334, 96)           0         
_________________________________________________________________
dense_38 (Dense)             (None, 334, 96)           9312      
_________________________________________________________________
dropout_39 (Dropout)         (None, 334, 96)           0         
_________________________________________________________________
time_distributed_13 (TimeDis (None, 334, 2)            194       
=================================================================
Total params: 59,906
Trainable params: 59,906
Non-trainable params: 0
_________________________________________________________________
None


******** Scores for LSTM (Windows:  10, 5, 10) ******** 

	roc_auc: 0.603 (+-0.04), recall: 0.464 (+-0.07), specificity: 0.741, precision: 0.269 (+-0.05) 

	Confusion matrix: 	 [968 332] 
				 [141 128]



DROPOUT=0.2
optimizer:::::: adam lr=0.0003, decay=0.000004, amsgrad=True 
Weighted :::::: 1 to 6 
Compiling lstm network...
_________________________________________________________________
Layer (type)                 Output Shape              Param #   
=================================================================
masking_14 (Masking)         (None, 334, 10)           0         
_________________________________________________________________
lstm_14 (LSTM)               (None, 334, 96)           41088     
_________________________________________________________________
dropout_40 (Dropout)         (None, 334, 96)           0         
_________________________________________________________________
dense_40 (Dense)             (None, 334, 96)           9312      
_________________________________________________________________
dropout_41 (Dropout)         (None, 334, 96)           0         
_________________________________________________________________
dense_41 (Dense)             (None, 334, 96)           9312      
_________________________________________________________________
dropout_42 (Dropout)         (None, 334, 96)           0         
_________________________________________________________________
time_distributed_14 (TimeDis (None, 334, 2)            194       
=================================================================
Total params: 59,906
Trainable params: 59,906
Non-trainable params: 0
_________________________________________________________________
None


******** Scores for LSTM (Windows:  10, 5, 10) ******** 

	roc_auc: 0.619 (+-0.07), recall: 0.510 (+-0.16), specificity: 0.729, precision: 0.306 (+-0.08) 

	Confusion matrix: 	 [941 341] 
				 [140 160]



DROPOUT=0.2
optimizer:::::: adam lr=0.0003, decay=0.000004, amsgrad=True 
Weighted :::::: 1 to 6 
Compiling lstm network...
_________________________________________________________________
Layer (type)                 Output Shape              Param #   
=================================================================
masking_15 (Masking)         (None, 334, 10)           0         
_________________________________________________________________
lstm_15 (LSTM)               (None, 334, 96)           41088     
_________________________________________________________________
dropout_43 (Dropout)         (None, 334, 96)           0         
_________________________________________________________________
dense_43 (Dense)             (None, 334, 96)           9312      
_________________________________________________________________
dropout_44 (Dropout)         (None, 334, 96)           0         
_________________________________________________________________
dense_44 (Dense)             (None, 334, 96)           9312      
_________________________________________________________________
dropout_45 (Dropout)         (None, 334, 96)           0         
_________________________________________________________________
time_distributed_15 (TimeDis (None, 334, 2)            194       
=================================================================
Total params: 59,906
Trainable params: 59,906
Non-trainable params: 0
_________________________________________________________________
None


******** Scores for LSTM (Windows:  10, 5, 10) ******** 

	roc_auc: 0.601 (+-0.04), recall: 0.438 (+-0.10), specificity: 0.763, precision: 0.291 (+-0.05) 

	Confusion matrix: 	 [980 300] 
				 [156 126]



DROPOUT=0.2
optimizer:::::: adam lr=0.0003, decay=0.000004, amsgrad=True 
Weighted :::::: 1 to 6 
Compiling lstm network...
_________________________________________________________________
Layer (type)                 Output Shape              Param #   
=================================================================
masking_16 (Masking)         (None, 334, 10)           0         
_________________________________________________________________
lstm_16 (LSTM)               (None, 334, 96)           41088     
_________________________________________________________________
dropout_46 (Dropout)         (None, 334, 96)           0         
_________________________________________________________________
dense_46 (Dense)             (None, 334, 96)           9312      
_________________________________________________________________
dropout_47 (Dropout)         (None, 334, 96)           0         
_________________________________________________________________
dense_47 (Dense)             (None, 334, 96)           9312      
_________________________________________________________________
dropout_48 (Dropout)         (None, 334, 96)           0         
_________________________________________________________________
time_distributed_16 (TimeDis (None, 334, 2)            194       
=================================================================
Total params: 59,906
Trainable params: 59,906
Non-trainable params: 0
_________________________________________________________________
None


******** Scores for LSTM (Windows:  10, 5, 10) ******** 

	roc_auc: 0.613 (+-0.05), recall: 0.422 (+-0.13), specificity: 0.804, precision: 0.290 (+-0.05) 

	Confusion matrix: 	 [1075  254] 
				 [136 113]



DROPOUT=0.2
optimizer:::::: adam lr=0.0003, decay=0.000004, amsgrad=True 
Weighted :::::: 1 to 6 
Compiling lstm network...
_________________________________________________________________
Layer (type)                 Output Shape              Param #   
=================================================================
masking_17 (Masking)         (None, 334, 10)           0         
_________________________________________________________________
lstm_17 (LSTM)               (None, 334, 96)           41088     
_________________________________________________________________
dropout_49 (Dropout)         (None, 334, 96)           0         
_________________________________________________________________
dense_49 (Dense)             (None, 334, 96)           9312      
_________________________________________________________________
dropout_50 (Dropout)         (None, 334, 96)           0         
_________________________________________________________________
dense_50 (Dense)             (None, 334, 96)           9312      
_________________________________________________________________
dropout_51 (Dropout)         (None, 334, 96)           0         
_________________________________________________________________
time_distributed_17 (TimeDis (None, 334, 2)            194       
=================================================================
Total params: 59,906
Trainable params: 59,906
Non-trainable params: 0
_________________________________________________________________
None


******** Scores for LSTM (Windows:  10, 5, 10) ******** 

	roc_auc: 0.607 (+-0.04), recall: 0.500 (+-0.10), specificity: 0.715, precision: 0.299 (+-0.06) 

	Confusion matrix: 	 [918 365] 
				 [148 156]



DROPOUT=0.2
optimizer:::::: adam lr=0.0003, decay=0.000004, amsgrad=True 
Weighted :::::: 1 to 6 
Compiling lstm network...
_________________________________________________________________
Layer (type)                 Output Shape              Param #   
=================================================================
masking_18 (Masking)         (None, 334, 10)           0         
_________________________________________________________________
lstm_18 (LSTM)               (None, 334, 96)           41088     
_________________________________________________________________
dropout_52 (Dropout)         (None, 334, 96)           0         
_________________________________________________________________
dense_52 (Dense)             (None, 334, 96)           9312      
_________________________________________________________________
dropout_53 (Dropout)         (None, 334, 96)           0         
_________________________________________________________________
dense_53 (Dense)             (None, 334, 96)           9312      
_________________________________________________________________
dropout_54 (Dropout)         (None, 334, 96)           0         
_________________________________________________________________
time_distributed_18 (TimeDis (None, 334, 2)            194       
=================================================================
Total params: 59,906
Trainable params: 59,906
Non-trainable params: 0
_________________________________________________________________
None


******** Scores for LSTM (Windows:  10, 5, 10) ******** 

	roc_auc: 0.608 (+-0.07), recall: 0.486 (+-0.13), specificity: 0.731, precision: 0.293 (+-0.07) 

	Confusion matrix: 	 [941 338] 
				 [143 141]



DROPOUT=0.2
optimizer:::::: adam lr=0.0003, decay=0.000004, amsgrad=True 
Weighted :::::: 1 to 6 
Compiling lstm network...
_________________________________________________________________
Layer (type)                 Output Shape              Param #   
=================================================================
masking_19 (Masking)         (None, 334, 10)           0         
_________________________________________________________________
lstm_19 (LSTM)               (None, 334, 96)           41088     
_________________________________________________________________
dropout_55 (Dropout)         (None, 334, 96)           0         
_________________________________________________________________
dense_55 (Dense)             (None, 334, 96)           9312      
_________________________________________________________________
dropout_56 (Dropout)         (None, 334, 96)           0         
_________________________________________________________________
dense_56 (Dense)             (None, 334, 96)           9312      
_________________________________________________________________
dropout_57 (Dropout)         (None, 334, 96)           0         
_________________________________________________________________
time_distributed_19 (TimeDis (None, 334, 2)            194       
=================================================================
Total params: 59,906
Trainable params: 59,906
Non-trainable params: 0
_________________________________________________________________
None


******** Scores for LSTM (Windows:  10, 5, 10) ******** 

	roc_auc: 0.577 (+-0.03), recall: 0.619 (+-0.21), specificity: 0.536, precision: 0.231 (+-0.06) 

	Confusion matrix: 	 [701 610] 
				 [ 90 178]



DROPOUT=0.2
optimizer:::::: adam lr=0.0003, decay=0.000004, amsgrad=True 
Weighted :::::: 1 to 6 
Compiling lstm network...
_________________________________________________________________
Layer (type)                 Output Shape              Param #   
=================================================================
masking_20 (Masking)         (None, 334, 10)           0         
_________________________________________________________________
lstm_20 (LSTM)               (None, 334, 96)           41088     
_________________________________________________________________
dropout_58 (Dropout)         (None, 334, 96)           0         
_________________________________________________________________
dense_58 (Dense)             (None, 334, 96)           9312      
_________________________________________________________________
dropout_59 (Dropout)         (None, 334, 96)           0         
_________________________________________________________________
dense_59 (Dense)             (None, 334, 96)           9312      
_________________________________________________________________
dropout_60 (Dropout)         (None, 334, 96)           0         
_________________________________________________________________
time_distributed_20 (TimeDis (None, 334, 2)            194       
=================================================================
Total params: 59,906
Trainable params: 59,906
Non-trainable params: 0
_________________________________________________________________
None


******** Scores for LSTM (Windows:  10, 5, 10) ******** 

	roc_auc: 0.611 (+-0.03), recall: 0.564 (+-0.16), specificity: 0.657, precision: 0.295 (+-0.03) 

	Confusion matrix: 	 [856 436] 
				 [128 181]



DROPOUT=0.2
optimizer:::::: adam lr=0.0003, decay=0.000004, amsgrad=True 
Weighted :::::: 1 to 6 
Compiling lstm network...
_________________________________________________________________
Layer (type)                 Output Shape              Param #   
=================================================================
masking_21 (Masking)         (None, 334, 10)           0         
_________________________________________________________________
lstm_21 (LSTM)               (None, 334, 96)           41088     
_________________________________________________________________
dropout_61 (Dropout)         (None, 334, 96)           0         
_________________________________________________________________
dense_61 (Dense)             (None, 334, 96)           9312      
_________________________________________________________________
dropout_62 (Dropout)         (None, 334, 96)           0         
_________________________________________________________________
dense_62 (Dense)             (None, 334, 96)           9312      
_________________________________________________________________
dropout_63 (Dropout)         (None, 334, 96)           0         
_________________________________________________________________
time_distributed_21 (TimeDis (None, 334, 2)            194       
=================================================================
Total params: 59,906
Trainable params: 59,906
Non-trainable params: 0
_________________________________________________________________
None


******** Scores for LSTM (Windows:  10, 5, 10) ******** 

	roc_auc: 0.631 (+-0.07), recall: 0.509 (+-0.07), specificity: 0.753, precision: 0.310 (+-0.06) 

	Confusion matrix: 	 [982 317] 
				 [133 134]



DROPOUT=0.2
optimizer:::::: adam lr=0.0003, decay=0.000004, amsgrad=True 
Weighted :::::: 1 to 6 
Compiling lstm network...
_________________________________________________________________
Layer (type)                 Output Shape              Param #   
=================================================================
masking_22 (Masking)         (None, 334, 10)           0         
_________________________________________________________________
lstm_22 (LSTM)               (None, 334, 96)           41088     
_________________________________________________________________
dropout_64 (Dropout)         (None, 334, 96)           0         
_________________________________________________________________
dense_64 (Dense)             (None, 334, 96)           9312      
_________________________________________________________________
dropout_65 (Dropout)         (None, 334, 96)           0         
_________________________________________________________________
dense_65 (Dense)             (None, 334, 96)           9312      
_________________________________________________________________
dropout_66 (Dropout)         (None, 334, 96)           0         
_________________________________________________________________
time_distributed_22 (TimeDis (None, 334, 2)            194       
=================================================================
Total params: 59,906
Trainable params: 59,906
Non-trainable params: 0
_________________________________________________________________
None


******** Scores for LSTM (Windows:  10, 5, 10) ******** 

	roc_auc: 0.611 (+-0.05), recall: 0.449 (+-0.14), specificity: 0.773, precision: 0.273 (+-0.06) 

	Confusion matrix: 	 [1025  294] 
				 [133 120]



DROPOUT=0.2
optimizer:::::: adam lr=0.0003, decay=0.000004, amsgrad=True 
Weighted :::::: 1 to 6 
Compiling lstm network...
_________________________________________________________________
Layer (type)                 Output Shape              Param #   
=================================================================
masking_23 (Masking)         (None, 334, 10)           0         
_________________________________________________________________
lstm_23 (LSTM)               (None, 334, 96)           41088     
_________________________________________________________________
dropout_67 (Dropout)         (None, 334, 96)           0         
_________________________________________________________________
dense_67 (Dense)             (None, 334, 96)           9312      
_________________________________________________________________
dropout_68 (Dropout)         (None, 334, 96)           0         
_________________________________________________________________
dense_68 (Dense)             (None, 334, 96)           9312      
_________________________________________________________________
dropout_69 (Dropout)         (None, 334, 96)           0         
_________________________________________________________________
time_distributed_23 (TimeDis (None, 334, 2)            194       
=================================================================
Total params: 59,906
Trainable params: 59,906
Non-trainable params: 0
_________________________________________________________________
None


******** Scores for LSTM (Windows:  10, 5, 10) ******** 

	roc_auc: 0.593 (+-0.07), recall: 0.377 (+-0.14), specificity: 0.808, precision: 0.258 (+-0.09) 

	Confusion matrix: 	 [1052  246] 
				 [139  88]



DROPOUT=0.2
optimizer:::::: adam lr=0.0003, decay=0.000004, amsgrad=True 
Weighted :::::: 1 to 6 
Compiling lstm network...
_________________________________________________________________
Layer (type)                 Output Shape              Param #   
=================================================================
masking_24 (Masking)         (None, 334, 10)           0         
_________________________________________________________________
lstm_24 (LSTM)               (None, 334, 96)           41088     
_________________________________________________________________
dropout_70 (Dropout)         (None, 334, 96)           0         
_________________________________________________________________
dense_70 (Dense)             (None, 334, 96)           9312      
_________________________________________________________________
dropout_71 (Dropout)         (None, 334, 96)           0         
_________________________________________________________________
dense_71 (Dense)             (None, 334, 96)           9312      
_________________________________________________________________
dropout_72 (Dropout)         (None, 334, 96)           0         
_________________________________________________________________
time_distributed_24 (TimeDis (None, 334, 2)            194       
=================================================================
Total params: 59,906
Trainable params: 59,906
Non-trainable params: 0
_________________________________________________________________
None


******** Scores for LSTM (Windows:  10, 5, 10) ******** 

	roc_auc: 0.593 (+-0.05), recall: 0.474 (+-0.21), specificity: 0.713, precision: 0.242 (+-0.06) 

	Confusion matrix: 	 [948 373] 
				 [119 132]



DROPOUT=0.2
optimizer:::::: adam lr=0.0003, decay=0.000004, amsgrad=True 
Weighted :::::: 1 to 6 
Compiling lstm network...
_________________________________________________________________
Layer (type)                 Output Shape              Param #   
=================================================================
masking_25 (Masking)         (None, 334, 10)           0         
_________________________________________________________________
lstm_25 (LSTM)               (None, 334, 96)           41088     
_________________________________________________________________
dropout_73 (Dropout)         (None, 334, 96)           0         
_________________________________________________________________
dense_73 (Dense)             (None, 334, 96)           9312      
_________________________________________________________________
dropout_74 (Dropout)         (None, 334, 96)           0         
_________________________________________________________________
dense_74 (Dense)             (None, 334, 96)           9312      
_________________________________________________________________
dropout_75 (Dropout)         (None, 334, 96)           0         
_________________________________________________________________
time_distributed_25 (TimeDis (None, 334, 2)            194       
=================================================================
Total params: 59,906
Trainable params: 59,906
Non-trainable params: 0
_________________________________________________________________
None


******** Scores for LSTM (Windows:  10, 5, 10) ******** 

	roc_auc: 0.618 (+-0.06), recall: 0.422 (+-0.15), specificity: 0.814, precision: 0.281 (+-0.07) 

	Confusion matrix: 	 [1094  242] 
…
