…
2018-07-20 21:11:19.945194: I tensorflow/core/platform/cpu_feature_guard.cc:140] Your CPU supports instructions that this TensorFlow binary was not compiled to use: AVX2 FMA
Loading dataframes...
Feature matrix already cached!
Feature matrix and labels created!

################# Get trained LSTM #################

DROPOUT=0.2
optimizer:::::: adam lr=0.0003, decay=0.000004, amsgrad=True 
Weighted :::::: 1 to 6 
Compiling lstm network...
_________________________________________________________________
Layer (type)                 Output Shape              Param #   
=================================================================
masking_1 (Masking)          (None, 334, 10)           0         
_________________________________________________________________
lstm_1 (LSTM)                (None, 334, 96)           41088     
_________________________________________________________________
dropout_1 (Dropout)          (None, 334, 96)           0         
_________________________________________________________________
dense_1 (Dense)              (None, 334, 96)           9312      
_________________________________________________________________
dropout_2 (Dropout)          (None, 334, 96)           0         
_________________________________________________________________
dense_2 (Dense)              (None, 334, 96)           9312      
_________________________________________________________________
dropout_3 (Dropout)          (None, 334, 96)           0         
_________________________________________________________________
time_distributed_1 (TimeDist (None, 334, 2)            194       
=================================================================
Total params: 59,906
Trainable params: 59,906
Non-trainable params: 0
_________________________________________________________________
None


******** Scores for LSTM (Windows:  10, 5, 10) ******** 

	roc_auc: 0.634 (+-0.06), recall: 0.481 (+-0.10), specificity: 0.788, precision: 0.377 (+-0.06) 

	Confusion matrix: 	 [995 262] 
				 [168 157]



DROPOUT=0.2
optimizer:::::: adam lr=0.0003, decay=0.000004, amsgrad=True 
Weighted :::::: 1 to 6 
Compiling lstm network...
_________________________________________________________________
Layer (type)                 Output Shape              Param #   
=================================================================
masking_2 (Masking)          (None, 334, 10)           0         
_________________________________________________________________
lstm_2 (LSTM)                (None, 334, 96)           41088     
_________________________________________________________________
dropout_4 (Dropout)          (None, 334, 96)           0         
_________________________________________________________________
dense_4 (Dense)              (None, 334, 96)           9312      
_________________________________________________________________
dropout_5 (Dropout)          (None, 334, 96)           0         
_________________________________________________________________
dense_5 (Dense)              (None, 334, 96)           9312      
_________________________________________________________________
dropout_6 (Dropout)          (None, 334, 96)           0         
_________________________________________________________________
time_distributed_2 (TimeDist (None, 334, 2)            194       
=================================================================
Total params: 59,906
Trainable params: 59,906
Non-trainable params: 0
_________________________________________________________________
None


******** Scores for LSTM (Windows:  10, 5, 10) ******** 

	roc_auc: 0.592 (+-0.08), recall: 0.360 (+-0.19), specificity: 0.824, precision: 0.318 (+-0.12) 

	Confusion matrix: 	 [954 217] 
				 [194  81]



DROPOUT=0.2
optimizer:::::: adam lr=0.0003, decay=0.000004, amsgrad=True 
Weighted :::::: 1 to 6 
Compiling lstm network...
_________________________________________________________________
Layer (type)                 Output Shape              Param #   
=================================================================
masking_3 (Masking)          (None, 334, 10)           0         
_________________________________________________________________
lstm_3 (LSTM)                (None, 334, 96)           41088     
_________________________________________________________________
dropout_7 (Dropout)          (None, 334, 96)           0         
_________________________________________________________________
dense_7 (Dense)              (None, 334, 96)           9312      
_________________________________________________________________
dropout_8 (Dropout)          (None, 334, 96)           0         
_________________________________________________________________
dense_8 (Dense)              (None, 334, 96)           9312      
_________________________________________________________________
dropout_9 (Dropout)          (None, 334, 96)           0         
_________________________________________________________________
time_distributed_3 (TimeDist (None, 334, 2)            194       
=================================================================
Total params: 59,906
Trainable params: 59,906
Non-trainable params: 0
_________________________________________________________________
None


******** Scores for LSTM (Windows:  10, 5, 10) ******** 

	roc_auc: 0.572 (+-0.04), recall: 0.440 (+-0.23), specificity: 0.704, precision: 0.275 (+-0.06) 

	Confusion matrix: 	 [890 349] 
				 [135 116]



DROPOUT=0.2
optimizer:::::: adam lr=0.0003, decay=0.000004, amsgrad=True 
Weighted :::::: 1 to 6 
Compiling lstm network...
_________________________________________________________________
Layer (type)                 Output Shape              Param #   
=================================================================
masking_4 (Masking)          (None, 334, 10)           0         
_________________________________________________________________
lstm_4 (LSTM)                (None, 334, 96)           41088     
_________________________________________________________________
dropout_10 (Dropout)         (None, 334, 96)           0         
_________________________________________________________________
dense_10 (Dense)             (None, 334, 96)           9312      
_________________________________________________________________
dropout_11 (Dropout)         (None, 334, 96)           0         
_________________________________________________________________
dense_11 (Dense)             (None, 334, 96)           9312      
_________________________________________________________________
dropout_12 (Dropout)         (None, 334, 96)           0         
_________________________________________________________________
time_distributed_4 (TimeDist (None, 334, 2)            194       
=================================================================
Total params: 59,906
Trainable params: 59,906
Non-trainable params: 0
_________________________________________________________________
None


******** Scores for LSTM (Windows:  10, 5, 10) ******** 

	roc_auc: 0.556 (+-0.03), recall: 0.325 (+-0.08), specificity: 0.787, precision: 0.231 (+-0.06) 

	Confusion matrix: 	 [1012  270] 
				 [167  88]



DROPOUT=0.2
optimizer:::::: adam lr=0.0003, decay=0.000004, amsgrad=True 
Weighted :::::: 1 to 6 
Compiling lstm network...
_________________________________________________________________
Layer (type)                 Output Shape              Param #   
=================================================================
masking_5 (Masking)          (None, 334, 10)           0         
_________________________________________________________________
lstm_5 (LSTM)                (None, 334, 96)           41088     
_________________________________________________________________
dropout_13 (Dropout)         (None, 334, 96)           0         
_________________________________________________________________
dense_13 (Dense)             (None, 334, 96)           9312      
_________________________________________________________________
dropout_14 (Dropout)         (None, 334, 96)           0         
_________________________________________________________________
dense_14 (Dense)             (None, 334, 96)           9312      
_________________________________________________________________
dropout_15 (Dropout)         (None, 334, 96)           0         
_________________________________________________________________
time_distributed_5 (TimeDist (None, 334, 2)            194       
=================================================================
Total params: 59,906
Trainable params: 59,906
Non-trainable params: 0
_________________________________________________________________
None


******** Scores for LSTM (Windows:  10, 5, 10) ******** 

	roc_auc: 0.609 (+-0.07), recall: 0.431 (+-0.18), specificity: 0.788, precision: 0.360 (+-0.12) 

	Confusion matrix: 	 [921 247] 
				 [182 147]



DROPOUT=0.2
optimizer:::::: adam lr=0.0003, decay=0.000004, amsgrad=True 
Weighted :::::: 1 to 6 
Compiling lstm network...
_________________________________________________________________
Layer (type)                 Output Shape              Param #   
=================================================================
masking_6 (Masking)          (None, 334, 10)           0         
_________________________________________________________________
lstm_6 (LSTM)                (None, 334, 96)           41088     
_________________________________________________________________
dropout_16 (Dropout)         (None, 334, 96)           0         
_________________________________________________________________
dense_16 (Dense)             (None, 334, 96)           9312      
_________________________________________________________________
dropout_17 (Dropout)         (None, 334, 96)           0         
_________________________________________________________________
dense_17 (Dense)             (None, 334, 96)           9312      
_________________________________________________________________
dropout_18 (Dropout)         (None, 334, 96)           0         
_________________________________________________________________
time_distributed_6 (TimeDist (None, 334, 2)            194       
=================================================================
Total params: 59,906
Trainable params: 59,906
Non-trainable params: 0
_________________________________________________________________
None


******** Scores for LSTM (Windows:  10, 5, 10) ******** 

	roc_auc: 0.585 (+-0.03), recall: 0.570 (+-0.14), specificity: 0.600, precision: 0.228 (+-0.05) 

	Confusion matrix: 	 [768 492] 
				 [104 143]



DROPOUT=0.2
optimizer:::::: adam lr=0.0003, decay=0.000004, amsgrad=True 
Weighted :::::: 1 to 6 
Compiling lstm network...
_________________________________________________________________
Layer (type)                 Output Shape              Param #   
=================================================================
masking_7 (Masking)          (None, 334, 10)           0         
_________________________________________________________________
lstm_7 (LSTM)                (None, 334, 96)           41088     
_________________________________________________________________
dropout_19 (Dropout)         (None, 334, 96)           0         
_________________________________________________________________
dense_19 (Dense)             (None, 334, 96)           9312      
_________________________________________________________________
dropout_20 (Dropout)         (None, 334, 96)           0         
_________________________________________________________________
dense_20 (Dense)             (None, 334, 96)           9312      
_________________________________________________________________
dropout_21 (Dropout)         (None, 334, 96)           0         
_________________________________________________________________
time_distributed_7 (TimeDist (None, 334, 2)            194       
=================================================================
Total params: 59,906
Trainable params: 59,906
Non-trainable params: 0
_________________________________________________________________
None


******** Scores for LSTM (Windows:  10, 5, 10) ******** 

	roc_auc: 0.595 (+-0.02), recall: 0.548 (+-0.23), specificity: 0.642, precision: 0.249 (+-0.04) 

	Confusion matrix: 	 [857 464] 
				 [106 164]



DROPOUT=0.2
optimizer:::::: adam lr=0.0003, decay=0.000004, amsgrad=True 
Weighted :::::: 1 to 6 
Compiling lstm network...
_________________________________________________________________
Layer (type)                 Output Shape              Param #   
=================================================================
masking_8 (Masking)          (None, 334, 10)           0         
_________________________________________________________________
lstm_8 (LSTM)                (None, 334, 96)           41088     
_________________________________________________________________
dropout_22 (Dropout)         (None, 334, 96)           0         
_________________________________________________________________
dense_22 (Dense)             (None, 334, 96)           9312      
_________________________________________________________________
dropout_23 (Dropout)         (None, 334, 96)           0         
_________________________________________________________________
dense_23 (Dense)             (None, 334, 96)           9312      
_________________________________________________________________
dropout_24 (Dropout)         (None, 334, 96)           0         
_________________________________________________________________
time_distributed_8 (TimeDist (None, 334, 2)            194       
=================================================================
Total params: 59,906
Trainable params: 59,906
Non-trainable params: 0
_________________________________________________________________
None


******** Scores for LSTM (Windows:  10, 5, 10) ******** 

	roc_auc: 0.553 (+-0.03), recall: 0.291 (+-0.11), specificity: 0.815, precision: 0.295 (+-0.12) 

	Confusion matrix: 	 [921 218] 
				 [213  86]



DROPOUT=0.2
optimizer:::::: adam lr=0.0003, decay=0.000004, amsgrad=True 
Weighted :::::: 1 to 6 
Compiling lstm network...
_________________________________________________________________
Layer (type)                 Output Shape              Param #   
=================================================================
masking_9 (Masking)          (None, 334, 10)           0         
_________________________________________________________________
lstm_9 (LSTM)                (None, 334, 96)           41088     
_________________________________________________________________
dropout_25 (Dropout)         (None, 334, 96)           0         
_________________________________________________________________
dense_25 (Dense)             (None, 334, 96)           9312      
_________________________________________________________________
dropout_26 (Dropout)         (None, 334, 96)           0         
_________________________________________________________________
dense_26 (Dense)             (None, 334, 96)           9312      
_________________________________________________________________
dropout_27 (Dropout)         (None, 334, 96)           0         
_________________________________________________________________
time_distributed_9 (TimeDist (None, 334, 2)            194       
=================================================================
Total params: 59,906
Trainable params: 59,906
Non-trainable params: 0
_________________________________________________________________
None


******** Scores for LSTM (Windows:  10, 5, 10) ******** 

	roc_auc: 0.585 (+-0.06), recall: 0.367 (+-0.14), specificity: 0.803, precision: 0.293 (+-0.08) 

	Confusion matrix: 	 [1012  247] 
				 [180 113]



DROPOUT=0.2
optimizer:::::: adam lr=0.0003, decay=0.000004, amsgrad=True 
Weighted :::::: 1 to 6 
Compiling lstm network...
_________________________________________________________________
Layer (type)                 Output Shape              Param #   
=================================================================
masking_10 (Masking)         (None, 334, 10)           0         
_________________________________________________________________
lstm_10 (LSTM)               (None, 334, 96)           41088     
_________________________________________________________________
dropout_28 (Dropout)         (None, 334, 96)           0         
_________________________________________________________________
dense_28 (Dense)             (None, 334, 96)           9312      
_________________________________________________________________
dropout_29 (Dropout)         (None, 334, 96)           0         
_________________________________________________________________
dense_29 (Dense)             (None, 334, 96)           9312      
_________________________________________________________________
dropout_30 (Dropout)         (None, 334, 96)           0         
_________________________________________________________________
time_distributed_10 (TimeDis (None, 334, 2)            194       
=================================================================
Total params: 59,906
Trainable params: 59,906
Non-trainable params: 0
_________________________________________________________________
None


******** Scores for LSTM (Windows:  10, 5, 10) ******** 

	roc_auc: 0.576 (+-0.03), recall: 0.415 (+-0.12), specificity: 0.737, precision: 0.284 (+-0.07) 

	Confusion matrix: 	 [924 313] 
				 [161 129]



DROPOUT=0.2
optimizer:::::: adam lr=0.0003, decay=0.000004, amsgrad=True 
Weighted :::::: 1 to 6 
Compiling lstm network...
_________________________________________________________________
Layer (type)                 Output Shape              Param #   
=================================================================
masking_11 (Masking)         (None, 334, 10)           0         
_________________________________________________________________
lstm_11 (LSTM)               (None, 334, 96)           41088     
_________________________________________________________________
dropout_31 (Dropout)         (None, 334, 96)           0         
_________________________________________________________________
dense_31 (Dense)             (None, 334, 96)           9312      
_________________________________________________________________
dropout_32 (Dropout)         (None, 334, 96)           0         
_________________________________________________________________
dense_32 (Dense)             (None, 334, 96)           9312      
_________________________________________________________________
dropout_33 (Dropout)         (None, 334, 96)           0         
_________________________________________________________________
time_distributed_11 (TimeDis (None, 334, 2)            194       
=================================================================
Total params: 59,906
Trainable params: 59,906
Non-trainable params: 0
_________________________________________________________________
None


******** Scores for LSTM (Windows:  10, 5, 10) ******** 

	roc_auc: 0.598 (+-0.06), recall: 0.403 (+-0.15), specificity: 0.793, precision: 0.249 (+-0.06) 

	Confusion matrix: 	 [1063  277] 
				 [136  98]



DROPOUT=0.2
optimizer:::::: adam lr=0.0003, decay=0.000004, amsgrad=True 
Weighted :::::: 1 to 6 
Compiling lstm network...
_________________________________________________________________
Layer (type)                 Output Shape              Param #   
=================================================================
masking_12 (Masking)         (None, 334, 10)           0         
_________________________________________________________________
lstm_12 (LSTM)               (None, 334, 96)           41088     
_________________________________________________________________
dropout_34 (Dropout)         (None, 334, 96)           0         
_________________________________________________________________
dense_34 (Dense)             (None, 334, 96)           9312      
_________________________________________________________________
dropout_35 (Dropout)         (None, 334, 96)           0         
_________________________________________________________________
dense_35 (Dense)             (None, 334, 96)           9312      
_________________________________________________________________
dropout_36 (Dropout)         (None, 334, 96)           0         
_________________________________________________________________
time_distributed_12 (TimeDis (None, 334, 2)            194       
=================================================================
Total params: 59,906
Trainable params: 59,906
Non-trainable params: 0
_________________________________________________________________
None


******** Scores for LSTM (Windows:  10, 5, 10) ******** 

	roc_auc: 0.576 (+-0.05), recall: 0.344 (+-0.11), specificity: 0.807, precision: 0.216 (+-0.05) 

	Confusion matrix: 	 [1082  257] 
				 [134  74]



DROPOUT=0.2
optimizer:::::: adam lr=0.0003, decay=0.000004, amsgrad=True 
Weighted :::::: 1 to 6 
Compiling lstm network...
_________________________________________________________________
Layer (type)                 Output Shape              Param #   
=================================================================
masking_13 (Masking)         (None, 334, 10)           0         
_________________________________________________________________
lstm_13 (LSTM)               (None, 334, 96)           41088     
_________________________________________________________________
dropout_37 (Dropout)         (None, 334, 96)           0         
_________________________________________________________________
dense_37 (Dense)             (None, 334, 96)           9312      
_________________________________________________________________
dropout_38 (Dropout)         (None, 334, 96)           0         
_________________________________________________________________
dense_38 (Dense)             (None, 334, 96)           9312      
_________________________________________________________________
dropout_39 (Dropout)         (None, 334, 96)           0         
_________________________________________________________________
time_distributed_13 (TimeDis (None, 334, 2)            194       
=================================================================
Total params: 59,906
Trainable params: 59,906
Non-trainable params: 0
_________________________________________________________________
None


******** Scores for LSTM (Windows:  10, 5, 10) ******** 

	roc_auc: 0.588 (+-0.05), recall: 0.388 (+-0.11), specificity: 0.787, precision: 0.247 (+-0.06) 

	Confusion matrix: 	 [1033  276] 
				 [141  95]



DROPOUT=0.2
optimizer:::::: adam lr=0.0003, decay=0.000004, amsgrad=True 
Weighted :::::: 1 to 6 
Compiling lstm network...
_________________________________________________________________
Layer (type)                 Output Shape              Param #   
=================================================================
masking_14 (Masking)         (None, 334, 10)           0         
_________________________________________________________________
lstm_14 (LSTM)               (None, 334, 96)           41088     
_________________________________________________________________
dropout_40 (Dropout)         (None, 334, 96)           0         
_________________________________________________________________
dense_40 (Dense)             (None, 334, 96)           9312      
_________________________________________________________________
dropout_41 (Dropout)         (None, 334, 96)           0         
_________________________________________________________________
dense_41 (Dense)             (None, 334, 96)           9312      
_________________________________________________________________
dropout_42 (Dropout)         (None, 334, 96)           0         
_________________________________________________________________
time_distributed_14 (TimeDis (None, 334, 2)            194       
=================================================================
Total params: 59,906
Trainable params: 59,906
Non-trainable params: 0
_________________________________________________________________
None


******** Scores for LSTM (Windows:  10, 5, 10) ******** 

	roc_auc: 0.589 (+-0.06), recall: 0.396 (+-0.13), specificity: 0.783, precision: 0.260 (+-0.07) 

	Confusion matrix: 	 [1011  278] 
				 [147 105]



DROPOUT=0.2
optimizer:::::: adam lr=0.0003, decay=0.000004, amsgrad=True 
Weighted :::::: 1 to 6 
Compiling lstm network...
_________________________________________________________________
Layer (type)                 Output Shape              Param #   
=================================================================
masking_15 (Masking)         (None, 334, 10)           0         
_________________________________________________________________
lstm_15 (LSTM)               (None, 334, 96)           41088     
_________________________________________________________________
dropout_43 (Dropout)         (None, 334, 96)           0         
_________________________________________________________________
dense_43 (Dense)             (None, 334, 96)           9312      
_________________________________________________________________
dropout_44 (Dropout)         (None, 334, 96)           0         
_________________________________________________________________
dense_44 (Dense)             (None, 334, 96)           9312      
_________________________________________________________________
dropout_45 (Dropout)         (None, 334, 96)           0         
_________________________________________________________________
time_distributed_15 (TimeDis (None, 334, 2)            194       
=================================================================
Total params: 59,906
Trainable params: 59,906
Non-trainable params: 0
_________________________________________________________________
None


******** Scores for LSTM (Windows:  10, 5, 10) ******** 

	roc_auc: 0.602 (+-0.05), recall: 0.527 (+-0.19), specificity: 0.677, precision: 0.279 (+-0.09) 

	Confusion matrix: 	 [895 399] 
				 [111 145]



DROPOUT=0.2
optimizer:::::: adam lr=0.0003, decay=0.000004, amsgrad=True 
Weighted :::::: 1 to 6 
Compiling lstm network...
_________________________________________________________________
Layer (type)                 Output Shape              Param #   
=================================================================
masking_16 (Masking)         (None, 334, 10)           0         
_________________________________________________________________
lstm_16 (LSTM)               (None, 334, 96)           41088     
_________________________________________________________________
dropout_46 (Dropout)         (None, 334, 96)           0         
_________________________________________________________________
dense_46 (Dense)             (None, 334, 96)           9312      
_________________________________________________________________
dropout_47 (Dropout)         (None, 334, 96)           0         
_________________________________________________________________
dense_47 (Dense)             (None, 334, 96)           9312      
_________________________________________________________________
dropout_48 (Dropout)         (None, 334, 96)           0         
_________________________________________________________________
time_distributed_16 (TimeDis (None, 334, 2)            194       
=================================================================
Total params: 59,906
Trainable params: 59,906
Non-trainable params: 0
_________________________________________________________________
None


******** Scores for LSTM (Windows:  10, 5, 10) ******** 

	roc_auc: 0.591 (+-0.05), recall: 0.593 (+-0.19), specificity: 0.588, precision: 0.244 (+-0.05) 

	Confusion matrix: 	 [764 509] 
				 [ 99 169]



DROPOUT=0.2
optimizer:::::: adam lr=0.0003, decay=0.000004, amsgrad=True 
Weighted :::::: 1 to 6 
Compiling lstm network...
_________________________________________________________________
Layer (type)                 Output Shape              Param #   
=================================================================
masking_17 (Masking)         (None, 334, 10)           0         
_________________________________________________________________
lstm_17 (LSTM)               (None, 334, 96)           41088     
_________________________________________________________________
dropout_49 (Dropout)         (None, 334, 96)           0         
_________________________________________________________________
dense_49 (Dense)             (None, 334, 96)           9312      
_________________________________________________________________
dropout_50 (Dropout)         (None, 334, 96)           0         
_________________________________________________________________
dense_50 (Dense)             (None, 334, 96)           9312      
_________________________________________________________________
dropout_51 (Dropout)         (None, 334, 96)           0         
_________________________________________________________________
time_distributed_17 (TimeDis (None, 334, 2)            194       
=================================================================
Total params: 59,906
Trainable params: 59,906
Non-trainable params: 0
_________________________________________________________________
None


******** Scores for LSTM (Windows:  10, 5, 10) ******** 

	roc_auc: 0.583 (+-0.05), recall: 0.647 (+-0.22), specificity: 0.520, precision: 0.264 (+-0.05) 

	Confusion matrix: 	 [636 573] 
				 [103 205]



DROPOUT=0.2
optimizer:::::: adam lr=0.0003, decay=0.000004, amsgrad=True 
Weighted :::::: 1 to 6 
Compiling lstm network...
_________________________________________________________________
Layer (type)                 Output Shape              Param #   
=================================================================
masking_18 (Masking)         (None, 334, 10)           0         
_________________________________________________________________
lstm_18 (LSTM)               (None, 334, 96)           41088     
_________________________________________________________________
dropout_52 (Dropout)         (None, 334, 96)           0         
_________________________________________________________________
dense_52 (Dense)             (None, 334, 96)           9312      
_________________________________________________________________
dropout_53 (Dropout)         (None, 334, 96)           0         
_________________________________________________________________
dense_53 (Dense)             (None, 334, 96)           9312      
_________________________________________________________________
dropout_54 (Dropout)         (None, 334, 96)           0         
_________________________________________________________________
time_distributed_18 (TimeDis (None, 334, 2)            194       
=================================================================
Total params: 59,906
Trainable params: 59,906
Non-trainable params: 0
_________________________________________________________________
None


******** Scores for LSTM (Windows:  10, 5, 10) ******** 

	roc_auc: 0.576 (+-0.04), recall: 0.346 (+-0.19), specificity: 0.806, precision: 0.331 (+-0.10) 

	Confusion matrix: 	 [897 233] 
				 [213 103]



DROPOUT=0.2
optimizer:::::: adam lr=0.0003, decay=0.000004, amsgrad=True 
Weighted :::::: 1 to 6 
Compiling lstm network...
_________________________________________________________________
Layer (type)                 Output Shape              Param #   
=================================================================
masking_19 (Masking)         (None, 334, 10)           0         
_________________________________________________________________
lstm_19 (LSTM)               (None, 334, 96)           41088     
_________________________________________________________________
dropout_55 (Dropout)         (None, 334, 96)           0         
_________________________________________________________________
dense_55 (Dense)             (None, 334, 96)           9312      
_________________________________________________________________
dropout_56 (Dropout)         (None, 334, 96)           0         
_________________________________________________________________
dense_56 (Dense)             (None, 334, 96)           9312      
_________________________________________________________________
dropout_57 (Dropout)         (None, 334, 96)           0         
_________________________________________________________________
time_distributed_19 (TimeDis (None, 334, 2)            194       
=================================================================
Total params: 59,906
Trainable params: 59,906
Non-trainable params: 0
_________________________________________________________________
None


******** Scores for LSTM (Windows:  10, 5, 10) ******** 

	roc_auc: 0.616 (+-0.05), recall: 0.558 (+-0.22), specificity: 0.674, precision: 0.297 (+-0.07) 

	Confusion matrix: 	 [857 404] 
				 [118 179]



DROPOUT=0.2
optimizer:::::: adam lr=0.0003, decay=0.000004, amsgrad=True 
Weighted :::::: 1 to 6 
Compiling lstm network...
_________________________________________________________________
Layer (type)                 Output Shape              Param #   
=================================================================
masking_20 (Masking)         (None, 334, 10)           0         
_________________________________________________________________
lstm_20 (LSTM)               (None, 334, 96)           41088     
_________________________________________________________________
dropout_58 (Dropout)         (None, 334, 96)           0         
_________________________________________________________________
dense_58 (Dense)             (None, 334, 96)           9312      
_________________________________________________________________
dropout_59 (Dropout)         (None, 334, 96)           0         
_________________________________________________________________
dense_59 (Dense)             (None, 334, 96)           9312      
_________________________________________________________________
dropout_60 (Dropout)         (None, 334, 96)           0         
_________________________________________________________________
time_distributed_20 (TimeDis (None, 334, 2)            194       
=================================================================
Total params: 59,906
Trainable params: 59,906
Non-trainable params: 0
_________________________________________________________________
None


******** Scores for LSTM (Windows:  10, 5, 10) ******** 

	roc_auc: 0.598 (+-0.07), recall: 0.511 (+-0.20), specificity: 0.684, precision: 0.291 (+-0.09) 

	Confusion matrix: 	 [872 375] 
				 [125 138]



DROPOUT=0.2
optimizer:::::: adam lr=0.0003, decay=0.000004, amsgrad=True 
Weighted :::::: 1 to 6 
Compiling lstm network...
_________________________________________________________________
Layer (type)                 Output Shape              Param #   
=================================================================
masking_21 (Masking)         (None, 334, 10)           0         
_________________________________________________________________
lstm_21 (LSTM)               (None, 334, 96)           41088     
_________________________________________________________________
dropout_61 (Dropout)         (None, 334, 96)           0         
_________________________________________________________________
dense_61 (Dense)             (None, 334, 96)           9312      
_________________________________________________________________
dropout_62 (Dropout)         (None, 334, 96)           0         
_________________________________________________________________
dense_62 (Dense)             (None, 334, 96)           9312      
_________________________________________________________________
dropout_63 (Dropout)         (None, 334, 96)           0         
_________________________________________________________________
time_distributed_21 (TimeDis (None, 334, 2)            194       
=================================================================
Total params: 59,906
Trainable params: 59,906
Non-trainable params: 0
_________________________________________________________________
None


******** Scores for LSTM (Windows:  10, 5, 10) ******** 

	roc_auc: 0.571 (+-0.04), recall: 0.452 (+-0.17), specificity: 0.691, precision: 0.251 (+-0.06) 

	Confusion matrix: 	 [866 391] 
				 [153 137]



DROPOUT=0.2
optimizer:::::: adam lr=0.0003, decay=0.000004, amsgrad=True 
Weighted :::::: 1 to 6 
Compiling lstm network...
_________________________________________________________________
Layer (type)                 Output Shape              Param #   
=================================================================
masking_22 (Masking)         (None, 334, 10)           0         
_________________________________________________________________
lstm_22 (LSTM)               (None, 334, 96)           41088     
_________________________________________________________________
dropout_64 (Dropout)         (None, 334, 96)           0         
_________________________________________________________________
dense_64 (Dense)             (None, 334, 96)           9312      
_________________________________________________________________
dropout_65 (Dropout)         (None, 334, 96)           0         
_________________________________________________________________
dense_65 (Dense)             (None, 334, 96)           9312      
_________________________________________________________________
dropout_66 (Dropout)         (None, 334, 96)           0         
_________________________________________________________________
time_distributed_22 (TimeDis (None, 334, 2)            194       
=================================================================
Total params: 59,906
Trainable params: 59,906
Non-trainable params: 0
_________________________________________________________________
None


******** Scores for LSTM (Windows:  10, 5, 10) ******** 

	roc_auc: 0.553 (+-0.02), recall: 0.335 (+-0.06), specificity: 0.770, precision: 0.209 (+-0.05) 

	Confusion matrix: 	 [988 291] 
				 [152  82]



DROPOUT=0.2
optimizer:::::: adam lr=0.0003, decay=0.000004, amsgrad=True 
Weighted :::::: 1 to 6 
Compiling lstm network...
_________________________________________________________________
Layer (type)                 Output Shape              Param #   
=================================================================
masking_23 (Masking)         (None, 334, 10)           0         
_________________________________________________________________
lstm_23 (LSTM)               (None, 334, 96)           41088     
_________________________________________________________________
dropout_67 (Dropout)         (None, 334, 96)           0         
_________________________________________________________________
dense_67 (Dense)             (None, 334, 96)           9312      
_________________________________________________________________
dropout_68 (Dropout)         (None, 334, 96)           0         
_________________________________________________________________
dense_68 (Dense)             (None, 334, 96)           9312      
_________________________________________________________________
dropout_69 (Dropout)         (None, 334, 96)           0         
_________________________________________________________________
time_distributed_23 (TimeDis (None, 334, 2)            194       
=================================================================
Total params: 59,906
Trainable params: 59,906
Non-trainable params: 0
_________________________________________________________________
None


******** Scores for LSTM (Windows:  10, 5, 10) ******** 

	roc_auc: 0.600 (+-0.06), recall: 0.375 (+-0.21), specificity: 0.824, precision: 0.381 (+-0.09) 

	Confusion matrix: 	 [931 224] 
				 [234 121]



DROPOUT=0.2
optimizer:::::: adam lr=0.0003, decay=0.000004, amsgrad=True 
Weighted :::::: 1 to 6 
Compiling lstm network...
_________________________________________________________________
Layer (type)                 Output Shape              Param #   
=================================================================
masking_24 (Masking)         (None, 334, 10)           0         
_________________________________________________________________
lstm_24 (LSTM)               (None, 334, 96)           41088     
_________________________________________________________________
dropout_70 (Dropout)         (None, 334, 96)           0         
_________________________________________________________________
dense_70 (Dense)             (None, 334, 96)           9312      
_________________________________________________________________
dropout_71 (Dropout)         (None, 334, 96)           0         
_________________________________________________________________
dense_71 (Dense)             (None, 334, 96)           9312      
_________________________________________________________________
dropout_72 (Dropout)         (None, 334, 96)           0         
_________________________________________________________________
time_distributed_24 (TimeDis (None, 334, 2)            194       
=================================================================
Total params: 59,906
Trainable params: 59,906
Non-trainable params: 0
_________________________________________________________________
None


******** Scores for LSTM (Windows:  10, 5, 10) ******** 

	roc_auc: 0.610 (+-0.07), recall: 0.383 (+-0.13), specificity: 0.836, precision: 0.312 (+-0.09) 

	Confusion matrix: 	 [1096  208] 
				 [152  99]



DROPOUT=0.2
optimizer:::::: adam lr=0.0003, decay=0.000004, amsgrad=True 
Weighted :::::: 1 to 6 
Compiling lstm network...
_________________________________________________________________
Layer (type)                 Output Shape              Param #   
=================================================================
masking_25 (Masking)         (None, 334, 10)           0         
_________________________________________________________________
lstm_25 (LSTM)               (None, 334, 96)           41088     
_________________________________________________________________
dropout_73 (Dropout)         (None, 334, 96)           0         
_________________________________________________________________
dense_73 (Dense)             (None, 334, 96)           9312      
_________________________________________________________________
dropout_74 (Dropout)         (None, 334, 96)           0         
_________________________________________________________________
dense_74 (Dense)             (None, 334, 96)           9312      
_________________________________________________________________
dropout_75 (Dropout)         (None, 334, 96)           0         
_________________________________________________________________
time_distributed_25 (TimeDis (None, 334, 2)            194       
=================================================================
Total params: 59,906
Trainable params: 59,906
Non-trainable params: 0
_________________________________________________________________
None


******** Scores for LSTM (Windows:  10, 5, 10) ******** 

	roc_auc: 0.630 (+-0.03), recall: 0.488 (+-0.03), specificity: 0.773, precision: 0.334 (+-0.06) 

	Confusion matrix: 	 [984 286] 
…
