…
2018-07-20 21:11:19.714968: I tensorflow/core/platform/cpu_feature_guard.cc:140] Your CPU supports instructions that this TensorFlow binary was not compiled to use: AVX2 FMA
Loading dataframes...
Feature matrix already cached!
Feature matrix and labels created!

################# Get trained LSTM #################

DROPOUT=0.2
optimizer:::::: adam lr=0.0003, decay=0.000004, amsgrad=True 
Weighted :::::: 1 to 6 
Compiling lstm network...
_________________________________________________________________
Layer (type)                 Output Shape              Param #   
=================================================================
masking_1 (Masking)          (None, 334, 10)           0         
_________________________________________________________________
lstm_1 (LSTM)                (None, 334, 96)           41088     
_________________________________________________________________
dropout_1 (Dropout)          (None, 334, 96)           0         
_________________________________________________________________
dense_1 (Dense)              (None, 334, 96)           9312      
_________________________________________________________________
dropout_2 (Dropout)          (None, 334, 96)           0         
_________________________________________________________________
dense_2 (Dense)              (None, 334, 96)           9312      
_________________________________________________________________
dropout_3 (Dropout)          (None, 334, 96)           0         
_________________________________________________________________
time_distributed_1 (TimeDist (None, 334, 2)            194       
=================================================================
Total params: 59,906
Trainable params: 59,906
Non-trainable params: 0
_________________________________________________________________
None


******** Scores for LSTM (Windows:  10, 5, 10) ******** 

	roc_auc: 0.580 (+-0.03), recall: 0.369 (+-0.12), specificity: 0.790, precision: 0.276 (+-0.07) 

	Confusion matrix: 	 [989 256] 
				 [164 111]



DROPOUT=0.2
optimizer:::::: adam lr=0.0003, decay=0.000004, amsgrad=True 
Weighted :::::: 1 to 6 
Compiling lstm network...
_________________________________________________________________
Layer (type)                 Output Shape              Param #   
=================================================================
masking_2 (Masking)          (None, 334, 10)           0         
_________________________________________________________________
lstm_2 (LSTM)                (None, 334, 96)           41088     
_________________________________________________________________
dropout_4 (Dropout)          (None, 334, 96)           0         
_________________________________________________________________
dense_4 (Dense)              (None, 334, 96)           9312      
_________________________________________________________________
dropout_5 (Dropout)          (None, 334, 96)           0         
_________________________________________________________________
dense_5 (Dense)              (None, 334, 96)           9312      
_________________________________________________________________
dropout_6 (Dropout)          (None, 334, 96)           0         
_________________________________________________________________
time_distributed_2 (TimeDist (None, 334, 2)            194       
=================================================================
Total params: 59,906
Trainable params: 59,906
Non-trainable params: 0
_________________________________________________________________
None


******** Scores for LSTM (Windows:  10, 5, 10) ******** 

	roc_auc: 0.622 (+-0.04), recall: 0.545 (+-0.14), specificity: 0.699, precision: 0.323 (+-0.04) 

	Confusion matrix: 	 [868 368] 
				 [136 176]



DROPOUT=0.2
optimizer:::::: adam lr=0.0003, decay=0.000004, amsgrad=True 
Weighted :::::: 1 to 6 
Compiling lstm network...
_________________________________________________________________
Layer (type)                 Output Shape              Param #   
=================================================================
masking_3 (Masking)          (None, 334, 10)           0         
_________________________________________________________________
lstm_3 (LSTM)                (None, 334, 96)           41088     
_________________________________________________________________
dropout_7 (Dropout)          (None, 334, 96)           0         
_________________________________________________________________
dense_7 (Dense)              (None, 334, 96)           9312      
_________________________________________________________________
dropout_8 (Dropout)          (None, 334, 96)           0         
_________________________________________________________________
dense_8 (Dense)              (None, 334, 96)           9312      
_________________________________________________________________
dropout_9 (Dropout)          (None, 334, 96)           0         
_________________________________________________________________
time_distributed_3 (TimeDist (None, 334, 2)            194       
=================================================================
Total params: 59,906
Trainable params: 59,906
Non-trainable params: 0
_________________________________________________________________
None


******** Scores for LSTM (Windows:  10, 5, 10) ******** 

	roc_auc: 0.641 (+-0.07), recall: 0.520 (+-0.10), specificity: 0.762, precision: 0.353 (+-0.07) 

	Confusion matrix: 	 [985 301] 
				 [152 165]



DROPOUT=0.2
optimizer:::::: adam lr=0.0003, decay=0.000004, amsgrad=True 
Weighted :::::: 1 to 6 
Compiling lstm network...
_________________________________________________________________
Layer (type)                 Output Shape              Param #   
=================================================================
masking_4 (Masking)          (None, 334, 10)           0         
_________________________________________________________________
lstm_4 (LSTM)                (None, 334, 96)           41088     
_________________________________________________________________
dropout_10 (Dropout)         (None, 334, 96)           0         
_________________________________________________________________
dense_10 (Dense)             (None, 334, 96)           9312      
_________________________________________________________________
dropout_11 (Dropout)         (None, 334, 96)           0         
_________________________________________________________________
dense_11 (Dense)             (None, 334, 96)           9312      
_________________________________________________________________
dropout_12 (Dropout)         (None, 334, 96)           0         
_________________________________________________________________
time_distributed_4 (TimeDist (None, 334, 2)            194       
=================================================================
Total params: 59,906
Trainable params: 59,906
Non-trainable params: 0
_________________________________________________________________
None


******** Scores for LSTM (Windows:  10, 5, 10) ******** 

	roc_auc: 0.610 (+-0.03), recall: 0.485 (+-0.11), specificity: 0.735, precision: 0.283 (+-0.05) 

	Confusion matrix: 	 [966 341] 
				 [131 139]



DROPOUT=0.2
optimizer:::::: adam lr=0.0003, decay=0.000004, amsgrad=True 
Weighted :::::: 1 to 6 
Compiling lstm network...
_________________________________________________________________
Layer (type)                 Output Shape              Param #   
=================================================================
masking_5 (Masking)          (None, 334, 10)           0         
_________________________________________________________________
lstm_5 (LSTM)                (None, 334, 96)           41088     
_________________________________________________________________
dropout_13 (Dropout)         (None, 334, 96)           0         
_________________________________________________________________
dense_13 (Dense)             (None, 334, 96)           9312      
_________________________________________________________________
dropout_14 (Dropout)         (None, 334, 96)           0         
_________________________________________________________________
dense_14 (Dense)             (None, 334, 96)           9312      
_________________________________________________________________
dropout_15 (Dropout)         (None, 334, 96)           0         
_________________________________________________________________
time_distributed_5 (TimeDist (None, 334, 2)            194       
=================================================================
Total params: 59,906
Trainable params: 59,906
Non-trainable params: 0
_________________________________________________________________
None


******** Scores for LSTM (Windows:  10, 5, 10) ******** 

	roc_auc: 0.601 (+-0.05), recall: 0.438 (+-0.12), specificity: 0.765, precision: 0.279 (+-0.06) 

	Confusion matrix: 	 [999 297] 
				 [141 122]



DROPOUT=0.2
optimizer:::::: adam lr=0.0003, decay=0.000004, amsgrad=True 
Weighted :::::: 1 to 6 
Compiling lstm network...
_________________________________________________________________
Layer (type)                 Output Shape              Param #   
=================================================================
masking_6 (Masking)          (None, 334, 10)           0         
_________________________________________________________________
lstm_6 (LSTM)                (None, 334, 96)           41088     
_________________________________________________________________
dropout_16 (Dropout)         (None, 334, 96)           0         
_________________________________________________________________
dense_16 (Dense)             (None, 334, 96)           9312      
_________________________________________________________________
dropout_17 (Dropout)         (None, 334, 96)           0         
_________________________________________________________________
dense_17 (Dense)             (None, 334, 96)           9312      
_________________________________________________________________
dropout_18 (Dropout)         (None, 334, 96)           0         
_________________________________________________________________
time_distributed_6 (TimeDist (None, 334, 2)            194       
=================================================================
Total params: 59,906
Trainable params: 59,906
Non-trainable params: 0
_________________________________________________________________
None


******** Scores for LSTM (Windows:  10, 5, 10) ******** 

	roc_auc: 0.575 (+-0.02), recall: 0.392 (+-0.06), specificity: 0.759, precision: 0.297 (+-0.07) 

	Confusion matrix: 	 [914 289] 
				 [189 128]



DROPOUT=0.2
optimizer:::::: adam lr=0.0003, decay=0.000004, amsgrad=True 
Weighted :::::: 1 to 6 
Compiling lstm network...
_________________________________________________________________
Layer (type)                 Output Shape              Param #   
=================================================================
masking_7 (Masking)          (None, 334, 10)           0         
_________________________________________________________________
lstm_7 (LSTM)                (None, 334, 96)           41088     
_________________________________________________________________
dropout_19 (Dropout)         (None, 334, 96)           0         
_________________________________________________________________
dense_19 (Dense)             (None, 334, 96)           9312      
_________________________________________________________________
dropout_20 (Dropout)         (None, 334, 96)           0         
_________________________________________________________________
dense_20 (Dense)             (None, 334, 96)           9312      
_________________________________________________________________
dropout_21 (Dropout)         (None, 334, 96)           0         
_________________________________________________________________
time_distributed_7 (TimeDist (None, 334, 2)            194       
=================================================================
Total params: 59,906
Trainable params: 59,906
Non-trainable params: 0
_________________________________________________________________
None


******** Scores for LSTM (Windows:  10, 5, 10) ******** 

	roc_auc: 0.619 (+-0.06), recall: 0.520 (+-0.23), specificity: 0.718, precision: 0.310 (+-0.07) 

	Confusion matrix: 	 [896 342] 
				 [120 152]



DROPOUT=0.2
optimizer:::::: adam lr=0.0003, decay=0.000004, amsgrad=True 
Weighted :::::: 1 to 6 
Compiling lstm network...
_________________________________________________________________
Layer (type)                 Output Shape              Param #   
=================================================================
masking_8 (Masking)          (None, 334, 10)           0         
_________________________________________________________________
lstm_8 (LSTM)                (None, 334, 96)           41088     
_________________________________________________________________
dropout_22 (Dropout)         (None, 334, 96)           0         
_________________________________________________________________
dense_22 (Dense)             (None, 334, 96)           9312      
_________________________________________________________________
dropout_23 (Dropout)         (None, 334, 96)           0         
_________________________________________________________________
dense_23 (Dense)             (None, 334, 96)           9312      
_________________________________________________________________
dropout_24 (Dropout)         (None, 334, 96)           0         
_________________________________________________________________
time_distributed_8 (TimeDist (None, 334, 2)            194       
=================================================================
Total params: 59,906
Trainable params: 59,906
Non-trainable params: 0
_________________________________________________________________
None


******** Scores for LSTM (Windows:  10, 5, 10) ******** 

	roc_auc: 0.618 (+-0.06), recall: 0.477 (+-0.10), specificity: 0.759, precision: 0.352 (+-0.10) 

	Confusion matrix: 	 [906 293] 
				 [167 137]



DROPOUT=0.2
optimizer:::::: adam lr=0.0003, decay=0.000004, amsgrad=True 
Weighted :::::: 1 to 6 
Compiling lstm network...
_________________________________________________________________
Layer (type)                 Output Shape              Param #   
=================================================================
masking_9 (Masking)          (None, 334, 10)           0         
_________________________________________________________________
lstm_9 (LSTM)                (None, 334, 96)           41088     
_________________________________________________________________
dropout_25 (Dropout)         (None, 334, 96)           0         
_________________________________________________________________
dense_25 (Dense)             (None, 334, 96)           9312      
_________________________________________________________________
dropout_26 (Dropout)         (None, 334, 96)           0         
_________________________________________________________________
dense_26 (Dense)             (None, 334, 96)           9312      
_________________________________________________________________
dropout_27 (Dropout)         (None, 334, 96)           0         
_________________________________________________________________
time_distributed_9 (TimeDist (None, 334, 2)            194       
=================================================================
Total params: 59,906
Trainable params: 59,906
Non-trainable params: 0
_________________________________________________________________
None


******** Scores for LSTM (Windows:  10, 5, 10) ******** 

	roc_auc: 0.570 (+-0.03), recall: 0.424 (+-0.10), specificity: 0.716, precision: 0.240 (+-0.05) 

	Confusion matrix: 	 [906 359] 
				 [149 119]



DROPOUT=0.2
optimizer:::::: adam lr=0.0003, decay=0.000004, amsgrad=True 
Weighted :::::: 1 to 6 
Compiling lstm network...
_________________________________________________________________
Layer (type)                 Output Shape              Param #   
=================================================================
masking_10 (Masking)         (None, 334, 10)           0         
_________________________________________________________________
lstm_10 (LSTM)               (None, 334, 96)           41088     
_________________________________________________________________
dropout_28 (Dropout)         (None, 334, 96)           0         
_________________________________________________________________
dense_28 (Dense)             (None, 334, 96)           9312      
_________________________________________________________________
dropout_29 (Dropout)         (None, 334, 96)           0         
_________________________________________________________________
dense_29 (Dense)             (None, 334, 96)           9312      
_________________________________________________________________
dropout_30 (Dropout)         (None, 334, 96)           0         
_________________________________________________________________
time_distributed_10 (TimeDis (None, 334, 2)            194       
=================================================================
Total params: 59,906
Trainable params: 59,906
Non-trainable params: 0
_________________________________________________________________
None


******** Scores for LSTM (Windows:  10, 5, 10) ******** 

	roc_auc: 0.596 (+-0.05), recall: 0.487 (+-0.23), specificity: 0.706, precision: 0.243 (+-0.05) 

	Confusion matrix: 	 [952 382] 
				 [108 135]



DROPOUT=0.2
optimizer:::::: adam lr=0.0003, decay=0.000004, amsgrad=True 
Weighted :::::: 1 to 6 
Compiling lstm network...
_________________________________________________________________
Layer (type)                 Output Shape              Param #   
=================================================================
masking_11 (Masking)         (None, 334, 10)           0         
_________________________________________________________________
lstm_11 (LSTM)               (None, 334, 96)           41088     
_________________________________________________________________
dropout_31 (Dropout)         (None, 334, 96)           0         
_________________________________________________________________
dense_31 (Dense)             (None, 334, 96)           9312      
_________________________________________________________________
dropout_32 (Dropout)         (None, 334, 96)           0         
_________________________________________________________________
dense_32 (Dense)             (None, 334, 96)           9312      
_________________________________________________________________
dropout_33 (Dropout)         (None, 334, 96)           0         
_________________________________________________________________
time_distributed_11 (TimeDis (None, 334, 2)            194       
=================================================================
Total params: 59,906
Trainable params: 59,906
Non-trainable params: 0
_________________________________________________________________
None


******** Scores for LSTM (Windows:  10, 5, 10) ******** 

	roc_auc: 0.602 (+-0.04), recall: 0.455 (+-0.11), specificity: 0.748, precision: 0.343 (+-0.09) 

	Confusion matrix: 	 [868 298] 
				 [185 147]



DROPOUT=0.2
optimizer:::::: adam lr=0.0003, decay=0.000004, amsgrad=True 
Weighted :::::: 1 to 6 
Compiling lstm network...
_________________________________________________________________
Layer (type)                 Output Shape              Param #   
=================================================================
masking_12 (Masking)         (None, 334, 10)           0         
_________________________________________________________________
lstm_12 (LSTM)               (None, 334, 96)           41088     
_________________________________________________________________
dropout_34 (Dropout)         (None, 334, 96)           0         
_________________________________________________________________
dense_34 (Dense)             (None, 334, 96)           9312      
_________________________________________________________________
dropout_35 (Dropout)         (None, 334, 96)           0         
_________________________________________________________________
dense_35 (Dense)             (None, 334, 96)           9312      
_________________________________________________________________
dropout_36 (Dropout)         (None, 334, 96)           0         
_________________________________________________________________
time_distributed_12 (TimeDis (None, 334, 2)            194       
=================================================================
Total params: 59,906
Trainable params: 59,906
Non-trainable params: 0
_________________________________________________________________
None


******** Scores for LSTM (Windows:  10, 5, 10) ******** 

	roc_auc: 0.569 (+-0.04), recall: 0.316 (+-0.13), specificity: 0.823, precision: 0.296 (+-0.14) 

	Confusion matrix: 	 [947 214] 
				 [186  73]



DROPOUT=0.2
optimizer:::::: adam lr=0.0003, decay=0.000004, amsgrad=True 
Weighted :::::: 1 to 6 
Compiling lstm network...
_________________________________________________________________
Layer (type)                 Output Shape              Param #   
=================================================================
masking_13 (Masking)         (None, 334, 10)           0         
_________________________________________________________________
lstm_13 (LSTM)               (None, 334, 96)           41088     
_________________________________________________________________
dropout_37 (Dropout)         (None, 334, 96)           0         
_________________________________________________________________
dense_37 (Dense)             (None, 334, 96)           9312      
_________________________________________________________________
dropout_38 (Dropout)         (None, 334, 96)           0         
_________________________________________________________________
dense_38 (Dense)             (None, 334, 96)           9312      
_________________________________________________________________
dropout_39 (Dropout)         (None, 334, 96)           0         
_________________________________________________________________
time_distributed_13 (TimeDis (None, 334, 2)            194       
=================================================================
Total params: 59,906
Trainable params: 59,906
Non-trainable params: 0
_________________________________________________________________
None


******** Scores for LSTM (Windows:  10, 5, 10) ******** 

	roc_auc: 0.594 (+-0.04), recall: 0.441 (+-0.13), specificity: 0.747, precision: 0.315 (+-0.10) 

	Confusion matrix: 	 [885 295] 
				 [172 140]



DROPOUT=0.2
optimizer:::::: adam lr=0.0003, decay=0.000004, amsgrad=True 
Weighted :::::: 1 to 6 
Compiling lstm network...
_________________________________________________________________
Layer (type)                 Output Shape              Param #   
=================================================================
masking_14 (Masking)         (None, 334, 10)           0         
_________________________________________________________________
lstm_14 (LSTM)               (None, 334, 96)           41088     
_________________________________________________________________
dropout_40 (Dropout)         (None, 334, 96)           0         
_________________________________________________________________
dense_40 (Dense)             (None, 334, 96)           9312      
_________________________________________________________________
dropout_41 (Dropout)         (None, 334, 96)           0         
_________________________________________________________________
dense_41 (Dense)             (None, 334, 96)           9312      
_________________________________________________________________
dropout_42 (Dropout)         (None, 334, 96)           0         
_________________________________________________________________
time_distributed_14 (TimeDis (None, 334, 2)            194       
=================================================================
Total params: 59,906
Trainable params: 59,906
Non-trainable params: 0
_________________________________________________________________
None


******** Scores for LSTM (Windows:  10, 5, 10) ******** 

	roc_auc: 0.597 (+-0.05), recall: 0.595 (+-0.20), specificity: 0.600, precision: 0.269 (+-0.05) 

	Confusion matrix: 	 [775 485] 
				 [105 182]



DROPOUT=0.2
optimizer:::::: adam lr=0.0003, decay=0.000004, amsgrad=True 
Weighted :::::: 1 to 6 
Compiling lstm network...
_________________________________________________________________
Layer (type)                 Output Shape              Param #   
=================================================================
masking_15 (Masking)         (None, 334, 10)           0         
_________________________________________________________________
lstm_15 (LSTM)               (None, 334, 96)           41088     
_________________________________________________________________
dropout_43 (Dropout)         (None, 334, 96)           0         
_________________________________________________________________
dense_43 (Dense)             (None, 334, 96)           9312      
_________________________________________________________________
dropout_44 (Dropout)         (None, 334, 96)           0         
_________________________________________________________________
dense_44 (Dense)             (None, 334, 96)           9312      
_________________________________________________________________
dropout_45 (Dropout)         (None, 334, 96)           0         
_________________________________________________________________
time_distributed_15 (TimeDis (None, 334, 2)            194       
=================================================================
Total params: 59,906
Trainable params: 59,906
Non-trainable params: 0
_________________________________________________________________
None


******** Scores for LSTM (Windows:  10, 5, 10) ******** 

	roc_auc: 0.603 (+-0.05), recall: 0.449 (+-0.22), specificity: 0.758, precision: 0.275 (+-0.05) 

	Confusion matrix: 	 [970 305] 
				 [131 130]



DROPOUT=0.2
optimizer:::::: adam lr=0.0003, decay=0.000004, amsgrad=True 
Weighted :::::: 1 to 6 
Compiling lstm network...
_________________________________________________________________
Layer (type)                 Output Shape              Param #   
=================================================================
masking_16 (Masking)         (None, 334, 10)           0         
_________________________________________________________________
lstm_16 (LSTM)               (None, 334, 96)           41088     
_________________________________________________________________
dropout_46 (Dropout)         (None, 334, 96)           0         
_________________________________________________________________
dense_46 (Dense)             (None, 334, 96)           9312      
_________________________________________________________________
dropout_47 (Dropout)         (None, 334, 96)           0         
_________________________________________________________________
dense_47 (Dense)             (None, 334, 96)           9312      
_________________________________________________________________
dropout_48 (Dropout)         (None, 334, 96)           0         
_________________________________________________________________
time_distributed_16 (TimeDis (None, 334, 2)            194       
=================================================================
Total params: 59,906
Trainable params: 59,906
Non-trainable params: 0
_________________________________________________________________
None


******** Scores for LSTM (Windows:  10, 5, 10) ******** 

	roc_auc: 0.623 (+-0.06), recall: 0.554 (+-0.22), specificity: 0.692, precision: 0.288 (+-0.07) 

	Confusion matrix: 	 [926 391] 
				 [104 163]



DROPOUT=0.2
optimizer:::::: adam lr=0.0003, decay=0.000004, amsgrad=True 
Weighted :::::: 1 to 6 
Compiling lstm network...
_________________________________________________________________
Layer (type)                 Output Shape              Param #   
=================================================================
masking_17 (Masking)         (None, 334, 10)           0         
_________________________________________________________________
lstm_17 (LSTM)               (None, 334, 96)           41088     
_________________________________________________________________
dropout_49 (Dropout)         (None, 334, 96)           0         
_________________________________________________________________
dense_49 (Dense)             (None, 334, 96)           9312      
_________________________________________________________________
dropout_50 (Dropout)         (None, 334, 96)           0         
_________________________________________________________________
dense_50 (Dense)             (None, 334, 96)           9312      
_________________________________________________________________
dropout_51 (Dropout)         (None, 334, 96)           0         
_________________________________________________________________
time_distributed_17 (TimeDis (None, 334, 2)            194       
=================================================================
Total params: 59,906
Trainable params: 59,906
Non-trainable params: 0
_________________________________________________________________
None


******** Scores for LSTM (Windows:  10, 5, 10) ******** 

	roc_auc: 0.608 (+-0.07), recall: 0.401 (+-0.14), specificity: 0.815, precision: 0.292 (+-0.09) 

	Confusion matrix: 	 [1045  234] 
				 [145 100]



DROPOUT=0.2
optimizer:::::: adam lr=0.0003, decay=0.000004, amsgrad=True 
Weighted :::::: 1 to 6 
Compiling lstm network...
_________________________________________________________________
Layer (type)                 Output Shape              Param #   
=================================================================
masking_18 (Masking)         (None, 334, 10)           0         
_________________________________________________________________
lstm_18 (LSTM)               (None, 334, 96)           41088     
_________________________________________________________________
dropout_52 (Dropout)         (None, 334, 96)           0         
_________________________________________________________________
dense_52 (Dense)             (None, 334, 96)           9312      
_________________________________________________________________
dropout_53 (Dropout)         (None, 334, 96)           0         
_________________________________________________________________
dense_53 (Dense)             (None, 334, 96)           9312      
_________________________________________________________________
dropout_54 (Dropout)         (None, 334, 96)           0         
_________________________________________________________________
time_distributed_18 (TimeDis (None, 334, 2)            194       
=================================================================
Total params: 59,906
Trainable params: 59,906
Non-trainable params: 0
_________________________________________________________________
None


******** Scores for LSTM (Windows:  10, 5, 10) ******** 

	roc_auc: 0.577 (+-0.06), recall: 0.408 (+-0.14), specificity: 0.746, precision: 0.223 (+-0.05) 

	Confusion matrix: 	 [989 337] 
				 [134 100]



DROPOUT=0.2
optimizer:::::: adam lr=0.0003, decay=0.000004, amsgrad=True 
Weighted :::::: 1 to 6 
Compiling lstm network...
_________________________________________________________________
Layer (type)                 Output Shape              Param #   
=================================================================
masking_19 (Masking)         (None, 334, 10)           0         
_________________________________________________________________
lstm_19 (LSTM)               (None, 334, 96)           41088     
_________________________________________________________________
dropout_55 (Dropout)         (None, 334, 96)           0         
_________________________________________________________________
dense_55 (Dense)             (None, 334, 96)           9312      
_________________________________________________________________
dropout_56 (Dropout)         (None, 334, 96)           0         
_________________________________________________________________
dense_56 (Dense)             (None, 334, 96)           9312      
_________________________________________________________________
dropout_57 (Dropout)         (None, 334, 96)           0         
_________________________________________________________________
time_distributed_19 (TimeDis (None, 334, 2)            194       
=================================================================
Total params: 59,906
Trainable params: 59,906
Non-trainable params: 0
_________________________________________________________________
None


******** Scores for LSTM (Windows:  10, 5, 10) ******** 

	roc_auc: 0.592 (+-0.07), recall: 0.354 (+-0.17), specificity: 0.831, precision: 0.309 (+-0.12) 

	Confusion matrix: 	 [996 212] 
				 [181  87]



DROPOUT=0.2
optimizer:::::: adam lr=0.0003, decay=0.000004, amsgrad=True 
Weighted :::::: 1 to 6 
Compiling lstm network...
_________________________________________________________________
Layer (type)                 Output Shape              Param #   
=================================================================
masking_20 (Masking)         (None, 334, 10)           0         
_________________________________________________________________
lstm_20 (LSTM)               (None, 334, 96)           41088     
_________________________________________________________________
dropout_58 (Dropout)         (None, 334, 96)           0         
_________________________________________________________________
dense_58 (Dense)             (None, 334, 96)           9312      
_________________________________________________________________
dropout_59 (Dropout)         (None, 334, 96)           0         
_________________________________________________________________
dense_59 (Dense)             (None, 334, 96)           9312      
_________________________________________________________________
dropout_60 (Dropout)         (None, 334, 96)           0         
_________________________________________________________________
time_distributed_20 (TimeDis (None, 334, 2)            194       
=================================================================
Total params: 59,906
Trainable params: 59,906
Non-trainable params: 0
_________________________________________________________________
None


******** Scores for LSTM (Windows:  10, 5, 10) ******** 

	roc_auc: 0.575 (+-0.03), recall: 0.448 (+-0.13), specificity: 0.703, precision: 0.241 (+-0.06) 

	Confusion matrix: 	 [898 378] 
				 [142 130]



DROPOUT=0.2
optimizer:::::: adam lr=0.0003, decay=0.000004, amsgrad=True 
Weighted :::::: 1 to 6 
Compiling lstm network...
_________________________________________________________________
Layer (type)                 Output Shape              Param #   
=================================================================
masking_21 (Masking)         (None, 334, 10)           0         
_________________________________________________________________
lstm_21 (LSTM)               (None, 334, 96)           41088     
_________________________________________________________________
dropout_61 (Dropout)         (None, 334, 96)           0         
_________________________________________________________________
dense_61 (Dense)             (None, 334, 96)           9312      
_________________________________________________________________
dropout_62 (Dropout)         (None, 334, 96)           0         
_________________________________________________________________
dense_62 (Dense)             (None, 334, 96)           9312      
_________________________________________________________________
dropout_63 (Dropout)         (None, 334, 96)           0         
_________________________________________________________________
time_distributed_21 (TimeDis (None, 334, 2)            194       
=================================================================
Total params: 59,906
Trainable params: 59,906
Non-trainable params: 0
_________________________________________________________________
None


******** Scores for LSTM (Windows:  10, 5, 10) ******** 

	roc_auc: 0.572 (+-0.05), recall: 0.400 (+-0.19), specificity: 0.745, precision: 0.271 (+-0.10) 

	Confusion matrix: 	 [889 317] 
				 [172 114]



DROPOUT=0.2
optimizer:::::: adam lr=0.0003, decay=0.000004, amsgrad=True 
Weighted :::::: 1 to 6 
Compiling lstm network...
_________________________________________________________________
Layer (type)                 Output Shape              Param #   
=================================================================
masking_22 (Masking)         (None, 334, 10)           0         
_________________________________________________________________
lstm_22 (LSTM)               (None, 334, 96)           41088     
_________________________________________________________________
dropout_64 (Dropout)         (None, 334, 96)           0         
_________________________________________________________________
dense_64 (Dense)             (None, 334, 96)           9312      
_________________________________________________________________
dropout_65 (Dropout)         (None, 334, 96)           0         
_________________________________________________________________
dense_65 (Dense)             (None, 334, 96)           9312      
_________________________________________________________________
dropout_66 (Dropout)         (None, 334, 96)           0         
_________________________________________________________________
time_distributed_22 (TimeDis (None, 334, 2)            194       
=================================================================
Total params: 59,906
Trainable params: 59,906
Non-trainable params: 0
_________________________________________________________________
None


******** Scores for LSTM (Windows:  10, 5, 10) ******** 

	roc_auc: 0.575 (+-0.04), recall: 0.498 (+-0.24), specificity: 0.652, precision: 0.245 (+-0.05) 

	Confusion matrix: 	 [829 435] 
				 [130 157]



DROPOUT=0.2
optimizer:::::: adam lr=0.0003, decay=0.000004, amsgrad=True 
Weighted :::::: 1 to 6 
Compiling lstm network...
_________________________________________________________________
Layer (type)                 Output Shape              Param #   
=================================================================
masking_23 (Masking)         (None, 334, 10)           0         
_________________________________________________________________
lstm_23 (LSTM)               (None, 334, 96)           41088     
_________________________________________________________________
dropout_67 (Dropout)         (None, 334, 96)           0         
_________________________________________________________________
dense_67 (Dense)             (None, 334, 96)           9312      
_________________________________________________________________
dropout_68 (Dropout)         (None, 334, 96)           0         
_________________________________________________________________
dense_68 (Dense)             (None, 334, 96)           9312      
_________________________________________________________________
dropout_69 (Dropout)         (None, 334, 96)           0         
_________________________________________________________________
time_distributed_23 (TimeDis (None, 334, 2)            194       
=================================================================
Total params: 59,906
Trainable params: 59,906
Non-trainable params: 0
_________________________________________________________________
None


******** Scores for LSTM (Windows:  10, 5, 10) ******** 

	roc_auc: 0.593 (+-0.04), recall: 0.480 (+-0.24), specificity: 0.705, precision: 0.260 (+-0.04) 

	Confusion matrix: 	 [915 372] 
				 [126 143]



DROPOUT=0.2
optimizer:::::: adam lr=0.0003, decay=0.000004, amsgrad=True 
Weighted :::::: 1 to 6 
Compiling lstm network...
_________________________________________________________________
Layer (type)                 Output Shape              Param #   
=================================================================
masking_24 (Masking)         (None, 334, 10)           0         
_________________________________________________________________
lstm_24 (LSTM)               (None, 334, 96)           41088     
_________________________________________________________________
dropout_70 (Dropout)         (None, 334, 96)           0         
_________________________________________________________________
dense_70 (Dense)             (None, 334, 96)           9312      
_________________________________________________________________
dropout_71 (Dropout)         (None, 334, 96)           0         
_________________________________________________________________
dense_71 (Dense)             (None, 334, 96)           9312      
_________________________________________________________________
dropout_72 (Dropout)         (None, 334, 96)           0         
_________________________________________________________________
time_distributed_24 (TimeDis (None, 334, 2)            194       
=================================================================
Total params: 59,906
Trainable params: 59,906
Non-trainable params: 0
_________________________________________________________________
None


******** Scores for LSTM (Windows:  10, 5, 10) ******** 

	roc_auc: 0.565 (+-0.03), recall: 0.315 (+-0.10), specificity: 0.815, precision: 0.300 (+-0.13) 

	Confusion matrix: 	 [935 221] 
				 [194  84]



DROPOUT=0.2
optimizer:::::: adam lr=0.0003, decay=0.000004, amsgrad=True 
Weighted :::::: 1 to 6 
Compiling lstm network...
_________________________________________________________________
Layer (type)                 Output Shape              Param #   
=================================================================
masking_25 (Masking)         (None, 334, 10)           0         
_________________________________________________________________
lstm_25 (LSTM)               (None, 334, 96)           41088     
_________________________________________________________________
dropout_73 (Dropout)         (None, 334, 96)           0         
_________________________________________________________________
dense_73 (Dense)             (None, 334, 96)           9312      
_________________________________________________________________
dropout_74 (Dropout)         (None, 334, 96)           0         
_________________________________________________________________
dense_74 (Dense)             (None, 334, 96)           9312      
_________________________________________________________________
dropout_75 (Dropout)         (None, 334, 96)           0         
_________________________________________________________________
time_distributed_25 (TimeDis (None, 334, 2)            194       
=================================================================
Total params: 59,906
Trainable params: 59,906
Non-trainable params: 0
_________________________________________________________________
None


******** Scores for LSTM (Windows:  10, 5, 10) ******** 

	roc_auc: 0.554 (+-0.04), recall: 0.266 (+-0.10), specificity: 0.841, precision: 0.276 (+-0.12) 

	Confusion matrix: 	 [974 194] 
…
