…
2018-07-20 21:11:20.312300: I tensorflow/core/platform/cpu_feature_guard.cc:140] Your CPU supports instructions that this TensorFlow binary was not compiled to use: AVX2 FMA
Loading dataframes...
Feature matrix already cached!
Feature matrix and labels created!

################# Get trained LSTM #################

DROPOUT=0.2
optimizer:::::: adam lr=0.0003, decay=0.000004, amsgrad=True 
Weighted :::::: 1 to 6 
Compiling lstm network...
_________________________________________________________________
Layer (type)                 Output Shape              Param #   
=================================================================
masking_1 (Masking)          (None, 334, 10)           0         
_________________________________________________________________
lstm_1 (LSTM)                (None, 334, 96)           41088     
_________________________________________________________________
dropout_1 (Dropout)          (None, 334, 96)           0         
_________________________________________________________________
dense_1 (Dense)              (None, 334, 96)           9312      
_________________________________________________________________
dropout_2 (Dropout)          (None, 334, 96)           0         
_________________________________________________________________
dense_2 (Dense)              (None, 334, 96)           9312      
_________________________________________________________________
dropout_3 (Dropout)          (None, 334, 96)           0         
_________________________________________________________________
time_distributed_1 (TimeDist (None, 334, 2)            194       
=================================================================
Total params: 59,906
Trainable params: 59,906
Non-trainable params: 0
_________________________________________________________________
None


******** Scores for LSTM (Windows:  10, 5, 10) ******** 

	roc_auc: 0.608 (+-0.06), recall: 0.451 (+-0.16), specificity: 0.765, precision: 0.328 (+-0.13) 

	Confusion matrix: 	 [900 287] 
				 [165 133]



DROPOUT=0.2
optimizer:::::: adam lr=0.0003, decay=0.000004, amsgrad=True 
Weighted :::::: 1 to 6 
Compiling lstm network...
_________________________________________________________________
Layer (type)                 Output Shape              Param #   
=================================================================
masking_2 (Masking)          (None, 334, 10)           0         
_________________________________________________________________
lstm_2 (LSTM)                (None, 334, 96)           41088     
_________________________________________________________________
dropout_4 (Dropout)          (None, 334, 96)           0         
_________________________________________________________________
dense_4 (Dense)              (None, 334, 96)           9312      
_________________________________________________________________
dropout_5 (Dropout)          (None, 334, 96)           0         
_________________________________________________________________
dense_5 (Dense)              (None, 334, 96)           9312      
_________________________________________________________________
dropout_6 (Dropout)          (None, 334, 96)           0         
_________________________________________________________________
time_distributed_2 (TimeDist (None, 334, 2)            194       
=================================================================
Total params: 59,906
Trainable params: 59,906
Non-trainable params: 0
_________________________________________________________________
None


******** Scores for LSTM (Windows:  10, 5, 10) ******** 

	roc_auc: 0.587 (+-0.02), recall: 0.391 (+-0.08), specificity: 0.782, precision: 0.278 (+-0.06) 

	Confusion matrix: 	 [1024  281] 
				 [166 117]



DROPOUT=0.2
optimizer:::::: adam lr=0.0003, decay=0.000004, amsgrad=True 
Weighted :::::: 1 to 6 
Compiling lstm network...
_________________________________________________________________
Layer (type)                 Output Shape              Param #   
=================================================================
masking_3 (Masking)          (None, 334, 10)           0         
_________________________________________________________________
lstm_3 (LSTM)                (None, 334, 96)           41088     
_________________________________________________________________
dropout_7 (Dropout)          (None, 334, 96)           0         
_________________________________________________________________
dense_7 (Dense)              (None, 334, 96)           9312      
_________________________________________________________________
dropout_8 (Dropout)          (None, 334, 96)           0         
_________________________________________________________________
dense_8 (Dense)              (None, 334, 96)           9312      
_________________________________________________________________
dropout_9 (Dropout)          (None, 334, 96)           0         
_________________________________________________________________
time_distributed_3 (TimeDist (None, 334, 2)            194       
=================================================================
Total params: 59,906
Trainable params: 59,906
Non-trainable params: 0
_________________________________________________________________
None


******** Scores for LSTM (Windows:  10, 5, 10) ******** 

	roc_auc: 0.597 (+-0.03), recall: 0.445 (+-0.10), specificity: 0.749, precision: 0.266 (+-0.05) 

	Confusion matrix: 	 [966 319] 
				 [144 123]



DROPOUT=0.2
optimizer:::::: adam lr=0.0003, decay=0.000004, amsgrad=True 
Weighted :::::: 1 to 6 
Compiling lstm network...
_________________________________________________________________
Layer (type)                 Output Shape              Param #   
=================================================================
masking_4 (Masking)          (None, 334, 10)           0         
_________________________________________________________________
lstm_4 (LSTM)                (None, 334, 96)           41088     
_________________________________________________________________
dropout_10 (Dropout)         (None, 334, 96)           0         
_________________________________________________________________
dense_10 (Dense)             (None, 334, 96)           9312      
_________________________________________________________________
dropout_11 (Dropout)         (None, 334, 96)           0         
_________________________________________________________________
dense_11 (Dense)             (None, 334, 96)           9312      
_________________________________________________________________
dropout_12 (Dropout)         (None, 334, 96)           0         
_________________________________________________________________
time_distributed_4 (TimeDist (None, 334, 2)            194       
=================================================================
Total params: 59,906
Trainable params: 59,906
Non-trainable params: 0
_________________________________________________________________
None


******** Scores for LSTM (Windows:  10, 5, 10) ******** 

	roc_auc: 0.590 (+-0.05), recall: 0.421 (+-0.13), specificity: 0.758, precision: 0.263 (+-0.07) 

	Confusion matrix: 	 [993 308] 
				 [145 120]



DROPOUT=0.2
optimizer:::::: adam lr=0.0003, decay=0.000004, amsgrad=True 
Weighted :::::: 1 to 6 
Compiling lstm network...
_________________________________________________________________
Layer (type)                 Output Shape              Param #   
=================================================================
masking_5 (Masking)          (None, 334, 10)           0         
_________________________________________________________________
lstm_5 (LSTM)                (None, 334, 96)           41088     
_________________________________________________________________
dropout_13 (Dropout)         (None, 334, 96)           0         
_________________________________________________________________
dense_13 (Dense)             (None, 334, 96)           9312      
_________________________________________________________________
dropout_14 (Dropout)         (None, 334, 96)           0         
_________________________________________________________________
dense_14 (Dense)             (None, 334, 96)           9312      
_________________________________________________________________
dropout_15 (Dropout)         (None, 334, 96)           0         
_________________________________________________________________
time_distributed_5 (TimeDist (None, 334, 2)            194       
=================================================================
Total params: 59,906
Trainable params: 59,906
Non-trainable params: 0
_________________________________________________________________
None


******** Scores for LSTM (Windows:  10, 5, 10) ******** 

	roc_auc: 0.588 (+-0.02), recall: 0.392 (+-0.10), specificity: 0.785, precision: 0.252 (+-0.04) 

	Confusion matrix: 	 [1033  275] 
				 [136  99]



DROPOUT=0.2
optimizer:::::: adam lr=0.0003, decay=0.000004, amsgrad=True 
Weighted :::::: 1 to 6 
Compiling lstm network...
_________________________________________________________________
Layer (type)                 Output Shape              Param #   
=================================================================
masking_6 (Masking)          (None, 334, 10)           0         
_________________________________________________________________
lstm_6 (LSTM)                (None, 334, 96)           41088     
_________________________________________________________________
dropout_16 (Dropout)         (None, 334, 96)           0         
_________________________________________________________________
dense_16 (Dense)             (None, 334, 96)           9312      
_________________________________________________________________
dropout_17 (Dropout)         (None, 334, 96)           0         
_________________________________________________________________
dense_17 (Dense)             (None, 334, 96)           9312      
_________________________________________________________________
dropout_18 (Dropout)         (None, 334, 96)           0         
_________________________________________________________________
time_distributed_6 (TimeDist (None, 334, 2)            194       
=================================================================
Total params: 59,906
Trainable params: 59,906
Non-trainable params: 0
_________________________________________________________________
None


******** Scores for LSTM (Windows:  10, 5, 10) ******** 

	roc_auc: 0.605 (+-0.04), recall: 0.451 (+-0.10), specificity: 0.759, precision: 0.270 (+-0.05) 

	Confusion matrix: 	 [988 307] 
				 [138 121]



DROPOUT=0.2
optimizer:::::: adam lr=0.0003, decay=0.000004, amsgrad=True 
Weighted :::::: 1 to 6 
Compiling lstm network...
_________________________________________________________________
Layer (type)                 Output Shape              Param #   
=================================================================
masking_7 (Masking)          (None, 334, 10)           0         
_________________________________________________________________
lstm_7 (LSTM)                (None, 334, 96)           41088     
_________________________________________________________________
dropout_19 (Dropout)         (None, 334, 96)           0         
_________________________________________________________________
dense_19 (Dense)             (None, 334, 96)           9312      
_________________________________________________________________
dropout_20 (Dropout)         (None, 334, 96)           0         
_________________________________________________________________
dense_20 (Dense)             (None, 334, 96)           9312      
_________________________________________________________________
dropout_21 (Dropout)         (None, 334, 96)           0         
_________________________________________________________________
time_distributed_7 (TimeDist (None, 334, 2)            194       
=================================================================
Total params: 59,906
Trainable params: 59,906
Non-trainable params: 0
_________________________________________________________________
None


******** Scores for LSTM (Windows:  10, 5, 10) ******** 

	roc_auc: 0.618 (+-0.06), recall: 0.469 (+-0.12), specificity: 0.767, precision: 0.299 (+-0.06) 

	Confusion matrix: 	 [1025  297] 
				 [135 128]



DROPOUT=0.2
optimizer:::::: adam lr=0.0003, decay=0.000004, amsgrad=True 
Weighted :::::: 1 to 6 
Compiling lstm network...
_________________________________________________________________
Layer (type)                 Output Shape              Param #   
=================================================================
masking_8 (Masking)          (None, 334, 10)           0         
_________________________________________________________________
lstm_8 (LSTM)                (None, 334, 96)           41088     
_________________________________________________________________
dropout_22 (Dropout)         (None, 334, 96)           0         
_________________________________________________________________
dense_22 (Dense)             (None, 334, 96)           9312      
_________________________________________________________________
dropout_23 (Dropout)         (None, 334, 96)           0         
_________________________________________________________________
dense_23 (Dense)             (None, 334, 96)           9312      
_________________________________________________________________
dropout_24 (Dropout)         (None, 334, 96)           0         
_________________________________________________________________
time_distributed_8 (TimeDist (None, 334, 2)            194       
=================================================================
Total params: 59,906
Trainable params: 59,906
Non-trainable params: 0
_________________________________________________________________
None


******** Scores for LSTM (Windows:  10, 5, 10) ******** 

	roc_auc: 0.582 (+-0.03), recall: 0.502 (+-0.12), specificity: 0.663, precision: 0.262 (+-0.06) 

	Confusion matrix: 	 [841 422] 
				 [143 161]



DROPOUT=0.2
optimizer:::::: adam lr=0.0003, decay=0.000004, amsgrad=True 
Weighted :::::: 1 to 6 
Compiling lstm network...
_________________________________________________________________
Layer (type)                 Output Shape              Param #   
=================================================================
masking_9 (Masking)          (None, 334, 10)           0         
_________________________________________________________________
lstm_9 (LSTM)                (None, 334, 96)           41088     
_________________________________________________________________
dropout_25 (Dropout)         (None, 334, 96)           0         
_________________________________________________________________
dense_25 (Dense)             (None, 334, 96)           9312      
_________________________________________________________________
dropout_26 (Dropout)         (None, 334, 96)           0         
_________________________________________________________________
dense_26 (Dense)             (None, 334, 96)           9312      
_________________________________________________________________
dropout_27 (Dropout)         (None, 334, 96)           0         
_________________________________________________________________
time_distributed_9 (TimeDist (None, 334, 2)            194       
=================================================================
Total params: 59,906
Trainable params: 59,906
Non-trainable params: 0
_________________________________________________________________
None


******** Scores for LSTM (Windows:  10, 5, 10) ******** 

	roc_auc: 0.591 (+-0.04), recall: 0.423 (+-0.11), specificity: 0.759, precision: 0.304 (+-0.11) 

	Confusion matrix: 	 [877 279] 
				 [169 121]



DROPOUT=0.2
optimizer:::::: adam lr=0.0003, decay=0.000004, amsgrad=True 
Weighted :::::: 1 to 6 
Compiling lstm network...
_________________________________________________________________
Layer (type)                 Output Shape              Param #   
=================================================================
masking_10 (Masking)         (None, 334, 10)           0         
_________________________________________________________________
lstm_10 (LSTM)               (None, 334, 96)           41088     
_________________________________________________________________
dropout_28 (Dropout)         (None, 334, 96)           0         
_________________________________________________________________
dense_28 (Dense)             (None, 334, 96)           9312      
_________________________________________________________________
dropout_29 (Dropout)         (None, 334, 96)           0         
_________________________________________________________________
dense_29 (Dense)             (None, 334, 96)           9312      
_________________________________________________________________
dropout_30 (Dropout)         (None, 334, 96)           0         
_________________________________________________________________
time_distributed_10 (TimeDis (None, 334, 2)            194       
=================================================================
Total params: 59,906
Trainable params: 59,906
Non-trainable params: 0
_________________________________________________________________
None


******** Scores for LSTM (Windows:  10, 5, 10) ******** 

	roc_auc: 0.617 (+-0.04), recall: 0.518 (+-0.05), specificity: 0.716, precision: 0.305 (+-0.04) 

	Confusion matrix: 	 [949 364] 
				 [145 160]



DROPOUT=0.2
optimizer:::::: adam lr=0.0003, decay=0.000004, amsgrad=True 
Weighted :::::: 1 to 6 
Compiling lstm network...
_________________________________________________________________
Layer (type)                 Output Shape              Param #   
=================================================================
masking_11 (Masking)         (None, 334, 10)           0         
_________________________________________________________________
lstm_11 (LSTM)               (None, 334, 96)           41088     
_________________________________________________________________
dropout_31 (Dropout)         (None, 334, 96)           0         
_________________________________________________________________
dense_31 (Dense)             (None, 334, 96)           9312      
_________________________________________________________________
dropout_32 (Dropout)         (None, 334, 96)           0         
_________________________________________________________________
dense_32 (Dense)             (None, 334, 96)           9312      
_________________________________________________________________
dropout_33 (Dropout)         (None, 334, 96)           0         
_________________________________________________________________
time_distributed_11 (TimeDis (None, 334, 2)            194       
=================================================================
Total params: 59,906
Trainable params: 59,906
Non-trainable params: 0
_________________________________________________________________
None


******** Scores for LSTM (Windows:  10, 5, 10) ******** 

	roc_auc: 0.597 (+-0.04), recall: 0.492 (+-0.19), specificity: 0.702, precision: 0.248 (+-0.06) 

	Confusion matrix: 	 [929 388] 
				 [117 138]



DROPOUT=0.2
optimizer:::::: adam lr=0.0003, decay=0.000004, amsgrad=True 
Weighted :::::: 1 to 6 
Compiling lstm network...
_________________________________________________________________
Layer (type)                 Output Shape              Param #   
=================================================================
masking_12 (Masking)         (None, 334, 10)           0         
_________________________________________________________________
lstm_12 (LSTM)               (None, 334, 96)           41088     
_________________________________________________________________
dropout_34 (Dropout)         (None, 334, 96)           0         
_________________________________________________________________
dense_34 (Dense)             (None, 334, 96)           9312      
_________________________________________________________________
dropout_35 (Dropout)         (None, 334, 96)           0         
_________________________________________________________________
dense_35 (Dense)             (None, 334, 96)           9312      
_________________________________________________________________
dropout_36 (Dropout)         (None, 334, 96)           0         
_________________________________________________________________
time_distributed_12 (TimeDis (None, 334, 2)            194       
=================================================================
Total params: 59,906
Trainable params: 59,906
Non-trainable params: 0
_________________________________________________________________
None


******** Scores for LSTM (Windows:  10, 5, 10) ******** 

	roc_auc: 0.596 (+-0.04), recall: 0.401 (+-0.11), specificity: 0.790, precision: 0.341 (+-0.09) 

	Confusion matrix: 	 [919 244] 
				 [190 125]



DROPOUT=0.2
optimizer:::::: adam lr=0.0003, decay=0.000004, amsgrad=True 
Weighted :::::: 1 to 6 
Compiling lstm network...
_________________________________________________________________
Layer (type)                 Output Shape              Param #   
=================================================================
masking_13 (Masking)         (None, 334, 10)           0         
_________________________________________________________________
lstm_13 (LSTM)               (None, 334, 96)           41088     
_________________________________________________________________
dropout_37 (Dropout)         (None, 334, 96)           0         
_________________________________________________________________
dense_37 (Dense)             (None, 334, 96)           9312      
_________________________________________________________________
dropout_38 (Dropout)         (None, 334, 96)           0         
_________________________________________________________________
dense_38 (Dense)             (None, 334, 96)           9312      
_________________________________________________________________
dropout_39 (Dropout)         (None, 334, 96)           0         
_________________________________________________________________
time_distributed_13 (TimeDis (None, 334, 2)            194       
=================================================================
Total params: 59,906
Trainable params: 59,906
Non-trainable params: 0
_________________________________________________________________
None


******** Scores for LSTM (Windows:  10, 5, 10) ******** 

	roc_auc: 0.615 (+-0.05), recall: 0.421 (+-0.12), specificity: 0.810, precision: 0.305 (+-0.06) 

	Confusion matrix: 	 [1065  236] 
				 [137 110]



DROPOUT=0.2
optimizer:::::: adam lr=0.0003, decay=0.000004, amsgrad=True 
Weighted :::::: 1 to 6 
Compiling lstm network...
_________________________________________________________________
Layer (type)                 Output Shape              Param #   
=================================================================
masking_14 (Masking)         (None, 334, 10)           0         
_________________________________________________________________
lstm_14 (LSTM)               (None, 334, 96)           41088     
_________________________________________________________________
dropout_40 (Dropout)         (None, 334, 96)           0         
_________________________________________________________________
dense_40 (Dense)             (None, 334, 96)           9312      
_________________________________________________________________
dropout_41 (Dropout)         (None, 334, 96)           0         
_________________________________________________________________
dense_41 (Dense)             (None, 334, 96)           9312      
_________________________________________________________________
dropout_42 (Dropout)         (None, 334, 96)           0         
_________________________________________________________________
time_distributed_14 (TimeDis (None, 334, 2)            194       
=================================================================
Total params: 59,906
Trainable params: 59,906
Non-trainable params: 0
_________________________________________________________________
None


******** Scores for LSTM (Windows:  10, 5, 10) ******** 

	roc_auc: 0.579 (+-0.03), recall: 0.412 (+-0.13), specificity: 0.746, precision: 0.252 (+-0.06) 

	Confusion matrix: 	 [951 315] 
				 [144 118]



DROPOUT=0.2
optimizer:::::: adam lr=0.0003, decay=0.000004, amsgrad=True 
Weighted :::::: 1 to 6 
Compiling lstm network...
_________________________________________________________________
Layer (type)                 Output Shape              Param #   
=================================================================
masking_15 (Masking)         (None, 334, 10)           0         
_________________________________________________________________
lstm_15 (LSTM)               (None, 334, 96)           41088     
_________________________________________________________________
dropout_43 (Dropout)         (None, 334, 96)           0         
_________________________________________________________________
dense_43 (Dense)             (None, 334, 96)           9312      
_________________________________________________________________
dropout_44 (Dropout)         (None, 334, 96)           0         
_________________________________________________________________
dense_44 (Dense)             (None, 334, 96)           9312      
_________________________________________________________________
dropout_45 (Dropout)         (None, 334, 96)           0         
_________________________________________________________________
time_distributed_15 (TimeDis (None, 334, 2)            194       
=================================================================
Total params: 59,906
Trainable params: 59,906
Non-trainable params: 0
_________________________________________________________________
None


******** Scores for LSTM (Windows:  10, 5, 10) ******** 

	roc_auc: 0.604 (+-0.04), recall: 0.463 (+-0.15), specificity: 0.744, precision: 0.310 (+-0.12) 

	Confusion matrix: 	 [863 318] 
				 [170 119]



DROPOUT=0.2
optimizer:::::: adam lr=0.0003, decay=0.000004, amsgrad=True 
Weighted :::::: 1 to 6 
Compiling lstm network...
_________________________________________________________________
Layer (type)                 Output Shape              Param #   
=================================================================
masking_16 (Masking)         (None, 334, 10)           0         
_________________________________________________________________
lstm_16 (LSTM)               (None, 334, 96)           41088     
_________________________________________________________________
dropout_46 (Dropout)         (None, 334, 96)           0         
_________________________________________________________________
dense_46 (Dense)             (None, 334, 96)           9312      
_________________________________________________________________
dropout_47 (Dropout)         (None, 334, 96)           0         
_________________________________________________________________
dense_47 (Dense)             (None, 334, 96)           9312      
_________________________________________________________________
dropout_48 (Dropout)         (None, 334, 96)           0         
_________________________________________________________________
time_distributed_16 (TimeDis (None, 334, 2)            194       
=================================================================
Total params: 59,906
Trainable params: 59,906
Non-trainable params: 0
_________________________________________________________________
None


******** Scores for LSTM (Windows:  10, 5, 10) ******** 

	roc_auc: 0.579 (+-0.03), recall: 0.423 (+-0.13), specificity: 0.735, precision: 0.273 (+-0.05) 

	Confusion matrix: 	 [908 320] 
				 [153 128]



DROPOUT=0.2
optimizer:::::: adam lr=0.0003, decay=0.000004, amsgrad=True 
Weighted :::::: 1 to 6 
Compiling lstm network...
_________________________________________________________________
Layer (type)                 Output Shape              Param #   
=================================================================
masking_17 (Masking)         (None, 334, 10)           0         
_________________________________________________________________
lstm_17 (LSTM)               (None, 334, 96)           41088     
_________________________________________________________________
dropout_49 (Dropout)         (None, 334, 96)           0         
_________________________________________________________________
dense_49 (Dense)             (None, 334, 96)           9312      
_________________________________________________________________
dropout_50 (Dropout)         (None, 334, 96)           0         
_________________________________________________________________
dense_50 (Dense)             (None, 334, 96)           9312      
_________________________________________________________________
dropout_51 (Dropout)         (None, 334, 96)           0         
_________________________________________________________________
time_distributed_17 (TimeDis (None, 334, 2)            194       
=================================================================
Total params: 59,906
Trainable params: 59,906
Non-trainable params: 0
_________________________________________________________________
None


******** Scores for LSTM (Windows:  10, 5, 10) ******** 

	roc_auc: 0.591 (+-0.06), recall: 0.468 (+-0.12), specificity: 0.713, precision: 0.251 (+-0.08) 

	Confusion matrix: 	 [950 379] 
				 [132 125]



DROPOUT=0.2
optimizer:::::: adam lr=0.0003, decay=0.000004, amsgrad=True 
Weighted :::::: 1 to 6 
Compiling lstm network...
_________________________________________________________________
Layer (type)                 Output Shape              Param #   
=================================================================
masking_18 (Masking)         (None, 334, 10)           0         
_________________________________________________________________
lstm_18 (LSTM)               (None, 334, 96)           41088     
_________________________________________________________________
dropout_52 (Dropout)         (None, 334, 96)           0         
_________________________________________________________________
dense_52 (Dense)             (None, 334, 96)           9312      
_________________________________________________________________
dropout_53 (Dropout)         (None, 334, 96)           0         
_________________________________________________________________
dense_53 (Dense)             (None, 334, 96)           9312      
_________________________________________________________________
dropout_54 (Dropout)         (None, 334, 96)           0         
_________________________________________________________________
time_distributed_18 (TimeDis (None, 334, 2)            194       
=================================================================
Total params: 59,906
Trainable params: 59,906
Non-trainable params: 0
_________________________________________________________________
None


******** Scores for LSTM (Windows:  10, 5, 10) ******** 

	roc_auc: 0.611 (+-0.05), recall: 0.529 (+-0.18), specificity: 0.694, precision: 0.288 (+-0.05) 

	Confusion matrix: 	 [895 383] 
				 [130 168]



DROPOUT=0.2
optimizer:::::: adam lr=0.0003, decay=0.000004, amsgrad=True 
Weighted :::::: 1 to 6 
Compiling lstm network...
_________________________________________________________________
Layer (type)                 Output Shape              Param #   
=================================================================
masking_19 (Masking)         (None, 334, 10)           0         
_________________________________________________________________
lstm_19 (LSTM)               (None, 334, 96)           41088     
_________________________________________________________________
dropout_55 (Dropout)         (None, 334, 96)           0         
_________________________________________________________________
dense_55 (Dense)             (None, 334, 96)           9312      
_________________________________________________________________
dropout_56 (Dropout)         (None, 334, 96)           0         
_________________________________________________________________
dense_56 (Dense)             (None, 334, 96)           9312      
_________________________________________________________________
dropout_57 (Dropout)         (None, 334, 96)           0         
_________________________________________________________________
time_distributed_19 (TimeDis (None, 334, 2)            194       
=================================================================
Total params: 59,906
Trainable params: 59,906
Non-trainable params: 0
_________________________________________________________________
None


******** Scores for LSTM (Windows:  10, 5, 10) ******** 

	roc_auc: 0.587 (+-0.05), recall: 0.463 (+-0.07), specificity: 0.711, precision: 0.254 (+-0.05) 

	Confusion matrix: 	 [915 368] 
				 [141 123]



DROPOUT=0.2
optimizer:::::: adam lr=0.0003, decay=0.000004, amsgrad=True 
Weighted :::::: 1 to 6 
Compiling lstm network...
_________________________________________________________________
Layer (type)                 Output Shape              Param #   
=================================================================
masking_20 (Masking)         (None, 334, 10)           0         
_________________________________________________________________
lstm_20 (LSTM)               (None, 334, 96)           41088     
_________________________________________________________________
dropout_58 (Dropout)         (None, 334, 96)           0         
_________________________________________________________________
dense_58 (Dense)             (None, 334, 96)           9312      
_________________________________________________________________
dropout_59 (Dropout)         (None, 334, 96)           0         
_________________________________________________________________
dense_59 (Dense)             (None, 334, 96)           9312      
_________________________________________________________________
dropout_60 (Dropout)         (None, 334, 96)           0         
_________________________________________________________________
time_distributed_20 (TimeDis (None, 334, 2)            194       
=================================================================
Total params: 59,906
Trainable params: 59,906
Non-trainable params: 0
_________________________________________________________________
None


******** Scores for LSTM (Windows:  10, 5, 10) ******** 

	roc_auc: 0.633 (+-0.08), recall: 0.549 (+-0.14), specificity: 0.717, precision: 0.337 (+-0.08) 

	Confusion matrix: 	 [898 344] 
				 [140 179]



DROPOUT=0.2
optimizer:::::: adam lr=0.0003, decay=0.000004, amsgrad=True 
Weighted :::::: 1 to 6 
Compiling lstm network...
_________________________________________________________________
Layer (type)                 Output Shape              Param #   
=================================================================
masking_21 (Masking)         (None, 334, 10)           0         
_________________________________________________________________
lstm_21 (LSTM)               (None, 334, 96)           41088     
_________________________________________________________________
dropout_61 (Dropout)         (None, 334, 96)           0         
_________________________________________________________________
dense_61 (Dense)             (None, 334, 96)           9312      
_________________________________________________________________
dropout_62 (Dropout)         (None, 334, 96)           0         
_________________________________________________________________
dense_62 (Dense)             (None, 334, 96)           9312      
_________________________________________________________________
dropout_63 (Dropout)         (None, 334, 96)           0         
_________________________________________________________________
time_distributed_21 (TimeDis (None, 334, 2)            194       
=================================================================
Total params: 59,906
Trainable params: 59,906
Non-trainable params: 0
_________________________________________________________________
None


******** Scores for LSTM (Windows:  10, 5, 10) ******** 

	roc_auc: 0.599 (+-0.06), recall: 0.489 (+-0.16), specificity: 0.709, precision: 0.287 (+-0.07) 

	Confusion matrix: 	 [886 356] 
				 [145 156]



DROPOUT=0.2
optimizer:::::: adam lr=0.0003, decay=0.000004, amsgrad=True 
Weighted :::::: 1 to 6 
Compiling lstm network...
_________________________________________________________________
Layer (type)                 Output Shape              Param #   
=================================================================
masking_22 (Masking)         (None, 334, 10)           0         
_________________________________________________________________
lstm_22 (LSTM)               (None, 334, 96)           41088     
_________________________________________________________________
dropout_64 (Dropout)         (None, 334, 96)           0         
_________________________________________________________________
dense_64 (Dense)             (None, 334, 96)           9312      
_________________________________________________________________
dropout_65 (Dropout)         (None, 334, 96)           0         
_________________________________________________________________
dense_65 (Dense)             (None, 334, 96)           9312      
_________________________________________________________________
dropout_66 (Dropout)         (None, 334, 96)           0         
_________________________________________________________________
time_distributed_22 (TimeDis (None, 334, 2)            194       
=================================================================
Total params: 59,906
Trainable params: 59,906
Non-trainable params: 0
_________________________________________________________________
None


******** Scores for LSTM (Windows:  10, 5, 10) ******** 

	roc_auc: 0.582 (+-0.08), recall: 0.448 (+-0.13), specificity: 0.717, precision: 0.230 (+-0.09) 

	Confusion matrix: 	 [963 379] 
				 [127 106]



DROPOUT=0.2
optimizer:::::: adam lr=0.0003, decay=0.000004, amsgrad=True 
Weighted :::::: 1 to 6 
Compiling lstm network...
_________________________________________________________________
Layer (type)                 Output Shape              Param #   
=================================================================
masking_23 (Masking)         (None, 334, 10)           0         
_________________________________________________________________
lstm_23 (LSTM)               (None, 334, 96)           41088     
_________________________________________________________________
dropout_67 (Dropout)         (None, 334, 96)           0         
_________________________________________________________________
dense_67 (Dense)             (None, 334, 96)           9312      
_________________________________________________________________
dropout_68 (Dropout)         (None, 334, 96)           0         
_________________________________________________________________
dense_68 (Dense)             (None, 334, 96)           9312      
_________________________________________________________________
dropout_69 (Dropout)         (None, 334, 96)           0         
_________________________________________________________________
time_distributed_23 (TimeDis (None, 334, 2)            194       
=================================================================
Total params: 59,906
Trainable params: 59,906
Non-trainable params: 0
_________________________________________________________________
None


******** Scores for LSTM (Windows:  10, 5, 10) ******** 

	roc_auc: 0.558 (+-0.03), recall: 0.340 (+-0.11), specificity: 0.776, precision: 0.313 (+-0.11) 

	Confusion matrix: 	 [857 249] 
				 [210 113]



DROPOUT=0.2
optimizer:::::: adam lr=0.0003, decay=0.000004, amsgrad=True 
Weighted :::::: 1 to 6 
Compiling lstm network...
_________________________________________________________________
Layer (type)                 Output Shape              Param #   
=================================================================
masking_24 (Masking)         (None, 334, 10)           0         
_________________________________________________________________
lstm_24 (LSTM)               (None, 334, 96)           41088     
_________________________________________________________________
dropout_70 (Dropout)         (None, 334, 96)           0         
_________________________________________________________________
dense_70 (Dense)             (None, 334, 96)           9312      
_________________________________________________________________
dropout_71 (Dropout)         (None, 334, 96)           0         
_________________________________________________________________
dense_71 (Dense)             (None, 334, 96)           9312      
_________________________________________________________________
dropout_72 (Dropout)         (None, 334, 96)           0         
_________________________________________________________________
time_distributed_24 (TimeDis (None, 334, 2)            194       
=================================================================
Total params: 59,906
Trainable params: 59,906
Non-trainable params: 0
_________________________________________________________________
None


******** Scores for LSTM (Windows:  10, 5, 10) ******** 

	roc_auc: 0.599 (+-0.07), recall: 0.446 (+-0.18), specificity: 0.753, precision: 0.360 (+-0.11) 

	Confusion matrix: 	 [830 285] 
				 [196 159]



DROPOUT=0.2
optimizer:::::: adam lr=0.0003, decay=0.000004, amsgrad=True 
Weighted :::::: 1 to 6 
Compiling lstm network...
_________________________________________________________________
Layer (type)                 Output Shape              Param #   
=================================================================
masking_25 (Masking)         (None, 334, 10)           0         
_________________________________________________________________
lstm_25 (LSTM)               (None, 334, 96)           41088     
_________________________________________________________________
dropout_73 (Dropout)         (None, 334, 96)           0         
_________________________________________________________________
dense_73 (Dense)             (None, 334, 96)           9312      
_________________________________________________________________
dropout_74 (Dropout)         (None, 334, 96)           0         
_________________________________________________________________
dense_74 (Dense)             (None, 334, 96)           9312      
_________________________________________________________________
dropout_75 (Dropout)         (None, 334, 96)           0         
_________________________________________________________________
time_distributed_25 (TimeDis (None, 334, 2)            194       
=================================================================
Total params: 59,906
Trainable params: 59,906
Non-trainable params: 0
_________________________________________________________________
None


******** Scores for LSTM (Windows:  10, 5, 10) ******** 

	roc_auc: 0.583 (+-0.03), recall: 0.482 (+-0.12), specificity: 0.683, precision: 0.304 (+-0.08) 

	Confusion matrix: 	 [798 371] 
…
