…
16/16 [==============================] - 2s 109ms/step - loss: 0.9776
Epoch 497/500

16/16 [==============================] - 2s 109ms/step - loss: 0.9741
Epoch 498/500

16/16 [==============================] - 2s 110ms/step - loss: 0.9783
Epoch 499/500

16/16 [==============================] - 2s 109ms/step - loss: 0.9776
Epoch 500/500

16/16 [==============================] - 2s 109ms/step - loss: 0.9781
_________________________________________________________________
Layer (type)                 Output Shape              Param #   
=================================================================
masking_1 (Masking)          (None, 334, 10)           0         
_________________________________________________________________
lstm_1 (LSTM)                (None, 334, 512)          1071104   
_________________________________________________________________
activation_1 (Activation)    (None, 334, 512)          0         
_________________________________________________________________
dropout_1 (Dropout)          (None, 334, 512)          0         
_________________________________________________________________
dense_1 (Dense)              (None, 334, 256)          131328    
_________________________________________________________________
activation_2 (Activation)    (None, 334, 256)          0         
_________________________________________________________________
dropout_2 (Dropout)          (None, 334, 256)          0         
_________________________________________________________________
dense_2 (Dense)              (None, 334, 128)          32896     
_________________________________________________________________
activation_3 (Activation)    (None, 334, 128)          0         
_________________________________________________________________
dropout_3 (Dropout)          (None, 334, 128)          0         
_________________________________________________________________
time_distributed_1 (TimeDist (None, 334, 2)            258       
=================================================================
Total params: 1,235,586
Trainable params: 1,235,586
Non-trainable params: 0
_________________________________________________________________
None
Performance training set: 
[… ******** Scores for LSTM (Windows:  10, 5, 10) ******** 

	roc_auc: 0.581 (+-0.07), recall: 0.318 (+-0.23), specificity: 0.845, precision: 0.339 (+-0.12) 
…
