…
16/16 [==============================] - 0s 21ms/step - loss: 0.1185
Epoch 497/500

16/16 [==============================] - 0s 21ms/step - loss: 0.1035
Epoch 498/500

16/16 [==============================] - 0s 21ms/step - loss: 0.1206
Epoch 499/500

16/16 [==============================] - 0s 21ms/step - loss: 0.0901
Epoch 500/500

16/16 [==============================] - 0s 21ms/step - loss: 0.1158
_________________________________________________________________
Layer (type)                 Output Shape              Param #   
=================================================================
masking_1 (Masking)          (None, 334, 10)           0         
_________________________________________________________________
lstm_1 (LSTM)                (None, 334, 128)          71168     
_________________________________________________________________
activation_1 (Activation)    (None, 334, 128)          0         
_________________________________________________________________
dropout_1 (Dropout)          (None, 334, 128)          0         
_________________________________________________________________
dense_1 (Dense)              (None, 334, 96)           12384     
_________________________________________________________________
activation_2 (Activation)    (None, 334, 96)           0         
_________________________________________________________________
dropout_2 (Dropout)          (None, 334, 96)           0         
_________________________________________________________________
dense_2 (Dense)              (None, 334, 64)           6208      
_________________________________________________________________
activation_3 (Activation)    (None, 334, 64)           0         
_________________________________________________________________
dropout_3 (Dropout)          (None, 334, 64)           0         
_________________________________________________________________
time_distributed_1 (TimeDist (None, 334, 2)            130       
=================================================================
Total params: 89,890
Trainable params: 89,890
Non-trainable params: 0
_________________________________________________________________
None
Performance training set: 
[… ******** Scores for LSTM (Windows:  10, 5, 10) ******** 

	roc_auc: 0.996 (+-0.00), recall: 1.000 (+-0.00), specificity: 0.992, precision: 0.961 (+-0.02) 

…
