…
16/16 [==============================] - 2s 116ms/step - loss: 1.0183
Epoch 97/100

16/16 [==============================] - 2s 115ms/step - loss: 1.0055
Epoch 98/100

16/16 [==============================] - 2s 115ms/step - loss: 1.0092
Epoch 99/100

16/16 [==============================] - 2s 117ms/step - loss: 1.0091
Epoch 100/100

16/16 [==============================] - 2s 107ms/step - loss: 1.0138
_________________________________________________________________
Layer (type)                 Output Shape              Param #   
=================================================================
masking_1 (Masking)          (None, 334, 10)           0         
_________________________________________________________________
lstm_1 (LSTM)                (None, 334, 512)          1071104   
_________________________________________________________________
activation_1 (Activation)    (None, 334, 512)          0         
_________________________________________________________________
dropout_1 (Dropout)          (None, 334, 512)          0         
_________________________________________________________________
dense_1 (Dense)              (None, 334, 256)          131328    
_________________________________________________________________
activation_2 (Activation)    (None, 334, 256)          0         
_________________________________________________________________
dropout_2 (Dropout)          (None, 334, 256)          0         
_________________________________________________________________
dense_2 (Dense)              (None, 334, 128)          32896     
_________________________________________________________________
activation_3 (Activation)    (None, 334, 128)          0         
_________________________________________________________________
dropout_3 (Dropout)          (None, 334, 128)          0         
_________________________________________________________________
time_distributed_1 (TimeDist (None, 334, 2)            258       
=================================================================
Total params: 1,235,586
Trainable params: 1,235,586
Non-trainable params: 0
_________________________________________________________________
None
Performance training set: 
[… ******** Scores for LSTM (Windows:  10, 5, 10) ******** 

	roc_auc: 0.615 (+-0.06), recall: 0.473 (+-0.12), specificity: 0.757, precision: 0.284 (+-0.10) 
…
