…
16/16 [==============================] - 0s 23ms/step - loss: 5.4376e-05
Epoch 1997/2000

16/16 [==============================] - 0s 23ms/step - loss: 5.4289e-05
Epoch 1998/2000

16/16 [==============================] - 0s 23ms/step - loss: 5.4254e-05
Epoch 1999/2000

16/16 [==============================] - 0s 22ms/step - loss: 5.4220e-05
Epoch 2000/2000

16/16 [==============================] - 0s 23ms/step - loss: 5.4167e-05
_________________________________________________________________
Layer (type)                 Output Shape              Param #   
=================================================================
masking_1 (Masking)          (None, 334, 10)           0         
_________________________________________________________________
lstm_1 (LSTM)                (None, 334, 128)          71168     
_________________________________________________________________
activation_1 (Activation)    (None, 334, 128)          0         
_________________________________________________________________
batch_normalization_1 (Batch (None, 334, 128)          512       
_________________________________________________________________
dense_1 (Dense)              (None, 334, 96)           12384     
_________________________________________________________________
activation_2 (Activation)    (None, 334, 96)           0         
_________________________________________________________________
batch_normalization_2 (Batch (None, 334, 96)           384       
_________________________________________________________________
dense_2 (Dense)              (None, 334, 64)           6208      
_________________________________________________________________
activation_3 (Activation)    (None, 334, 64)           0         
_________________________________________________________________
batch_normalization_3 (Batch (None, 334, 64)           256       
_________________________________________________________________
time_distributed_1 (TimeDist (None, 334, 2)            130       
=================================================================
Total params: 91,042
Trainable params: 90,466
Non-trainable params: 576
_________________________________________________________________
None
Performance training set: 
[… ******** Scores for LSTM (Windows:  10, 5, 10) ******** 

	roc_auc: 1.000 (+-0.00), recall: 1.000 (+-0.00), specificity: 1.000, precision: 1.000 (+-0.00) 
…
