…
16/16 [==============================] - 0s 24ms/step - loss: 0.0038
Epoch 297/300

16/16 [==============================] - 0s 24ms/step - loss: 0.0037
Epoch 298/300

16/16 [==============================] - 0s 24ms/step - loss: 0.0037
Epoch 299/300

16/16 [==============================] - 0s 24ms/step - loss: 0.0036
Epoch 300/300

16/16 [==============================] - 0s 24ms/step - loss: 0.0036
_________________________________________________________________
Layer (type)                 Output Shape              Param #   
=================================================================
masking_1 (Masking)          (None, 334, 10)           0         
_________________________________________________________________
lstm_1 (LSTM)                (None, 334, 128)          71168     
_________________________________________________________________
activation_1 (Activation)    (None, 334, 128)          0         
_________________________________________________________________
batch_normalization_1 (Batch (None, 334, 128)          512       
_________________________________________________________________
dense_1 (Dense)              (None, 334, 96)           12384     
_________________________________________________________________
activation_2 (Activation)    (None, 334, 96)           0         
_________________________________________________________________
batch_normalization_2 (Batch (None, 334, 96)           384       
_________________________________________________________________
dense_2 (Dense)              (None, 334, 64)           6208      
_________________________________________________________________
activation_3 (Activation)    (None, 334, 64)           0         
_________________________________________________________________
batch_normalization_3 (Batch (None, 334, 64)           256       
_________________________________________________________________
time_distributed_1 (TimeDist (None, 334, 2)            130       
=================================================================
Total params: 91,042
Trainable params: 90,466
Non-trainable params: 576
_________________________________________________________________
None
Performance training set: 
[… ******** Scores for LSTM (Windows:  10, 5, 10) ******** 

	roc_auc: 0.552 (+-0.03), recall: 0.117 (+-0.06), specificity: 0.988, precision: 0.671 (+-0.19) 
…
