…
16/16 [==============================] - 1s 33ms/step - loss: 0.0624
Epoch 197/200

16/16 [==============================] - 1s 33ms/step - loss: 0.0590
Epoch 198/200

16/16 [==============================] - 1s 33ms/step - loss: 0.0560
Epoch 199/200

16/16 [==============================] - 1s 33ms/step - loss: 0.0535
Epoch 200/200

16/16 [==============================] - 1s 34ms/step - loss: 0.0491
_________________________________________________________________
Layer (type)                 Output Shape              Param #   
=================================================================
masking_1 (Masking)          (None, 334, 10)           0         
_________________________________________________________________
lstm_1 (LSTM)                (None, 334, 196)          162288    
_________________________________________________________________
activation_1 (Activation)    (None, 334, 196)          0         
_________________________________________________________________
batch_normalization_1 (Batch (None, 334, 196)          784       
_________________________________________________________________
dense_1 (Dense)              (None, 334, 128)          25216     
_________________________________________________________________
activation_2 (Activation)    (None, 334, 128)          0         
_________________________________________________________________
batch_normalization_2 (Batch (None, 334, 128)          512       
_________________________________________________________________
dense_2 (Dense)              (None, 334, 32)           4128      
_________________________________________________________________
activation_3 (Activation)    (None, 334, 32)           0         
_________________________________________________________________
batch_normalization_3 (Batch (None, 334, 32)           128       
_________________________________________________________________
time_distributed_1 (TimeDist (None, 334, 2)            66        
=================================================================
Total params: 193,122
Trainable params: 192,410
Non-trainable params: 712
_________________________________________________________________
None
Performance training set: 
[… ******** Scores for LSTM (Windows:  10, 5, 10) ******** 

	roc_auc: 0.514 (+-0.05), recall: 0.921 (+-0.04), specificity: 0.107, precision: 0.164 (+-0.05) 
…
