…
16/16 [==============================] - 0s 19ms/step - loss: 1.8536
Epoch 7/10

16/16 [==============================] - 0s 18ms/step - loss: 1.7121
Epoch 8/10

16/16 [==============================] - 0s 18ms/step - loss: 1.5883
Epoch 9/10

16/16 [==============================] - 0s 18ms/step - loss: 1.4750
Epoch 10/10

16/16 [==============================] - 0s 18ms/step - loss: 1.3890
_________________________________________________________________
Layer (type)                 Output Shape              Param #   
=================================================================
masking_1 (Masking)          (None, 334, 10)           0         
_________________________________________________________________
lstm_1 (LSTM)                (None, 334, 128)          71168     
_________________________________________________________________
activation_1 (Activation)    (None, 334, 128)          0         
_________________________________________________________________
dense_1 (Dense)              (None, 334, 96)           12384     
_________________________________________________________________
activation_2 (Activation)    (None, 334, 96)           0         
_________________________________________________________________
dense_2 (Dense)              (None, 334, 64)           6208      
_________________________________________________________________
activation_3 (Activation)    (None, 334, 64)           0         
_________________________________________________________________
time_distributed_1 (TimeDist (None, 334, 2)            130       
=================================================================
Total params: 89,890
Trainable params: 89,890
Non-trainable params: 0
_________________________________________________________________
None
Performance training set: 
[… ******** Scores for LSTM (Windows:  10, 5, 10) ******** 

	roc_auc: 0.579 (+-0.05), recall: 0.539 (+-0.16), specificity: 0.619, precision: 0.223 (+-0.06) 

…
