…
13/13 [==============================] - 4s 307ms/step - loss: 0.0128 - val_loss: 12.0019
Epoch 998/1000

13/13 [==============================] - 4s 308ms/step - loss: 0.0090 - val_loss: 11.9946
Epoch 999/1000

13/13 [==============================] - 4s 307ms/step - loss: 0.0100 - val_loss: 11.9759
Epoch 1000/1000

13/13 [==============================] - 4s 306ms/step - loss: 0.0079 - val_loss: 11.9811
Using TensorFlow backend.
_________________________________________________________________
Layer (type)                 Output Shape              Param #   
=================================================================
masking_1 (Masking)          (None, 334, 10)           0         
_________________________________________________________________
lstm_1 (LSTM)                (None, 334, 256)          273408    
_________________________________________________________________
dropout_1 (Dropout)          (None, 334, 256)          0         
_________________________________________________________________
lstm_2 (LSTM)                (None, 334, 512)          1574912   
_________________________________________________________________
dropout_2 (Dropout)          (None, 334, 512)          0         
_________________________________________________________________
lstm_3 (LSTM)                (None, 334, 256)          787456    
_________________________________________________________________
dense_1 (Dense)              (None, 334, 256)          65792     
_________________________________________________________________
time_distributed_1 (TimeDist (None, 334, 2)            514       
=================================================================
Total params: 2,702,082
Trainable params: 2,702,082
Non-trainable params: 0
_________________________________________________________________
None


******** Scores for LSTM (Windows:  10, 5, 10) ******** 

	roc_auc: 0.883 (+-0.21), recall: 0.827 (+-0.31), specificity: 0.939, precision: 0.797 (+-0.36) 

	Confusion matrix: 	 [4424  295] 
…
