…
13/13 [==============================] - 1s 54ms/step - loss: 5.2007e-06 - val_loss: 12.4858
Epoch 9998/10000

13/13 [==============================] - 1s 53ms/step - loss: 5.1971e-06 - val_loss: 12.4859
Epoch 9999/10000

13/13 [==============================] - 1s 54ms/step - loss: 5.1935e-06 - val_loss: 12.4859
Epoch 10000/10000

13/13 [==============================] - 1s 54ms/step - loss: 5.1896e-06 - val_loss: 12.4860
Using TensorFlow backend.
_________________________________________________________________
Layer (type)                 Output Shape              Param #   
=================================================================
masking_1 (Masking)          (None, 334, 10)           0         
_________________________________________________________________
lstm_1 (LSTM)                (None, 334, 196)          162288    
_________________________________________________________________
dense_1 (Dense)              (None, 334, 128)          25216     
_________________________________________________________________
dense_2 (Dense)              (None, 334, 64)           8256      
_________________________________________________________________
lstm_2 (LSTM)                (None, 334, 64)           33024     
_________________________________________________________________
dense_3 (Dense)              (None, 334, 32)           2080      
_________________________________________________________________
time_distributed_1 (TimeDist (None, 334, 2)            66        
=================================================================
Total params: 230,930
Trainable params: 230,930
Non-trainable params: 0
_________________________________________________________________
None


******** Scores for LSTM (Windows:  10, 5, 10) ******** 

	roc_auc: 0.877 (+-0.22), recall: 0.822 (+-0.32), specificity: 0.931, precision: 0.790 (+-0.38) 

	Confusion matrix: 	 [4357  342] 
…
