…
12/12 [==============================] - 0s 24ms/step - loss: 0.3578 - roc_auc: 0.9147 - acc: 0.8679 - val_loss: 0.4896 - val_roc_auc: 0.9147 - val_acc: 0.8095
Epoch 799/800

12/12 [==============================] - 0s 24ms/step - loss: 0.3492 - roc_auc: 0.9147 - acc: 0.8687 - val_loss: 0.4957 - val_roc_auc: 0.9147 - val_acc: 0.7933
Epoch 800/800

12/12 [==============================] - 0s 24ms/step - loss: 0.3550 - roc_auc: 0.9146 - acc: 0.8565 - val_loss: 0.4843 - val_roc_auc: 0.9147 - val_acc: 0.8002
_________________________________________________________________
Layer (type)                 Output Shape              Param #   
=================================================================
masking_1 (Masking)          (None, 336, 2)            0         
_________________________________________________________________
dropout_1 (Dropout)          (None, 336, 2)            0         
_________________________________________________________________
lstm_1 (LSTM)                (None, 336, 32)           4480      
_________________________________________________________________
dropout_2 (Dropout)          (None, 336, 32)           0         
_________________________________________________________________
dense_1 (Dense)              (None, 336, 32)           1056      
_________________________________________________________________
dropout_3 (Dropout)          (None, 336, 32)           0         
_________________________________________________________________
time_distributed_1 (TimeDist (None, 336, 2)            66        
=================================================================
Total params: 5,602
Trainable params: 5,602
Non-trainable params: 0
_________________________________________________________________
None

******** Scores for LSTM (Windows:  3, 3, 3) ******** 

	roc_auc: 0.646, recall: 0.333, specificity: 0.959, precision: 0.646 

	Confusion matrix: 	 [1204   51] 
				 [186  93]



Time elapsed: 240.81560897827148
