…
18/18 [==============================] - 0s 20ms/step - loss: 0.1873 - auc_roc: 0.9557
Epoch 2998/3000

18/18 [==============================] - 0s 20ms/step - loss: 0.1789 - auc_roc: 0.9557
Epoch 2999/3000

18/18 [==============================] - 0s 20ms/step - loss: 0.1800 - auc_roc: 0.9557
Epoch 3000/3000

18/18 [==============================] - 0s 20ms/step - loss: 0.1738 - auc_roc: 0.9557
_________________________________________________________________
Layer (type)                 Output Shape              Param #   
=================================================================
masking_1 (Masking)          (None, 336, 2)            0         
_________________________________________________________________
dropout_1 (Dropout)          (None, 336, 2)            0         
_________________________________________________________________
lstm_1 (LSTM)                (None, 336, 32)           4480      
_________________________________________________________________
dropout_2 (Dropout)          (None, 336, 32)           0         
_________________________________________________________________
dense_1 (Dense)              (None, 336, 32)           1056      
_________________________________________________________________
dropout_3 (Dropout)          (None, 336, 32)           0         
_________________________________________________________________
time_distributed_1 (TimeDist (None, 336, 2)            66        
=================================================================
Total params: 5,602
Trainable params: 5,602
Non-trainable params: 0
_________________________________________________________________
None

******** Scores for LSTM (Windows:  3, 3, 3) ******** 

	roc_auc: 0.780, recall: 0.730, specificity: 0.830, precision: 0.433 

	Confusion matrix: 	 [416  85] 
				 [24 65]



Time elapsed: 1080.8598458766937
