…
12/12 [==============================] - 0s 24ms/step - loss: 0.1523 - roc_auc: 0.9402 - acc: 0.9410 - val_loss: 0.8854 - val_roc_auc: 0.9402 - val_acc: 0.6807
Epoch 1999/2000

12/12 [==============================] - 0s 24ms/step - loss: 0.1769 - roc_auc: 0.9402 - acc: 0.9368 - val_loss: 0.9054 - val_roc_auc: 0.9402 - val_acc: 0.6817
Epoch 2000/2000

12/12 [==============================] - 0s 24ms/step - loss: 0.1524 - roc_auc: 0.9402 - acc: 0.9462 - val_loss: 0.9406 - val_roc_auc: 0.9402 - val_acc: 0.6838
_________________________________________________________________
Layer (type)                 Output Shape              Param #   
=================================================================
masking_1 (Masking)          (None, 336, 2)            0         
_________________________________________________________________
dropout_1 (Dropout)          (None, 336, 2)            0         
_________________________________________________________________
lstm_1 (LSTM)                (None, 336, 32)           4480      
_________________________________________________________________
dropout_2 (Dropout)          (None, 336, 32)           0         
_________________________________________________________________
dense_1 (Dense)              (None, 336, 32)           1056      
_________________________________________________________________
dropout_3 (Dropout)          (None, 336, 32)           0         
_________________________________________________________________
time_distributed_1 (TimeDist (None, 336, 2)            66        
=================================================================
Total params: 5,602
Trainable params: 5,602
Non-trainable params: 0
_________________________________________________________________
None

******** Scores for LSTM (Windows:  3, 3, 3) ******** 

	roc_auc: 0.765, recall: 0.675, specificity: 0.855, precision: 0.480 

	Confusion matrix: 	 [1075  182] 
				 [ 81 168]



Time elapsed: 611.3074774742126
