…
18/18 [==============================] - 0s 16ms/step - loss: 0.2005 - auc_roc: 0.9497
Epoch 1998/2000

18/18 [==============================] - 0s 16ms/step - loss: 0.1855 - auc_roc: 0.9497
Epoch 1999/2000

18/18 [==============================] - 0s 16ms/step - loss: 0.1975 - auc_roc: 0.9498
Epoch 2000/2000

18/18 [==============================] - 0s 16ms/step - loss: 0.1826 - auc_roc: 0.9498
_________________________________________________________________
Layer (type)                 Output Shape              Param #   
=================================================================
masking_1 (Masking)          (None, 336, 2)            0         
_________________________________________________________________
dropout_1 (Dropout)          (None, 336, 2)            0         
_________________________________________________________________
lstm_1 (LSTM)                (None, 336, 32)           4480      
_________________________________________________________________
dropout_2 (Dropout)          (None, 336, 32)           0         
_________________________________________________________________
dense_1 (Dense)              (None, 336, 32)           1056      
_________________________________________________________________
dropout_3 (Dropout)          (None, 336, 32)           0         
_________________________________________________________________
time_distributed_1 (TimeDist (None, 336, 2)            66        
=================================================================
Total params: 5,602
Trainable params: 5,602
Non-trainable params: 0
_________________________________________________________________
None

******** Scores for LSTM (Windows:  3, 3, 3) ******** 

	roc_auc: 0.792, recall: 0.719, specificity: 0.864, precision: 0.485 

	Confusion matrix: 	 [433  68] 
				 [25 64]



Time elapsed: 580.8526446819305
