…
18/18 [==============================] - 0s 16ms/step - loss: 0.1694 - auc_roc: 0.9601
Epoch 2998/3000

18/18 [==============================] - 0s 16ms/step - loss: 0.1898 - auc_roc: 0.9601
Epoch 2999/3000

18/18 [==============================] - 0s 16ms/step - loss: 0.1711 - auc_roc: 0.9602
Epoch 3000/3000

18/18 [==============================] - 0s 16ms/step - loss: 0.1658 - auc_roc: 0.9602
_________________________________________________________________
Layer (type)                 Output Shape              Param #   
=================================================================
masking_1 (Masking)          (None, 336, 2)            0         
_________________________________________________________________
dropout_1 (Dropout)          (None, 336, 2)            0         
_________________________________________________________________
lstm_1 (LSTM)                (None, 336, 32)           4480      
_________________________________________________________________
dropout_2 (Dropout)          (None, 336, 32)           0         
_________________________________________________________________
dense_1 (Dense)              (None, 336, 32)           1056      
_________________________________________________________________
dropout_3 (Dropout)          (None, 336, 32)           0         
_________________________________________________________________
time_distributed_1 (TimeDist (None, 336, 2)            66        
=================================================================
Total params: 5,602
Trainable params: 5,602
Non-trainable params: 0
_________________________________________________________________
None

******** Scores for LSTM (Windows:  3, 3, 3) ******** 

	roc_auc: 0.767, recall: 0.753, specificity: 0.780, precision: 0.379 

	Confusion matrix: 	 [391 110] 
				 [22 67]



Time elapsed: 856.2635679244995
