…
13/13 [==============================] - 4s 315ms/step - loss: 0.0390 - val_loss: 11.9008
Epoch 498/500

13/13 [==============================] - 4s 314ms/step - loss: 0.0344 - val_loss: 11.9385
Epoch 499/500

13/13 [==============================] - 4s 318ms/step - loss: 0.0345 - val_loss: 11.9474
Epoch 500/500

13/13 [==============================] - 4s 315ms/step - loss: 0.0299 - val_loss: 12.0089
Using TensorFlow backend.
_________________________________________________________________
Layer (type)                 Output Shape              Param #   
=================================================================
masking_1 (Masking)          (None, 334, 10)           0         
_________________________________________________________________
lstm_1 (LSTM)                (None, 334, 256)          273408    
_________________________________________________________________
dropout_1 (Dropout)          (None, 334, 256)          0         
_________________________________________________________________
lstm_2 (LSTM)                (None, 334, 512)          1574912   
_________________________________________________________________
dropout_2 (Dropout)          (None, 334, 512)          0         
_________________________________________________________________
lstm_3 (LSTM)                (None, 334, 256)          787456    
_________________________________________________________________
dense_1 (Dense)              (None, 334, 256)          65792     
_________________________________________________________________
time_distributed_1 (TimeDist (None, 334, 2)            514       
=================================================================
Total params: 2,702,082
Trainable params: 2,702,082
Non-trainable params: 0
_________________________________________________________________
None


******** Scores for LSTM (Windows:  10, 5, 10) ******** 

	roc_auc: 0.875 (+-0.22), recall: 0.819 (+-0.32), specificity: 0.931, precision: 0.783 (+-0.35) 

	Confusion matrix: 	 [4476  326] 
…
