…
12/12 [==============================] - 0s 26ms/step - loss: 0.2719 - roc_auc: 0.9130 - acc: 0.9071 - val_loss: 0.3323 - val_roc_auc: 0.9131 - val_acc: 0.9225
Epoch 499/500

12/12 [==============================] - 0s 27ms/step - loss: 0.2604 - roc_auc: 0.9131 - acc: 0.9149 - val_loss: 0.3171 - val_roc_auc: 0.9132 - val_acc: 0.9173
Epoch 500/500

12/12 [==============================] - 0s 26ms/step - loss: 0.2566 - roc_auc: 0.9132 - acc: 0.9101 - val_loss: 0.3152 - val_roc_auc: 0.9133 - val_acc: 0.9068
_________________________________________________________________
Layer (type)                 Output Shape              Param #   
=================================================================
masking_1 (Masking)          (None, 336, 2)            0         
_________________________________________________________________
dropout_1 (Dropout)          (None, 336, 2)            0         
_________________________________________________________________
lstm_1 (LSTM)                (None, 336, 32)           4480      
_________________________________________________________________
dropout_2 (Dropout)          (None, 336, 32)           0         
_________________________________________________________________
dense_1 (Dense)              (None, 336, 32)           1056      
_________________________________________________________________
dropout_3 (Dropout)          (None, 336, 32)           0         
_________________________________________________________________
time_distributed_1 (TimeDist (None, 336, 2)            66        
=================================================================
Total params: 5,602
Trainable params: 5,602
Non-trainable params: 0
_________________________________________________________________
None

******** Scores for LSTM (Windows:  3, 3, 3) ******** 

	roc_auc: 0.663, recall: 0.366, specificity: 0.960, precision: 0.763 

	Confusion matrix: 	 [997  42] 
				 [234 135]



Time elapsed: 162.66291284561157
